SPMLUA_outputs/task2_60/Train_with_full_labels_L2loss/checkpoint_best_2.pth (torch, 691407 bytes, 7 tensors)

weight f4 [80, 240]
000000 bd da 83 3f f4 45 6b 3d 10 4f 0c 3e 42 2e 3d bd
       1.0301129 0.05743976 0.13702035 -0.046186693
000010 b8 20 d4 bd 89 a0 1c 3e 98 84 0b 3f 8a bf af bb
       -0.10357803 0.15295614 0.54499197 -0.0053634094
000020 de 80 6b bd 06 59 fa bd 74 6d 20 be 82 0f 4d be
       -0.057495944 -0.12224011 -0.15666753 -0.20025447
000030 e8 69 73 be 58 59 0e be 89 55 ea bd e4 3e 4d be
       -0.23770869 -0.1390127 -0.11442096 -0.20043522
000040 16 98 a0 3d d8 a2 07 3d 2f 45 1d bd 3f 73 e5 bc
       0.07841508 0.033114284 -0.038396057 -0.028009055
000050 c9 57 90 3d a7 97 5b be 35 fd 83 be 5e cb 58 be
       0.07047994 -0.2144457 -0.2577912 -0.21171328
000060 e8 36 33 3e 7a d5 ca 3d 3f a2 24 bd 6d 3a e2 3e
       0.17501414 0.09903999 -0.040193792 0.441852
000070 74 04 0c be 66 7f d1 bd 21 20 7b 3d 82 60 91 bd
       -0.13673574 -0.102293774 0.061309937 -0.070984855
000080 d0 0f 36 be 6d 5b eb 3c d3 35 3f 3d 32 4f e2 bc
       -0.1777947 0.028730119 0.04668219 -0.027625654
000090 18 88 34 3e 44 dd 84 3d fa d4 05 bc 5a 16 db b9
       0.1763004 0.064875156 -0.008168453 -0.00041787588
0000a0 03 03 dc bd 18 af 2f 3f ac 73 1e bd f6 23 6a bd
       -0.10742762 0.68626547 -0.038684532 -0.0571632
0000b0 c2 15 86 bd 4f 03 58 bd e7 b8 93 bd fb 8e f7 3d
       -0.06547119 -0.05273753 -0.07213002 0.12087818
0000c0 5a e6 11 3e df 27 2a be d6 1f 1f be 9b 94 16 3e
       0.14248028 -0.16616772 -0.15539488 0.14705126
0000d0 cf 86 6b 3e 57 cd ec 3e e7 9c 2b 3c ec 8a 00 b8
       0.23000644 0.46250412 0.01047442 -3.064696e-05
0000e0 47 56 08 be 2d ff 21 be 8a 7c a7 be 18 14 b7 bd
       -0.13314162 -0.15819998 -0.32712203 -0.089393795
0000f0 d3 3e 09 be e1 e3 2a be f3 78 0f 3e 03 ba 87 3e
       -0.13402872 -0.16688491 0.14010982 0.26509103
000100 13 80 1f be 8a f9 38 be a1 b3 77 be 35 3a 0e 3f
       -0.155762 -0.18063942 -0.24189617 0.55557567
000110 be 7b d8 bc 37 20 78 be 7e eb 45 be a5 c0 83 be
       -0.026426192 -0.24231039 -0.19328114 -0.25732914
000120 83 e5 49 be 74 23 67 3d ad 9b 95 be d9 3b 46 be
       -0.19716458 0.056430295 -0.29220334 -0.19358768
000130 cc 59 3a be 89 30 52 3c 40 57 d8 bd a1 8d c9 bc
       -0.18198317 0.0128289545 -0.105635166 -0.024603667
000140 62 d5 65 3e 1d 68 0a be 6c 0f 44 3e 97 d4 21 be
       0.2244468 -0.13516279 0.19146508 -0.15803753
000150 88 2d 47 bc 56 57 e3 ba 47 ba 6e be 10 88 f2 3d
       -0.012156852 -0.0017344754 -0.23313247 0.11842358
000160 54 e6 7a bd a1 95 96 3e 0e ba 9d 3d 3b b2 84 3a
       -0.061254814 0.29411033 0.07701503 0.0010123918
000170 59 a9 90 3e 55 82 3a 3d 39 5a 7f bc 9d 54 1c 3d
       0.28254202 0.04553445 -0.015585476 0.03816663
000180 11 58 2a be a8 ce 75 3e 43 0c 4f be 1d 58 68 3d
       -0.16635157 0.24004614 -0.20219521 0.056724656
000190 97 f0 80 3e 9f 25 36 bd 52 be ca 3d a0 44 1d 3d
       0.25183555 -0.044469472 0.09899582 0.038395524
0001a0 93 1e a8 bd 72 f4 1e 3e 4a 1e 51 3e 8f 6d 12 bf
       -0.082089566 0.15522936 0.2042171 -0.57198423
0001b0 29 2e da bd 5d f5 a7 bd 73 97 a6 bd 37 eb 2d be
       -0.106533356 -0.08201096 -0.081343554 -0.16984259
0001c0 67 df 2e 3c b4 a4 b4 3e 83 18 27 bd 49 f1 af bd
       0.01067338 0.3528191 -0.04079486 -0.08590943
0001d0 60 84 8c 3d db 72 8a 3e b3 8f 9e 3e e0 01 71 3d
       0.06861186 0.27040753 0.3096901 0.05883968
0001e0 2e 9b 38 3d 7c 12 75 3d 31 b1 c8 be 96 91 0e 3e
       0.045069866 0.05983208 -0.39197686 0.13922724
0001f0 13 03 09 3e 31 12 6b bc 03 2a b6 bc 48 68 b0 bb
       0.13380079 -0.014347599 -0.02223683 -0.005383525
000200 63 0f 28 3e 84 9f f1 bc c0 0b a7 bd bc a0 30 be
       0.1641212 -0.029495008 -0.08156538 -0.17248815
000210 ac 25 85 bc 37 3e e1 3b 3c 16 e1 be 66 4d 7a 3d
       -0.016253315 0.0068738717 -0.43962276 0.06110897
000220 73 87 3c 3f bb 81 3c 3e 6c d5 14 be ce 5c 08 bc
       0.7364418 0.18408863 -0.14534539 -0.008322908
000230 eb 7b 14 be d7 a8 fb bc 35 91 34 3d 56 96 31 bc
       -0.14500396 -0.030720158 0.044083793 -0.010839066
000240 fb 04 bb 3b 58 8a c4 3d 43 47 e2 3c 25 d5 7a be
       0.005707381 0.095966995 0.02762187 -0.2449537
000250 96 66 fc 3d 8a 50 83 3c 11 05 7d bd 27 e8 bf 3d
       0.12324254 0.016029615 -0.06177241 0.093704514
000260 79 3e c0 3c 7d 36 7c be 8d a5 36 bd 08 8a 8b be
       0.02346729 -0.2463016 -0.044591475 -0.27253747
000270 8a e3 1d bb 1c c6 b5 3c 53 8d 2c bd ae ac 32 3e
       -0.0024091923 0.022189192 -0.042126965 0.17448685
000280 64 ac 89 bd a9 73 cc bb b5 64 d1 ba 8a a9 8c 3b
       -0.06722334 -0.0062393737 -0.0015975448 0.0042926716
000290 3b 31 4d bd a2 58 8a bc 12 db 97 bc 5d 10 a8 bd
       -0.050095778 -0.016887967 -0.018537078 -0.08206246
0002a0 eb f1 13 bd 80 d6 b2 bd 5a 3e 03 3b 6b 5c 2d bd
       -0.036119383 -0.08732319 0.0020026178 -0.042324465
0002b0 d8 20 0d bc 76 18 60 bd 0c fe 84 3d 52 36 04 bd
       -0.008613788 -0.054710828 0.06493768 -0.032278366
0002c0 59 24 1d bd a9 e6 55 3c 9f 4b ed 3b c9 73 2a bc
       -0.038364742 0.013055482 0.0072416808 -0.010403582
0002d0 8d 1f ed bc 3a b5 6b 3c df 03 8a bd 49 d1 15 bd
       -0.028945709 0.0143864695 -0.067390196 -0.036576543
0002e0 af cc df bc c1 7f 06 3d 18 b5 58 bd 49 e9 5b bc
       -0.02731928 0.03283668 -0.05290708 -0.013422319
0002f0 03 57 ce bd cd 30 9f bd c8 69 39 bd b8 a9 30 bc
       -0.1007519 -0.0777298 -0.045266896 -0.010782652
000300 2f 9e cb bb 71 fd 6a bd 6e 89 15 3d 58 ab bd bb
       -0.0062139253 -0.057370607 0.036508016 -0.005788248
000310 54 82 c3 bd b7 4c c0 bc 38 7f a2 3b bf ab 17 bd
       -0.095463425 -0.02347408 0.0049590133 -0.037029024
000320 17 6f 50 3c 08 62 f5 3b 8a 00 fd bc 90 86 4b 3c
       0.012721798 0.007488493 -0.030884046 0.012422219
000330 32 ac 24 bc 9d 29 34 3c dd 20 a5 bc 19 3f 11 bd
       -0.01005082 0.0109962495 -0.020157272 -0.035460565
000340 76 c6 22 bd d9 c4 a3 3c 59 f7 d5 bc b1 46 ee bd
       -0.03974005 0.019991325 -0.026118921 -0.11634577
000350 61 16 60 bd 87 b8 7f bd 50 fb d8 3c 6b 50 b9 bb
       -0.054708842 -0.06243184 0.026487023 -0.0056553385
000360 a4 be 3d bb 57 12 c0 bb e3 a3 56 3c 09 f3 46 bd
       -0.0028952742 -0.0058615613 0.013100597 -0.04857162
000370 ba 7d b2 bc 71 4a 0c bd cf 8b cd bb f0 9e 65 bd
       -0.021788467 -0.03425068 -0.00627277 -0.056059778
000380 b2 1c a6 3c c7 51 1b bc 20 7f cd bc 51 3a 66 3b
       0.020277355 -0.009479946 -0.025085032 0.0035129974
000390 46 c4 9b 3b 0c 25 8f bc 6a 15 2c 3d 58 b2 38 bd
       0.004753622 -0.01747372 0.04201261 -0.045091957
0003a0 d0 3c bc bc 42 e2 23 bd 48 e0 ee bc 2e 8b 8c bc
       -0.022978216 -0.0400107 -0.02915968 -0.01715621
0003b0 ca 9e 17 bd 57 06 b2 3a 50 79 b3 bc 8d ef 8e 38
       -0.037016667 0.0013582212 -0.021908432 6.8157075e-05
0003c0 af e3 48 bc 83 f0 80 3f 6b b0 cf bc d7 ac 19 be
       -0.012261315 1.0073398 -0.025352677 -0.1500734
0003d0 69 2c a7 bb 88 c0 dd bd 9f 71 a8 bc 41 f1 90 bd
       -0.0051017297 -0.10827738 -0.020561991 -0.070772655
0003e0 b9 6f 7d bc 50 f3 17 bc 37 fa 44 3d 4d c6 b3 bd
       -0.015468531 -0.009274319 0.048090186 -0.08778057
0003f0 dc e8 e5 bc 70 db 96 bc 12 5c 1f 3d f1 19 8b ba
       -0.028065138 -0.018415183 0.038906164 -0.001061259

bias f4 [80]
000000 20 c6 69 3e 43 fb 90 3d 81 d2 20 3e f6 a7 10 3e
       0.22829485 0.07079174 0.15705301 0.14126572
000010 a9 3c d7 3d 26 a7 ce 3d 20 b7 f6 bc 4e 3b 57 3d
       0.10509617 0.10090475 -0.030116618 0.05254679
000020 2b 66 8c 3d 04 69 bf 3d 96 e2 b0 3d 91 3f 03 3e
       0.068554245 0.09346202 0.08636968 0.12817217
000030 40 a8 0f 3e e9 1e e2 3c dd 03 93 3d ee 06 ba 3d
       0.14029026 0.02760263 0.07178471 0.09083353
000040 38 47 82 3d 5f 82 36 3e 8e 6b e1 3d ca bf e9 3d
       0.0636124 0.1782317 0.110068426 0.11413534
000050 6f 3b a4 3d cb 94 32 3d f5 54 18 3e 5d 0d 75 3d
       0.080191486 0.04359893 0.14876159 0.059827197
000060 bc 14 d6 3b de ab 7a 3d 0a e1 17 3e e1 fd 48 3d
       0.0065332334 0.06119906 0.1483194 0.049070243
000070 2a 00 a7 3b 7b b8 63 3d c6 35 0f bc cc b5 84 3d
       0.005096455 0.055595856 -0.008740848 0.064799875
000080 d8 e5 ce 3d 55 2c 08 3e 24 8c f5 3c de 07 5a 3d
       0.10102433 0.13298161 0.02997405 0.05323016
000090 d4 3b 30 bd 8f e5 da bb 7f 5a 96 3d 80 af cc 3d
       -0.043025807 -0.0066801975 0.073414795 0.099944115
0000a0 27 00 cd 3d f4 cc e3 3d d7 ed 2a 3e 64 ef 51 3d
       0.10009795 0.11123076 0.16692291 0.05125369
0000b0 23 7c fd 3d d7 c7 30 3e 56 4c af 3d ab 22 31 bd
       0.12377193 0.17263733 0.08559482 -0.043245953
0000c0 66 89 e9 3c 6c 95 22 3d db b9 32 3e d5 dc 53 3d
       0.0285079 0.03969328 0.1745371 0.051724274
0000d0 e1 c6 67 3b 87 3f 97 3d e9 ac a6 3c 65 9d 54 3d
       0.0035366344 0.07385164 0.020346122 0.051907916
0000e0 d4 ec de 3c 0b a0 6a 3d 9c 31 ae 3d 0f 60 72 3d
       0.027212538 0.057281535 0.08505556 0.05917364
0000f0 96 03 0b 3e 02 87 d9 3d 68 fd 9b 3d db cc 8a 3d
       0.13575587 0.10621454 0.07616693 0.06777354
000100 6c 71 b3 3d 2a c2 96 3d c9 28 dc 3d 14 22 94 3d
       0.08761868 0.073612526 0.10749967 0.072330624
000110 d4 31 35 3e 5c 21 d3 3d 31 90 72 3d e4 bc 25 3e
       0.17694789 0.10309097 0.059219543 0.16185337
000120 d2 59 ea 3d d3 e3 b1 3d 73 c9 06 3d 4d b0 ce 3d
       0.11442913 0.08686032 0.03290696 0.100922205
000130 d3 86 a8 3c 90 5b 1e 3d 2f 94 bf bb d7 00 42 3d
       0.020572102 0.03866154 -0.0058465223 0.047364082

linear1.weight f4 [256, 512]
000000 53 5d 67 bd 1a 4f 8d 3c 5d b6 31 3d 09 14 3c 3d
       -0.056485485 0.017249633 0.043386806 0.045917545
000010 ad 2a fc bc 45 9b 13 3d 33 86 6d bd 48 9d 9a bc
       -0.030782068 0.03603675 -0.05798931 -0.018873826
000020 a1 00 ee bc 95 85 41 3d 94 fb 27 bd 55 b2 b0 bc
       -0.029053034 0.047246534 -0.041011408 -0.02156941
000030 93 0a 0b bd 2c aa 0d 3d 98 61 3b bd b7 a2 e3 bb
       -0.03394563 0.034586117 -0.04574737 -0.0069468874
000040 0c c7 24 3c 0d 75 44 3d d6 9d 41 bc 98 25 f8 3c
       0.010057222 0.04796319 -0.011817416 0.030291364
000050 d4 bf e6 bc 96 90 81 bc 31 b7 8d 3c 92 23 3f 3c
       -0.028167643 -0.015816014 0.017299267 0.0116661955
000060 d1 72 4b bd c9 1d 1b 3d 27 8d 8a 3c 9a 30 2b 3d
       -0.049670044 0.037870202 0.01691301 0.041794397
000070 47 46 a1 3c 26 bd c4 bc 62 80 b2 bc e9 25 05 bd
       0.019686831 -0.024015974 -0.021789733 -0.032506857
000080 71 57 c6 bc 5f a2 6f 3b 12 ea aa 3c a8 d9 48 3d
       -0.024211617 0.0036565287 0.020863567 0.0490357
000090 46 94 4c bd 41 3a fa 3c 5a cf 30 bd 24 66 f4 bc
       -0.049946092 0.030545356 -0.043166496 -0.02983386
0000a0 07 f0 83 3c d4 ab 10 bd bd 9d 50 3d 77 99 a0 3c
       0.016105665 -0.035320118 0.05093168 0.019604428
0000b0 3b 22 57 bc d7 ca 01 3c b7 7f 15 3d 5b 6b 90 3c
       -0.01313072 0.007921896 0.03649875 0.017629316
0000c0 60 27 11 3b 42 e2 1f bd a9 67 c2 bb b2 cf cc bc
       0.0022148713 -0.039034136 -0.0059327674 -0.02500138
0000d0 b3 25 68 bc 09 02 3e bd 4d 82 4a 3c cc 96 23 3d
       -0.014169144 -0.04638866 0.012360168 0.039938733
0000e0 b8 4f 4c bd 50 f9 75 bd 45 0e 2a 3d c6 cf 3c bd
       -0.049880713 -0.060052216 0.041517515 -0.046096586
0000f0 0f 86 39 bd a1 26 2c 3d 70 e5 54 bc 05 5b 8a 3c
       -0.045293864 0.042029027 -0.012994155 0.016889105
000100 88 a2 a2 bc 02 de da bc 37 76 7d bd 8c 59 56 3d
       -0.019852892 -0.02671719 -0.061880317 0.052331492
000110 48 51 87 bc 88 d6 28 3d b0 0c 6f bd 39 de d1 3c
       -0.01651825 0.041220218 -0.05836171 0.02561866
000120 18 00 77 bd bd 17 5f 3c dd 1f aa bc e3 ba 43 3d
       -0.060302824 0.0136164995 -0.020767147 0.04778565
000130 41 86 55 bd 04 e1 dd 3c fb 6f d2 bb 25 54 1c 3d
       -0.052129988 0.027084835 -0.0064220405 0.038166184
000140 0f c0 c7 3c 5a ec 6b bc 97 ee 15 3d 05 ef fe bc
       0.024383573 -0.014399612 0.03660449 -0.031119833
000150 db c3 8d bc 1f a0 67 bd 6c 86 26 bd 18 d6 5f bd
       -0.017305305 -0.056549188 -0.04065554 -0.054647535
000160 70 b6 e1 bc 4c 3b 46 3d 8e 6f 2e 3d 80 60 2e bc
       -0.027552813 0.048396394 0.042586856 -0.010643125
000170 3b 39 29 3d f1 24 22 bc 3c 82 ed 3c 91 2d d2 3c
       0.041314345 -0.009896503 0.028992765 0.025656493
000180 02 51 26 3d f9 6c 5d bd c4 bf 0b bd b9 d4 38 bd
       0.0406046 -0.054059003 -0.03411843 -0.045124743
000190 da 43 4e bd f2 c7 4b 3d 2f a6 01 bd 75 1c d4 3c
       -0.050357677 0.04975123 -0.031652626 0.025892476
0001a0 69 f0 6b bd 24 4d 9b 3c 10 2a 36 bd 1e 01 21 bd
       -0.05760232 0.018957682 -0.044473708 -0.039307706
0001b0 95 3f 93 bc bf 75 6c 3d 9e 80 cc 3c 31 1e a1 3c
       -0.017974654 0.05772948 0.024963673 0.019667717
0001c0 0a b6 e1 3c 2c a4 04 3d c8 e1 53 3d e2 45 50 3c
       0.027552623 0.03238313 0.051728994 0.012711974
0001d0 51 33 bd 3c 0d 20 50 bc 74 40 48 3c 1a 12 dc 3c
       0.023095759 -0.012702954 0.012222398 0.0268641
0001e0 66 1f 6f 3c 84 f5 7d 3c d0 6a 7a 3d cf 7a b1 bc
       0.014594888 0.01550043 0.06113702 -0.021665005
0001f0 c6 5b 75 bd ed 48 47 bd 69 e3 d2 bc cc 12 00 bd
       -0.059901975 -0.04865353 -0.025743203 -0.031267926
000200 c1 b0 94 bc a9 a6 9e bc b4 fd 43 bc 61 47 02 bd
       -0.01815069 -0.01936658 -0.011962343 -0.031806353
000210 33 10 69 3d 25 63 5c bd 04 c0 15 bd b8 dc 25 3d
       0.056900214 -0.05380549 -0.036560073 0.040493697
000220 fe c6 73 bc 39 e4 92 3c cb 3c f8 3c 34 4a f2 3c
       -0.014878986 0.01793109 0.030302426 0.029576398
000230 30 d0 93 3c 6a db f8 3c 6f 45 1f bd 7a 5d 60 bd
       0.018043607 0.030378062 -0.038884576 -0.054776646
000240 a5 2b fc 3c 11 3f 79 3d c4 c4 94 bc a2 df ea ba
       0.03078253 0.06085116 -0.018160231 -0.0017919431
000250 96 ed 4c bd fb a1 11 bd 8f d6 36 3c 80 3e 08 3d
       -0.050031267 -0.035554867 0.011159553 0.03326273
000260 8c 0e a2 3c f6 3b 52 bd 43 82 23 bc d9 19 13 bd
       0.019782327 -0.051326714 -0.009979787 -0.035913322
000270 91 f4 4c bd 59 0a 8b bc f7 9f 42 3c 0d a1 50 3d
       -0.050037924 -0.016972708 0.011878959 0.05093484
000280 91 5f ef 3c 15 a6 4e bd 5a 4a 2e 3c a0 b6 1b bd
       0.029220374 -0.050451357 0.010637844 -0.03801596
000290 62 97 e7 bc 91 ee 2d bd b0 6d b3 bc c1 66 1a 3d
       -0.028270427 -0.042463843 -0.021902889 0.03769565
0002a0 83 af 74 3c de 61 47 bd 93 1c 43 3d c5 77 33 3d
       0.014934423 -0.048677318 0.047634672 0.043815393
0002b0 9a 6a 03 3d eb 92 35 3d 1d 05 6f bd 5f 01 9d bc
       0.032084085 0.044329565 -0.058354486 -0.019165693
0002c0 01 fc 81 3c bd 98 1f 3d c9 5a 81 bc f5 b6 03 bd
       0.015867235 0.038964022 -0.01579036 -0.032156903
0002d0 b7 ae 3b bc cb c8 a3 3c f4 e5 10 3d f7 bf 4f bd
       -0.0114552295 0.019993206 0.03537555 -0.05072018
0002e0 dd 8c 70 3c 28 bb 5f 3d 19 ef 51 bd 6f 80 6c 3d
       0.014682022 0.054621845 -0.051253412 0.05773967
0002f0 d3 79 58 3b 5d 4b 1e 3c 10 43 40 bc 29 80 7d bd
       0.0033031597 0.009661523 -0.011734739 -0.0618898
000300 6e 6d 10 bd 96 21 3d bd fb 4c ca bc 8e 97 08 bc
       -0.03526061 -0.04617461 -0.02469491 -0.008336915
000310 68 d7 18 bd df 1d 5c bd cc 61 c6 bc 3a f7 63 bc
       -0.037314802 -0.053739425 -0.024216555 -0.013913924
000320 b2 ed 5e bd 80 26 66 bd 56 01 de 3c ce 54 7b bc
       -0.054425903 -0.05618906 0.027100246 -0.015340043
000330 62 47 5d 3d 0f 46 3a 3d 2a 80 05 bd 2c f9 fa bb
       0.054023154 0.04547697 -0.03259293 -0.007659098
000340 62 8e 19 bd 78 d9 f2 3c e3 9f 16 bd 6e 01 40 bd
       -0.037489302 0.029644713 -0.036773574 -0.046876363
000350 38 92 9a 3c 80 a5 4d bd 7d 26 34 bd 91 71 63 bd
       0.01886855 -0.05020666 -0.043982018 -0.055528227
000360 45 0e ab 3c 39 8f 0e bd e7 04 02 3d c4 ee 3b bd
       0.020880828 -0.034804557 0.031742956 -0.045882
000370 97 37 9f 3c 4c 74 3a bd e8 28 1d 3c 00 70 9a 3c
       0.019435687 -0.045521066 0.009592272 0.018852234
000380 86 55 4f 3d a6 70 4a bd be e1 c6 bc ae d0 56 bd
       0.05061867 -0.049423836 -0.024277564 -0.052445106
000390 21 6b e4 bc 26 c8 4a bd 1a b6 44 3d 63 55 b5 3c
       -0.027883114 -0.049507283 0.048025228 0.022135442
0003a0 f7 ba 1d bd e4 e0 c2 3c 84 bb df bc a0 67 d1 bb
       -0.03850838 0.023788877 -0.027311094 -0.006390527
0003b0 83 34 c9 3c 69 2a 4e bc c5 16 20 3d b6 24 c1 bc
       0.024561172 -0.012583354 0.039084215 -0.023577075
0003c0 3a 11 ee bb cd 94 3b 3d 75 7f 2a 3d 63 fe a5 bc
       -0.007265237 0.045796204 0.04162546 -0.020262903
0003d0 da 5a 2c 3d ef f6 40 3d 2a a0 eb 3c 76 53 7d 3c
       0.04207883 0.047110494 0.028762896 0.015461793
0003e0 f8 06 0a 3c 4a 41 34 3d 80 83 f7 3c d9 30 46 bd
       0.008424513 0.044007577 0.030214071 -0.04838643
0003f0 cc 5a 6c bc 3f 3c b3 3c 3a 6c 50 3c f5 53 7a bd
       -0.014425945 0.021879314 0.012721116 -0.061115224

linear1.bias f4 [256]
000000 e2 1b 7d bd 72 cb 30 bd a0 30 43 bd 15 b5 cf bd
       -0.06179417 -0.04316277 -0.047653794 -0.101419605
000010 b5 93 9c bd 7b e9 19 be 0d 2f cb bc c7 63 3c bd
       -0.076453604 -0.15030472 -0.024802709 -0.045993593
000020 33 38 09 bd 98 69 b0 bc 87 c8 31 bd 3c 83 35 bd
       -0.03350086 -0.021534726 -0.04340413 -0.044314608
000030 1b e0 0f bd 83 8e 4e bd ed 2f fc bc 0c a0 9c bd
       -0.035125833 -0.05042888 -0.030784572 -0.07647714
000040 47 64 4e bc ad fa 5a bc 19 25 05 be d9 6e 29 bc
       -0.01259715 -0.01336543 -0.13002433 -0.01034137
000050 8d 4b 72 bc da 3a 4e bd a2 33 84 bc bc 7b 02 be
       -0.0147885205 -0.050349094 -0.016137902 -0.12742513
000060 cf 64 1b bc da d1 8e bd ca f0 3e bd d7 52 19 bd
       -0.009484484 -0.0697362 -0.046616353 -0.037432518
000070 c8 1f 7e bd ef 61 50 bd 35 b1 8f bc 5b 48 0d bb
       -0.062042028 -0.050874647 -0.017540554 -0.002155802
000080 60 e3 9b bd 6c 7c 68 bd ac 25 56 bd f9 02 74 bd
       -0.07611728 -0.056759283 -0.05228202 -0.059573147
000090 d5 c7 3c bd 49 9a ca bc f4 63 02 bd b1 af f2 bd
       -0.046089012 -0.024731772 -0.031833604 -0.11849917
0000a0 fd 03 53 bc fd ca 3f bd 13 d2 33 bd 48 35 f9 bd
       -0.012879369 -0.046824444 -0.043901514 -0.12168366
0000b0 b1 4c 99 ba d7 38 b8 bc 2a 61 cc bd d2 75 b8 bc
       -0.001169583 -0.02248804 -0.0997947 -0.022517119
0000c0 0f 5a b4 bc 4e de 88 bd 09 df 1b bd f2 60 ce bb
       -0.0220156 -0.06683026 -0.0380545 -0.006298178
0000d0 57 ca da bc af 3d 07 be 74 be 30 bd b1 bc 38 bd
       -0.026707811 -0.13207124 -0.04315038 -0.045101825
0000e0 35 83 9c bd a4 ba 0e bd 3b 5f 84 bd e0 1d 0f bd
       -0.07642213 -0.034845963 -0.06463476 -0.0349406
0000f0 90 21 0a bd 5f 2d 7b bd e8 11 ad bd 48 9a 07 bd
       -0.033723414 -0.061322566 -0.08450681 -0.03310612
000100 6f 59 f1 bc 7f 1a 01 bd 20 4a 1a bd 04 b2 14 bd
       -0.02946159 -0.03151941 -0.037668347 -0.03630258
000110 b0 47 67 bd 7f b7 24 bd 8d 7c 0c bd 3d dc bc bc
       -0.05646485 -0.040214058 -0.03429847 -0.023054237
000120 40 48 35 bc cf f3 28 bd e5 88 d0 bb 21 06 12 bd
       -0.011064589 -0.04124814 -0.0063639753 -0.035650376
000130 96 41 3d bd 7d b8 c4 bc 46 5d 84 bc 9c 5b 08 bd
       -0.046205126 -0.024013752 -0.016157757 -0.03329049
000140 a8 bb 0d be fa 4c fd bd d7 fa fd bc da b0 e2 bd
       -0.13841116 -0.12368198 -0.031003399 -0.11068888
000150 74 bd 96 bd 57 aa cb bd ce 81 71 bd be 32 d1 bd
       -0.07360354 -0.09944599 -0.058961682 -0.102147564
000160 6c ee 74 bc 1d e0 e1 bc b5 7b 59 bd 06 ca 25 bd
       -0.014949422 -0.027572686 -0.05309649 -0.040475868
000170 74 3d 41 bd 31 be 72 bd c0 d8 0c bd ec 3c 19 bd
       -0.047177747 -0.059263412 -0.034386396 -0.037411615
000180 25 1c 63 bd 61 64 5c bd 08 5f 84 bd dd 73 43 bc
       -0.055446763 -0.053806666 -0.06463438 -0.011929479
000190 50 95 5a bd 51 37 c1 bd b9 90 12 be 8f 26 b0 bd
       -0.05336505 -0.09434379 -0.1431302 -0.086011045
0001a0 31 6a 4e bd a5 59 8c bd 5a 14 f6 bd 27 fd 25 bd
       -0.05039424 -0.06853036 -0.120156005 -0.040524628
0001b0 c3 ac c4 bd 17 72 6a bd e6 1e 3b bd f3 fd 49 bd
       -0.09603264 -0.05723771 -0.045683764 -0.04931445
0001c0 69 21 1a bd ad 13 4b bc 18 fe a0 bc ea 81 9c bc
       -0.03762952 -0.012394828 -0.019652411 -0.019104917
0001d0 8c 50 6c bc 4a 5d 05 bd ea 77 5a bd da d7 8e bc
       -0.014423501 -0.03255967 -0.053337015 -0.01743691
0001e0 56 e5 cb bd 25 8e 99 bc fb 74 c9 ba 1c 86 b7 bc
       -0.09955852 -0.018744538 -0.0015369946 -0.022402816
0001f0 6c 9c e2 bc 29 2a 37 bd 98 62 50 bc cb 87 43 bd
       -0.027662478 -0.04471794 -0.012718819 -0.047736924
000200 00 08 41 bd 16 aa 97 bc 62 f6 7f bd 9d 91 13 bc
       -0.04712677 -0.01851372 -0.06249083 -0.009006885
000210 d7 1d 5c bc 1f 7a c3 bc fa c8 0f bd 4f 1b 30 bd
       -0.013434849 -0.023861943 -0.035103776 -0.042994794
000220 26 76 ae bd d5 6b 1d bd 62 d0 0d bd 7f d1 28 bd
       -0.08518629 -0.038432915 -0.034622557 -0.041215416
000230 8c b2 3d bd 3d ca 89 bd de 4e ac bc 08 c8 42 bd
       -0.046312854 -0.06728027 -0.0210337 -0.047554046
000240 a8 62 95 bd f7 e7 4f bd 6d 0e ef bc 44 70 e5 bd
       -0.07294208 -0.05075833 -0.029181683 -0.112030536
000250 d0 a5 ff bd 46 e0 3b bd e7 d6 2b bc 28 e5 6c bc
       -0.12482798 -0.04586818 -0.010488248 -0.014458932
000260 5c 09 d1 bc 9d 33 3e bd 21 47 4a 3a bb c9 1e bd
       -0.025517158 -0.04643594 0.00077162875 -0.038766604
000270 5c 92 8e bc 99 9c 2c bc b7 05 45 bd e7 f3 33 bd
       -0.017403774 -0.010535383 -0.048101153 -0.043933775
000280 0b 79 a0 bd 17 75 b7 bc a4 8c 01 bd 49 e2 34 ba
       -0.07835587 -0.0223947 -0.031628266 -0.0006900174
000290 08 8d 28 bd 24 8e 77 bc cb 0b f4 bd 1a 25 c9 bc
       -0.041150123 -0.015109573 -0.11916312 -0.024553824
0002a0 3e f6 41 bd 86 54 5c bb 6e c6 47 bd 06 22 14 bd
       -0.047353975 -0.0033619716 -0.04877322 -0.03616526
0002b0 0f 74 39 bc 10 de aa bc 30 44 d9 bd 9b fe b2 bd
       -0.011319174 -0.02085784 -0.10608709 -0.087399684
0002c0 59 6f 4b bd 5b f3 54 bd 1c 2e 45 bc 5d 2b f3 bc
       -0.049666736 -0.051989894 -0.012034919 -0.029683763
0002d0 cb 5a 31 bd b6 b0 26 be ab 49 4a bd 20 4e d2 bc
       -0.043299478 -0.16278347 -0.04938666 -0.025672019
0002e0 94 91 b6 bd 78 67 fb bc e6 af 70 bd 15 fc 2e bd
       -0.089144856 -0.030688986 -0.0587615 -0.042720873
0002f0 ee 7b be bd 61 77 15 bc 35 88 eb bc 10 95 85 3b
       -0.093009815 -0.0091227 -0.028751472 0.0040766075
000300 15 43 da bd 72 e8 9f bd 20 ae 8d bc 97 ae e8 bc
       -0.10657326 -0.07808007 -0.017294943 -0.028403563
000310 fc 20 b6 bd 66 8e 7a bd c3 0b 62 bd c4 4f 59 bd
       -0.0889301 -0.061170958 -0.055186998 -0.053054586
000320 e9 71 ad bc dc 9c af bd 7f eb 1b bc 17 bc 3d bd
       -0.02117248 -0.085748404 -0.009516596 -0.046321955
000330 d5 2f 51 bd 9b e6 f4 ba fd 02 81 bd b4 ef 90 bb
       -0.051071007 -0.0018684448 -0.06299398 -0.004423106
000340 22 b8 18 be 3f 28 36 bd 8d ed 80 bc f4 41 02 be
       -0.14913991 -0.044471975 -0.015738273 -0.12720472
000350 30 dd 4c bd f2 d9 d8 bc 4d fb 4b be 3b a2 90 bc
       -0.05001563 -0.026471112 -0.19920082 -0.017655483
000360 50 30 5d bd 68 18 5c bc ee 9d d0 bd d5 46 9c bc
       -0.054001153 -0.013433553 -0.10186373 -0.019076744
000370 5b 91 2c bd 68 95 4a bd 6d 49 b4 bd 8f 1a 36 bd
       -0.04213081 -0.04945889 -0.08803067 -0.044458922
000380 44 e8 21 bd 1c 41 05 bd 70 7f 1a bd 9b f1 9d bd
       -0.039528146 -0.032532796 -0.03771919 -0.07712098
000390 37 0d 5a bd 14 ee 43 bd 3d e1 61 bd ae fb fd bc
       -0.05323526 -0.04783447 -0.055146445 -0.0310038
0003a0 72 97 20 bd 34 05 71 bd eb 50 f0 bd 8d ad 1a bd
       -0.03920693 -0.058842853 -0.11734184 -0.037763167
0003b0 fe 05 42 bd 9c b1 9b 3a 69 e1 33 bc ca 7a 84 bd
       -0.047368996 0.0011878493 -0.010979035 -0.06468733
0003c0 33 3e 9d bd 98 41 57 bd f6 c0 57 bd c8 8d 88 bd
       -0.07677879 -0.05255279 -0.052674256 -0.066676676
0003d0 e8 66 2b bd b8 eb 17 bd 04 a2 8b bd 92 68 2b bd
       -0.041846186 -0.037090033 -0.068180114 -0.041847773
0003e0 3f a4 a1 bd 02 38 8b bd 07 c8 c4 bc a0 73 03 be
       -0.078926556 -0.06797792 -0.024021162 -0.12837076
0003f0 20 5b 4b bd b2 a2 5c bc b6 e4 37 bd 4e b1 e0 bc
       -0.04964745 -0.013466524 -0.04489585 -0.027428295

linear2.weight f4 [80, 256]
000000 72 a4 fb bb fb 67 17 3e dc f0 92 bd 2a a0 a7 bc
       -0.0076795155 0.14785759 -0.071748465 -0.020462114
000010 4c ea 55 bd 4d 73 30 bd b2 9e 98 ba 29 ac 88 39
       -0.052225396 -0.04307871 -0.0011643975 0.0002606821
000020 fc 19 47 bc 72 6d 28 3d 8e 63 f4 bb f0 68 7b 3c
       -0.012152191 0.04112 -0.007458157 0.015344843
000030 a7 7c cd 3c 1f 7a e1 bb 8b 69 fc 3c 2d b2 10 3e
       0.025083853 -0.006881013 0.030812046 0.14130469
000040 41 9b 0d bd fa 64 28 3d bf 6b 23 3e 6a 34 96 3b
       -0.03457189 0.041111924 0.1595907 0.004583885
000050 69 f7 39 3d 2c f8 38 bc 2d 94 94 bc 2f aa d8 3b
       0.045401964 -0.011289638 -0.018137062 0.0066120843
000060 e5 fa d9 3c 6e 39 eb 3b 38 2c 65 3d f3 92 c6 bb
       0.026608894 0.007178477 0.055950373 -0.006059998
000070 75 42 01 bd 03 04 50 3c 07 6c 7a 3d f6 86 32 3c
       -0.03155752 0.012696269 0.06113818 0.010896435
000080 96 6f b9 3d 53 80 62 3d ff 4c 61 3d 73 27 66 bc
       0.090544865 0.05529816 0.05500507 -0.014047491
000090 ac a2 b5 3d 7c 5e 20 3d 05 8d 55 bd 97 5a 4a bd
       0.08868918 0.039152607 -0.05213644 -0.0494028
0000a0 f5 e2 82 3d cd 33 ed bc b9 f0 8c 39 4e e0 55 3c
       0.06390945 -0.028955365 0.00026882233 0.013053967
0000b0 56 3f 11 bb 20 18 7f 3d 17 a7 ab 3d a5 97 87 3c
       -0.0022162995 0.062278867 0.08381479 0.016551802
0000c0 9e 71 eb bc 7f 84 2d 3c 92 aa 43 bc 5a 90 86 3c
       -0.0287407 0.010590672 -0.011942523 0.016426254
0000d0 b5 be 01 3d 1d 6f 03 3e 31 86 0f 3b 43 f9 e5 3b
       0.031676013 0.12835355 0.0021900053 0.0070182397
0000e0 b3 fe 97 3d 05 70 46 3d 2a 52 d2 bc 3b d6 f7 bc
       0.07421627 0.048446674 -0.025673945 -0.03025352
0000f0 ce 18 0e 3d 64 c5 0b 3d ab fb ac bd 53 91 86 3a
       0.034691624 0.034123793 -0.08446439 0.0010266699
000100 7a 41 30 3b 0c be 60 3c b3 e0 93 ba 06 ac 41 3d
       0.0026894496 0.013717186 -0.0011282176 0.047283195
000110 da 19 74 3d ad 6a 6c bd b9 90 15 bd 98 1d 14 3d
       0.059594966 -0.05771892 -0.03651497 0.036161035
000120 2b 3e 81 3c 49 98 46 bd 8c 71 b1 3b e6 bd fc bc
       0.015776714 -0.048485074 0.005415147 -0.03085227
000130 6d 9d 0a 3d 97 3c de bc 45 9a d8 bc 5c b7 92 3d
       0.03384154 -0.0271285 -0.026440749 0.07163879
000140 f3 83 2e 3d 21 84 0f 3e 1d 4f 3b 3d 48 03 ec 3d
       0.042606305 0.14015247 0.045729745 0.11524063
000150 9c 65 c0 3c dd 0c da 3c 5a bc 0e 3d f9 06 1e 3d
       0.023485951 0.026617462 0.034847595 0.03858087
000160 c4 08 93 bd eb 39 15 bd 34 55 86 3c 79 8d 3e bd
       -0.07179406 -0.036432188 0.01639805 -0.046521638
000170 b2 fb 74 3b 07 b0 36 bd 27 ab 21 3d 12 af a1 3d
       0.0037381467 -0.044601467 0.039469864 0.0789472
000180 e5 69 18 3d 52 7c 0c 39 08 cb 14 bd 06 78 fc 3c
       0.037210364 0.00013397753 -0.03632644 0.03081895
000190 e5 8b 16 bc 58 e4 b8 3d 41 42 09 be f6 da 40 be
       -0.009188627 0.09027928 -0.1340418 -0.18833527
0001a0 6f 55 95 bc f9 2a 80 bd 1f a7 c7 bc 07 3d 0e 3d
       -0.018229214 -0.062581964 -0.024371682 0.03472617
0001b0 4a 54 49 bd 3f 25 67 3d 1b 69 6d bd 29 0e 71 3d
       -0.04915265 0.056432005 -0.057961565 0.058851395
0001c0 5c f0 1f bd 80 a5 a8 3c 27 bd 71 bd 1e d2 bc 3d
       -0.039047584 0.020586729 -0.05901828 0.09219764
0001d0 7c f2 15 3d 13 db 3a bd a7 62 85 bd 0b 6e 16 3c
       0.036608204 -0.04561908 -0.06512957 0.00918151
0001e0 89 a5 2e bd d8 85 f0 bc 8a c8 39 bd d5 b8 2d 3d
       -0.042638335 -0.029360697 -0.045357265 0.042412598
0001f0 d5 e1 41 bc 8a 1d be 3d 6b 8a 5e 3c 80 65 0e bd
       -0.011833628 0.09282978 0.013582806 -0.034764767
000200 71 15 e4 bc bc e1 06 3d 99 52 35 3e a7 a2 83 3d
       -0.027842255 0.03293012 0.1770729 0.06427508
000210 47 ba 4d bd 5b 6e fc 3c 73 03 72 bd 3c a8 10 3d
       -0.050226476 0.03081434 -0.05908532 0.03531669
000220 76 dc c4 bd 57 61 03 3c 0c 7e ba bd 7a ac 9c 3c
       -0.09612362 0.008018813 -0.09106073 0.019125212
000230 02 4c fd 3c d9 18 79 bd 22 ed b2 bc b4 0e ee 3c
       0.030920032 -0.060814712 -0.02184159 0.029059745
000240 68 9a 7c 3d 87 b4 11 3e ad 45 52 3d f5 3c 3c be
       0.06167069 0.14229022 0.05133598 -0.18382628
000250 da 94 c2 bb ad ff 34 3b 27 5b 93 bc fa ce 51 bb
       -0.0059381546 0.0027618215 -0.0179878 -0.0032014237
000260 d2 11 6a bc b3 6d 8b 3c 78 97 94 bd d8 a6 c7 3d
       -0.014286475 0.017020082 -0.07255453 0.0974862
000270 fd 37 8a bd d0 0e f3 3c b3 3e ab 3c ac 50 64 3d
       -0.0674896 0.02967015 0.02090392 0.055740997
000280 22 a0 ca 3d 7f 59 ce 3c 19 78 37 bd ca e1 8f bc
       0.09893824 0.02518916 -0.04479227 -0.01756372
000290 1c 63 2b bc 71 66 c0 3b 77 64 8d bd b0 f4 2f bd
       -0.010460641 0.005871587 -0.06903928 -0.04295796
0002a0 5b 69 43 3b c8 6f 43 bb 38 e2 83 bd 39 4e b2 3d
       0.0029817435 -0.0029821265 -0.06439632 0.08706326
0002b0 d9 86 a8 bc e6 2b 47 3d 0d 3b 45 3c 02 88 97 3d
       -0.020572113 0.04862585 0.012038005 0.07398988
0002c0 bf 3b 8e bb 71 e7 89 bd 97 5e a6 3c bc 93 a8 bb
       -0.0043406184 -0.06733597 0.020308776 -0.0051445644
0002d0 f3 bc 39 3d b3 bc 0a bc ec c8 25 3e 65 a7 fb 3b
       0.04534621 -0.008467841 0.16189927 0.007679867
0002e0 10 77 18 3d e7 12 74 3d 17 8b fe bc d7 f6 1f 3d
       0.03722292 0.05958834 -0.031072183 0.039053764
0002f0 45 6e 1b be 8b 12 6c bd 36 95 f5 bd 76 cb d4 bb
       -0.15178783 -0.05763487 -0.1199135 -0.006493981
000300 ea 48 03 3e 7a ad ad 3c 80 94 77 bd 4f 92 c5 bc
       0.12820783 0.021200884 -0.060444355 -0.024117617
000310 38 5d 48 3e c6 6e 45 bd 34 f1 1c 3d 55 78 91 3d
       0.1956681 -0.048201345 0.038315967 0.0710303
000320 77 99 52 3d 33 d1 92 bc 95 5c 89 bc 02 ac 81 bd
       0.051415887 -0.01792202 -0.01676778 -0.06331636
000330 c1 56 fe 3b ee bc 41 bd b2 27 84 bc 41 3b 9a 3c
       0.0077618067 -0.047299318 -0.01613221 0.018827083
000340 a4 e5 8d bd 94 d2 0d bd 6a 66 7e bc ab c5 b1 bd
       -0.06928566 -0.03462465 -0.015527347 -0.0868028
000350 61 19 73 3d 97 0a 0a be ea 15 49 bd 40 ed 05 3d
       0.059350375 -0.13480602 -0.049093165 0.032696962
000360 43 0b 31 3c 52 45 97 bd 35 cd 76 be ad 9e 99 3d
       0.010805908 -0.07386269 -0.24101718 0.07500968
000370 fa 3e 41 bd 95 df 46 3d bf 4e 6c be a3 1a b4 bc
       -0.0471792 0.04855307 -0.23076914 -0.021985358
000380 ee 9f 58 bd 0e 17 18 3b df 8d 51 bc a8 f8 86 bd
       -0.052886896 0.00232071 -0.012790172 -0.06590396
000390 c8 1d bb bd 84 ac a9 3c 53 d3 e7 bc 8d ef a1 bc
       -0.0913654 0.020712145 -0.02829901 -0.019767547
0003a0 bb b6 be 3c 97 90 83 bd b2 69 ad 3d d7 e3 d3 bc
       0.023280492 -0.06424063 0.084674254 -0.025865478
0003b0 1d 66 5c bd 90 aa 44 3d cb d4 f0 3c 47 38 f1 bb
       -0.05380832 0.048014224 0.029398343 -0.007361445
0003c0 d0 3d 54 bd 92 38 35 3c aa 63 3d 3d 08 5a 6d 3c
       -0.05181676 0.011060851 0.046237625 0.014486797
0003d0 00 47 98 bd e9 46 77 ba 42 d6 dd 39 55 5f 95 bc
       -0.07435417 -0.00094328687 0.0004231204 -0.018233934
0003e0 ff 9e 72 3d dc 6b a9 bd da ab a2 3c c6 ca f9 bc
       0.05923366 -0.08272526 0.019857336 -0.030492198
0003f0 0d 49 7b 3d 64 50 30 bd 5c 7a 1d 3d 89 ae bb bb
       0.061348964 -0.043045416 0.03844677 -0.0057275933

linear2.bias f4 [80]
000000 dc fb 5c bd 91 ce 65 3c 72 b1 43 ba 7f 13 d2 bd
       -0.05395113 0.0140263 -0.0007465101 -0.10257625
000010 72 82 24 3c 8a 63 0d bd 8c 16 7e 3b 34 c0 53 3b
       0.010040866 -0.034518756 0.0038770763 0.0032310607
000020 ca 3d c3 bc 27 4a 0e 3d 24 e7 1f 3d d8 e1 85 bd
       -0.023833174 0.034738686 0.039038792 -0.06537217
000030 02 9f 12 bd 2c 5c 20 3c 60 8f 6b 3d 20 a2 8c bd
       -0.035796173 0.0097876005 0.05750978 -0.068668604
000040 cb 3b 0b bc 84 81 d8 bc 29 f1 e4 bc d6 d2 d1 bc
       -0.0084981425 -0.026428945 -0.027947025 -0.02561323
000050 2f af 23 bc 22 e9 3b bc 20 99 e9 bc 30 05 43 3d
       -0.0099904975 -0.011469157 -0.028515399 0.04761237
000060 c5 7b 27 bc bd f7 00 3c f8 f3 03 bd 70 d2 13 3e
       -0.01022238 0.007871565 -0.03221509 0.14435744
000070 72 4b 44 bd 5f e9 8e 3c 21 88 98 bd a1 c7 cb 3c
       -0.047923513 0.017445264 -0.074478395 0.024875464
000080 94 47 be 3c 89 8f 29 3d 79 38 e6 bc 05 d1 3a 3d
       0.02322749 0.04139665 -0.0281031 0.045609493
000090 ea 8e 31 bc cf 3d 7d 3d 8e 2e a0 bd a7 0b 8f 3c
       -0.010837296 0.061826523 -0.078213796 0.017461611
0000a0 fa 69 59 3c 69 97 48 bc 2e 02 69 3c d6 c7 1b bd
       0.013269896 -0.01224313 0.014221711 -0.038032375
0000b0 06 99 e6 bc 4b a5 27 3d 3b ea b7 3c ff 86 13 bd
       -0.02814914 0.04092912 0.022450557 -0.036017414
0000c0 9f 17 70 bd 6f 2e aa 3d e7 2d 95 bb 04 c6 d1 3c
       -0.058616277 0.08309638 -0.004552591 0.025607117
0000d0 6c ad 00 be 62 5c 61 bc 65 a1 09 3c 3b c2 ac 3b
       -0.12566155 -0.013754936 0.008400296 0.0052721775
0000e0 78 0c 09 be fe f3 45 3c b5 02 de 3c a3 42 47 3d
       -0.13383663 0.012082098 0.0271009 0.048647534
0000f0 71 8e 59 bc 5d c8 10 3c 89 92 b4 3d b8 6d 53 3d
       -0.01327859 0.008836833 0.08817012 0.051618308
000100 e8 47 63 bc c7 e4 38 bd 11 52 02 3d 6a c3 b4 3d
       -0.013872124 -0.045140054 0.031816546 0.08826335
000110 df 75 f9 3c 71 59 e4 bc 51 a2 19 3d f4 31 59 3d
       0.030451713 -0.02787468 0.037508313 0.053026155
000120 a8 9a 3f 3c 47 e1 b1 3d 5a a9 0d 3c 4a 15 91 3d
       0.011694588 0.08685546 0.008646334 0.07084139
000130 ae e7 4d bd 1f ce 3a bd 1f da 8a 3d 4c 4d 03 bc
       -0.050269775 -0.04560673 0.067798845 -0.0080140345

weight f4 [1, 768]
000000 d8 ac 7b ba 92 9a a7 3a f0 02 d9 bc 91 25 b2 3c
       -0.0009600646 0.0012787154 -0.026490659 0.021746429
000010 c5 a4 ac bc f6 96 60 3b 3c 95 53 3b 9f 68 87 3c
       -0.021074662 0.0034269667 0.0032284996 0.01652938
000020 4f 06 1a 3c e9 5a 67 bc 92 fa 94 3c 70 6e bc 3c
       0.009400918 -0.014120796 0.018185887 0.02300188
000030 d1 94 fd 39 7d 62 e7 39 42 33 f9 3b 02 fc 81 bc
       0.00048366797 0.00044133133 0.0076049874 -0.015867237
000040 4c 18 9b bb af be d8 39 53 e4 a4 ba d1 0e af 3b
       -0.004733121 0.000413408 -0.0012580253 0.0053423424
000050 bc 44 17 3b e6 71 7e bc d0 8e 8f bc 4f 37 28 3c
       0.002308174 -0.015530085 -0.017524153 0.010267093
000060 e2 0c 92 bc 64 d6 9d 3b a1 b4 5c bc 32 60 67 3c
       -0.017828409 0.004816817 -0.0134708 0.014122056
000070 47 4c 6b bc d9 6e 67 bc d7 f4 88 3b af 03 29 bd
       -0.014361448 -0.014125549 0.004179578 -0.04126328
000080 f8 55 8b 3c 88 f1 7f bc 8b 4e 8f bb f1 ac 4e 3c
       0.017008767 -0.01562155 -0.0043733767 0.012614475
000090 01 b0 14 bc 6b 4e 16 bb 57 c4 13 3c df 6e 95 3c
       -0.009075166 -0.0022934924 0.009018979 0.018241344
0000a0 a0 44 7a 3c 7f 9a e4 3a 78 98 10 3c 15 bb e5 bb
       0.015275151 0.0017441063 0.008825414 -0.0070108273
0000b0 38 58 4d 3c cd d5 4b ba ea bd 67 3c 77 7f 03 bc
       0.01253324 -0.0007775694 0.0141444 -0.008025995
0000c0 f7 14 f8 3b 70 3c 49 bc 81 61 45 bc b5 e8 6d bc
       0.0075708586 -0.012282476 -0.0120471725 -0.014520814
0000d0 ba 1d f4 bb 94 df c4 ba 11 5b 5e bb 69 5d 6a bc
       -0.0074498327 -0.0015020245 -0.0033928792 -0.014304497
0000e0 eb 2f 9b bc 7d d0 a0 bb 19 f5 93 bc dc d9 df bc
       -0.018943748 -0.0049076662 -0.018061208 -0.027325563
0000f0 84 c9 9d bb 32 27 c8 3c a9 ff 0f bc 6c 4d 70 3c
       -0.0048152823 0.024432752 -0.0087889815 0.014666896
000100 f3 c7 5a 3b d2 36 59 3c 0f ad 55 3c 89 5c 53 bc
       0.003338334 0.013257699 0.013041749 -0.01290048
000110 69 99 0c 3c f3 c9 d8 bc a3 11 73 bc 5a 84 7d bb
       0.008581498 -0.026463484 -0.014835748 -0.0038683624
000120 d4 e0 ca bc 91 1c f2 bb cc a0 82 bc 42 0f 52 3b
       -0.02476541 -0.0073886593 -0.015945815 0.0032052551
000130 f2 4e bb 3c db a6 c9 3b 7e d1 30 bd bd bb b3 bb
       0.022864792 0.006153924 -0.043168537 -0.0054850266
000140 96 20 7a 3c 98 80 31 3c 99 6e 7a bb 5b 76 c6 bb
       0.015266558 0.010833882 -0.0038212894 -0.0060565895
000150 dd 07 70 3c 1c 01 ad bb 8c 4c 15 bc 69 39 de 3b
       0.014650312 -0.0052796733 -0.0091124885 0.006781746
000160 42 75 ba bc 6f c7 4c 3c b7 23 2a 3b 9c 00 81 bc
       -0.022760991 0.012498721 0.002596123 -0.01574736
000170 b5 fe 22 3b 6e 5a 1d bc 21 a2 96 bc 0d d3 1e bc
       0.0024871056 -0.00960408 -0.018387856 -0.009693873
000180 41 b3 56 3c 73 ca 0d bc e8 d0 fb 3b 92 f6 11 bc
       0.013104261 -0.008654225 0.0076848157 -0.008908885
000190 d5 44 b9 3b aa 06 50 bc c5 3c 84 3a 95 64 c2 ba
       0.0056539574 -0.012696901 0.0010088912 -0.0014831001
0001a0 06 07 a2 bc ee db 27 bc 4c f4 70 3b 5a e2 5c bb
       -0.01977874 -0.010245306 0.0036766706 -0.0033704252
0001b0 3c 65 df bb 24 7e 9b 39 bb 57 96 bc ed 64 04 3a
       -0.006817488 0.00029657886 -0.01835238 0.00050504395
0001c0 b0 ce 0b 3c 7b 0c 61 3c 19 67 62 3b ce ad 98 bb
       0.008533165 0.013735886 0.0034546314 -0.004659391
0001d0 f6 88 5b 3a a8 82 f8 3b d0 a2 1e bc 78 b3 1c 3c
       0.0008374596 0.007583935 -0.009682372 0.009564273
0001e0 57 a7 47 bc 11 9f 81 3c 70 7c 8d bc 9f 80 54 bc
       -0.012185893 0.01582292 -0.01727125 -0.012970119
0001f0 7e 55 78 3c 80 c6 0e bc 70 bd a6 3c e8 d4 3b bb
       0.015157102 -0.008714318 0.020354003 -0.0028660838
000200 2c 9b 54 3c f8 bd a7 3b be e0 95 bc 0a 31 e5 bb
       0.012976449 0.0051190816 -0.018295642 -0.0069943713
000210 95 bd b0 3c 0b 8f 7e bc 2c 29 af bc 5f c1 c9 bb
       0.021574775 -0.015537034 -0.021381937 -0.006157085
000220 2f f5 4e 3c 32 b6 51 3b c0 f3 78 3b de 8b 01 bc
       0.0126316985 0.0031999466 0.0037987083 -0.007906882
000230 ff f2 0d bb 5c 7f ed ba 36 bb 3a 3c b8 de b7 bb
       -0.002165973 -0.0018119621 0.011397174 -0.005611267
000240 d1 4b 51 3c cd 93 55 3c 69 af 77 bc 53 3b 89 3c
       0.012774424 0.013035727 -0.015117505 0.01675192
000250 94 8a 13 bb 1a a7 2e bb e8 6d 9a 3b f6 15 0a bc
       -0.002251302 -0.0026649893 0.004712809 -0.008428087
000260 cd 3e 90 3c 4e 30 64 3c 72 61 36 bc cb 7a 8d ba
       0.01760807 0.013927532 -0.011131631 -0.0010794041
000270 d6 2e 55 bc 22 94 29 bc 5c 78 8d bc 2c 01 90 bb
       -0.013011655 -0.010350259 -0.017269306 -0.004394671
000280 c8 e9 ab 3c a5 18 c1 3a 53 f2 04 3c f6 aa f3 3b
       0.020985499 0.0014732076 0.008114415 0.0074361516
000290 21 5b ab bb 3a c5 82 3c 5e c1 58 bc d6 d7 92 3c
       -0.0052293693 0.015963186 -0.013229696 0.017925184
0002a0 3e 75 cf bb 43 4e 16 3b b7 cd 61 3c 4c 2c e2 bb
       -0.006331115 0.0022934831 0.013781956 -0.0069022533
0002b0 7a 60 ac bb a2 38 59 3c d3 d0 85 bc d2 33 82 3b
       -0.0052605243 0.013258131 -0.016334927 0.0039734626
0002c0 8e ab e7 3b 8a 86 69 bb c7 8e a6 bc 1c c5 7d 3c
       0.0070700115 -0.003563317 -0.020331753 0.015488889
0002d0 45 c9 51 3c af 22 9f bb b2 b3 ba 3c f0 04 87 3c
       0.012804334 -0.0048564295 0.022790764 0.016481847
0002e0 c5 9f 73 bc 30 6c 44 3c be 2a b9 bc d6 d3 b1 ba
       -0.014869635 0.011988685 -0.022603389 -0.001356716
0002f0 b8 22 3d 3b db c4 9a bc 51 8e 84 bb c0 ba d7 39
       0.0028859805 -0.018892696 -0.0040452858 0.00041147135
000300 ff 3c 2a 3c af c0 c7 3a df de d5 3b b9 d1 9e 3c
       0.010390519 0.0015239919 0.0065268124 0.019387113
000310 c5 cf c6 bb 01 8a 8b 3c 14 dc 10 bc 78 0d 2c 3b
       -0.0060672485 0.017033579 -0.008841533 0.0026253145
000320 2c 06 ed bb a1 32 45 bc 7f 5b 2b 3c bc be e4 3b
       -0.0072334018 -0.012035997 0.010458826 0.006980745
000330 32 3f d0 b8 7e 8d b2 3c 7a d0 67 3c 12 e5 a0 3a
       -9.929984e-05 0.021795984 0.014148826 0.00122753
000340 84 5c 03 bc d3 33 f8 3a f4 76 dd 39 7b 31 0c 3c
       -0.008017663 0.0018936343 0.00042241032 0.008556719
000350 68 c6 48 3c fb ea 57 3c f1 2d 6f 3c 30 87 a5 3b
       0.012254335 0.013178582 0.014598356 0.005051516
000360 0e 29 c4 bb df 07 b7 3c dd 2a 56 3c 5d e6 31 3c
       -0.0059863394 0.02234262 0.013071743 0.010858146
000370 85 ff 55 bc 73 63 b4 3a df 78 75 3c 5f 7d f6 bb
       -0.013061409 0.0013762548 0.014982431 -0.0075222696
000380 41 8d f9 b9 ce f9 0e bb b3 e9 4b bc bd e2 8e bc
       -0.00047598223 -0.0021816376 -0.012445855 -0.017442102
000390 51 86 68 3b 8c f3 1e bc c0 59 84 bc 34 67 96 3c
       0.003548045 -0.009701621 -0.016156077 0.018359758
0003a0 48 1c 72 3c 9c dd cc bc ec e0 7d bb cb 13 21 3c
       0.014777251 -0.025008015 -0.00387388 0.009831379
0003b0 c6 12 36 3c 68 d1 0f bb b5 5c eb b9 62 29 bd 3c
       0.011112874 -0.0021944884 -0.00044891765 0.023091022
0003c0 27 61 ac bc a6 cb 9b bb 70 d0 5e bc 12 6e 10 3c
       -0.02104242 -0.0047545014 -0.0135995 0.008815305
0003d0 27 31 0f 3c 3d 62 b8 bb 2f 27 79 bc 7f 63 d5 3b
       0.008739746 -0.0056269453 -0.015207096 0.006512105
0003e0 ca cd ac 3c ac e3 91 bc 3c 3d 1b bc 9b d6 82 3b
       0.021094222 -0.017808758 -0.009475049 0.003992868
0003f0 58 4f 39 3b 7e 12 6c 3c 1e c5 88 3c d8 64 17 bc
       0.0028276052 0.014408706 0.016695555 -0.009240352
