SPMLUA_outputs/task2_60/Train_with_full_labels_L2loss/checkpoint_best.pth (torch, 637007 bytes, 7 tensors)

weight f4 [60, 180]
000000 2f 03 19 3f 50 9e 1b bd ee c3 3e bd 75 d3 41 bd
       0.5977048 -0.037992775 -0.04657357 -0.0473208
000010 ec c0 a0 bc a9 ce f2 3a ec ef 3b bd a3 d9 7a 39
       -0.019623242 0.0018524724 -0.045883104 0.00023922934
000020 69 c8 9e 3b 91 c1 33 bb fa de e2 bc ad 4b 69 bb
       0.004845668 -0.0027428607 -0.027694214 -0.0035598085
000030 7f 22 99 bd 0a e8 11 bc a7 16 ac 3b de 1e 67 bb
       -0.07477283 -0.00890542 0.005251724 -0.00352662
000040 d0 00 1e 3b bd b0 27 bc ee bf 42 3b 26 12 6e 3c
       0.002410937 -0.010235009 0.002971645 0.014530694
000050 89 d2 80 bc bf 1c 85 39 44 d9 d6 bb ca 21 cd 3c
       -0.015725391 0.00025389154 -0.006556662 0.025040526
000060 ee 34 e1 bb 55 22 02 3c 71 6c 49 bc 0d e1 08 3c
       -0.006872765 0.007942756 -0.012293921 0.008354438
000070 a3 10 77 ba e2 01 67 3c 1a 95 76 bb ef f4 16 3b
       -0.00094247813 0.01409957 -0.0037625493 0.0023034175
000080 bd 20 98 3b 7b 62 44 3c 8b 9d bc bb 83 f4 ca bb
       0.0046425746 0.01198637 -0.0057560853 -0.006193699
000090 72 b5 2f bc 4b e1 a4 3b 5f 19 e9 bc be dd b6 3b
       -0.010724412 0.00503174 -0.02845448 0.005580633
0000a0 06 0b 6d ba 86 3b b3 bc 46 4a e4 bb a6 a6 84 3c
       -0.0009042475 -0.021878969 -0.006966862 0.016192745
0000b0 11 e5 19 bd 80 30 8b 3c 27 e7 a9 3b 90 bd fe 3b
       -0.03757197 0.0169909 0.005185026 0.0077740625
0000c0 ae 59 ba bb d8 b6 b6 bc af f1 a6 3c 9c 5a 36 bc
       -0.00568696 -0.022303984 0.020378916 -0.011130001
0000d0 8f 67 f8 ba e2 92 49 bc 76 e2 20 bd 58 2b 0f bc
       -0.0018951761 -0.012303086 -0.03927847 -0.008738361
0000e0 f8 5e 35 3b 89 d4 13 bd d6 cc ed bb 28 f4 19 bc
       0.0027675014 -0.03609136 -0.0072570844 -0.00939659
0000f0 9c 68 b0 3a ec fb fb bb 12 80 37 3d 71 5b 99 3c
       0.001345891 -0.0076899435 0.04479987 0.01872036
000100 f4 71 87 3d 0f b5 98 bd a0 a2 2a bd dd f1 cf 3d
       0.06613532 -0.07456409 -0.041658998 0.10153554
000110 96 30 7f 3d 7d af 47 bd ba 3b 42 b8 bd 15 d0 bb
       0.062302195 -0.048751343 -4.630883e-05 -0.0063502477
000120 09 52 07 3d b1 d1 20 bd 00 d9 09 bd b1 6c b3 bb
       0.03303722 -0.039262477 -0.033654213 -0.0054756035
000130 62 aa 91 3d b0 a1 e1 bc 2f 3f 99 3d be 46 1f bd
       0.07112576 -0.027542919 0.074827544 -0.038885824
000140 22 95 f3 3d b7 34 85 3a c2 92 7e bb 94 14 8b 3d
       0.11893679 0.0010162805 -0.0038844799 0.06791034
000150 ea eb 66 bc 6c b7 a5 3c 88 37 f3 bd bd b3 a8 3d
       -0.014094332 0.020229064 -0.11875826 0.08237407
000160 81 10 2f bd 8c 2a 8f 3d 84 73 39 bd 40 c8 12 3d
       -0.04274035 0.06990537 -0.04527618 0.035835505
000170 9a 4e d5 bc e0 a0 1a 3b 66 0e 5d bd 79 47 00 bb
       -0.026038457 0.0023594424 -0.05396881 -0.001957385
000180 8b 4e 25 bd 19 2a 82 bd 2c 92 4c 3b 71 6d 68 bd
       -0.040358108 -0.06355686 0.0031215055 -0.056744996
000190 01 a6 76 3c a6 5d 2b 3d d9 39 89 bc 9d de aa bd
       0.015054227 0.041837357 -0.016751217 -0.08343241
0001a0 8b f0 ff 3a b3 d7 84 bd 1d fd a0 bb 20 95 34 3d
       0.0019526643 -0.06486454 -0.004912986 0.04408753
0001b0 ca 5b 9a 3d 84 b9 85 3d 61 4b 8b 3d c7 1e a4 bd
       0.075370386 0.06529525 0.06801487 -0.08013683
0001c0 4e 8d b6 3d bf ff bc bc f1 77 95 bc a0 a0 b7 3c
       0.089136705 -0.023071168 -0.01824567 0.02241546
0001d0 d3 61 f7 bc e3 6d 29 bd cb 0c 34 3c b5 8f 82 bc
       -0.030198013 -0.04136456 0.010989378 -0.015937665
0001e0 e4 2a e4 3c 10 cc 16 3d c7 4e e3 3c 80 b4 51 3d
       0.027852483 0.036815703 0.027747525 0.05119753
0001f0 5c 37 1a bc 02 1e ff 3c 9e 13 63 3d 28 a2 39 3c
       -0.009412613 0.031142239 0.05543863 0.011330165
000200 42 ce c1 3c f4 d3 7f 3c 4d fd ac bc 38 52 4b 3d
       0.023657922 0.015614498 -0.021116877 0.049638957
000210 3c cc e2 ba f1 0d 19 bd 31 e1 b2 3c 2f a4 98 3c
       -0.0017303298 -0.03736681 0.021835895 0.018632976
000220 45 f7 83 bd 9e 64 d6 ba 84 fd cf 3b b3 68 0e 3c
       -0.06443647 -0.001635689 0.00634736 0.008691954
000230 2d 77 df 3c 52 fe 38 3d 9a c8 03 3d 91 a0 fb bc
       0.027278507 0.045164414 0.03217373 -0.030716212
000240 a4 4e 31 bc 08 23 aa ba e5 91 6c bc 0b d3 17 bb
       -0.010821972 -0.0012980411 -0.014439081 -0.0023166563
000250 69 14 5f bc a0 36 67 bc da a3 f8 bb 98 de 3d bd
       -0.013615706 -0.014112145 -0.007587892 -0.04635486
000260 7f df e8 3c 4a 9f c2 3b b0 cc 37 3c 84 f9 bc 3b
       0.028426884 0.005939399 0.011218235 0.0057670493
000270 48 1e c2 bc 55 d5 0b bd d4 58 25 3c 4f fc c1 3c
       -0.02369608 -0.034138996 0.010091979 0.02367988
000280 e6 f4 22 bc 29 94 29 3d 06 bd da bc 0b 1b 28 3d
       -0.009946084 0.041401062 -0.026701462 0.041041415
000290 75 29 e8 bc 5b f8 6a 3c 8b 7b 01 3d 12 d0 04 3c
       -0.02834008 0.014341439 0.03161196 0.008106248
0002a0 ca 4c 66 bb 50 2c 80 3d 17 30 ef 3c 3c 6b 38 3d
       -0.0035140985 0.06258452 0.029197736 0.04502414
0002b0 2a d9 67 3c 73 27 88 3d da f0 fc ba 2c 3d d9 bc
       0.014150897 0.06648149 -0.0019297854 -0.026518427
0002c0 59 a2 51 3c ca b8 65 ba af 94 a3 bc 97 aa 45 bd
       0.012795054 -0.00087631925 -0.019968359 -0.04825839
0002d0 3b 42 10 3c 73 1a be 3e 93 fa 99 bc 45 c9 ff bb
       0.008804853 0.37129554 -0.01879624 -0.0078059756
0002e0 dd 94 ce bb ed 29 89 3b e2 36 d0 bc 50 29 fc 38
       -0.006304367 0.004185906 -0.025416795 0.000120239914
0002f0 bf 0a db b9 89 93 82 39 8f 41 68 bc e9 b8 da ba
       -0.00041778942 0.00024905454 -0.014175787 -0.0016687188
000300 f3 42 87 bc 3f 2f e2 3b c3 0d cc bb 03 76 00 3c
       -0.016511416 0.006902605 -0.0062272265 0.007840636
000310 b1 7f 09 3c ec a9 2b b9 66 75 7a 3c e9 f9 8e 3b
       0.00839226 -0.00016371132 0.015286779 0.0043632877
000320 2d 7c 40 bc ea 79 e5 3b 5d 9e 18 3c 0b 38 8a 3c
       -0.011748356 0.0070030587 0.0093151005 0.016872426
000330 01 5d ac bc be 19 59 3c 33 05 74 b8 43 aa 5a 3b
       -0.021040441 0.013250766 -5.8178975e-05 0.0033365644
000340 c8 57 d8 b9 b8 e3 42 bc 7d 30 00 bb 4e 53 bd ba
       -0.00041264133 -0.011895113 -0.0019560151 -0.0014444382
000350 b3 d6 0b 3b 71 db fa 3b ce 46 c6 bb 2a 6a cb 39
       0.0021337688 0.007655554 -0.006050921 0.00038798276
000360 d6 22 67 bb 4b 67 1b bb 7a bd da bb aa f8 cf bb
       -0.0035268567 -0.002371269 -0.0066754194 -0.0063467817
000370 fe 16 bc 3b 97 5f 5c ba 8c 89 c8 bb ae 4f 14 3b
       0.0057400456 -0.0008406578 -0.0061199125 0.00226305
000380 ca 68 b0 bc a9 a1 6a 3a 26 3b e4 3a 3b 09 dc 3b
       -0.021534342 0.0008950481 0.0017412647 0.0067149675
000390 73 af 23 bb 22 01 c6 bb 25 25 31 ba bb 94 be 3b
       -0.0024976402 -0.0060426155 -0.0006757549 0.00581607
0003a0 20 f5 97 b9 a0 fb 26 3c 57 a4 80 bc 01 95 5b bb
       -0.00028983597 0.010191828 -0.015703363 -0.0033505561
0003b0 8d cb fe 3b 09 26 bc bd 22 37 fc bc 2a ec 8b 3b
       0.00777573 -0.09186942 -0.030788008 0.0042700963
0003c0 25 cb 83 bd 0b e8 7d 3d 06 96 84 3d f5 51 97 bd
       -0.06435231 0.06198887 0.06473927 -0.07388679
0003d0 df 9f ff 3c a0 1d 28 be de 44 40 3b fe 84 58 3c
       0.031204162 -0.16417551 0.0029337923 0.013215302
0003e0 fb f7 98 3d 04 62 51 be 9d 0f 0a be 2f 19 43 3d
       0.074691735 -0.20447546 -0.13482518 0.04763144
0003f0 d6 0c 01 be d3 01 4f 3e d4 1f af bb 09 9c 51 bd
       -0.12602553 0.2021554 -0.0053443704 -0.051174197

bias f4 [60]
000000 ac e2 af 3d 8f 3a 1c 3d 59 cb c4 3d 5b 9e 27 3d
       0.08588156 0.038141783 0.09609098 0.040922504
000010 4b 38 08 3d 94 59 b5 3d d3 24 c3 3d 8a 34 a3 bc
       0.03325681 0.08854976 0.09528508 -0.019922514
000020 7f 1b 0a 3d e3 96 97 3d bd e6 31 bd a4 9e 68 3d
       0.03371763 0.07401826 -0.04343294 0.056791916
000030 6a 6a ed 3d 3d 63 08 3d da 98 ca 3c ff 5f 8b 3c
       0.115925625 0.033297766 0.024731088 0.017013548
000040 73 04 93 3b 5f 9d f7 3c 44 23 a5 3d b0 fb 95 3d
       0.0044866144 0.030226408 0.08063367 0.07323396
000050 0d c7 ee 3d 5d c1 42 3d c0 a2 d6 3d 02 e4 0a 3c
       0.1165906 0.047547687 0.10480261 0.008477213
000060 10 36 25 3d b8 8c ac 3d fb 11 26 3d 6c 6c 65 bc
       0.04033476 0.084252775 0.04054449 -0.014002901
000070 1b 85 a6 3d 6d 8d c1 3c e9 8b e2 3d 48 40 5e 3d
       0.081308566 0.023627007 0.11061842 0.054260522
000080 94 82 28 3d fd a1 6c 3c 11 01 67 3d 11 30 da 3d
       0.041140154 0.014442918 0.0563975 0.10653699
000090 f8 21 bb 3d ee f7 d5 3c 57 33 59 3d 1c 0a 72 3c
       0.091373384 0.026119199 0.053027477 0.014772918
0000a0 15 35 2a 3d 7b 0e c4 3d d6 61 5d 3d 0b 1c 6b 3d
       0.04155453 0.095730744 0.05404838 0.05739979
0000b0 07 2b 86 3c de 90 be 3d 4b 87 de 3d 84 57 9a 3d
       0.016377939 0.09304975 0.10865649 0.075362235
0000c0 d3 d5 11 3e 8f 73 ac 3d c5 55 30 3c 10 84 b7 3d
       0.14241724 0.084204786 0.010762637 0.08960736
0000d0 11 43 5e 3d 16 ed 2e 3d a3 da 45 3d 21 02 a8 3d
       0.05426318 0.04270657 0.04830421 0.08203531
0000e0 fd 9a 88 3c 38 5a 0a 3d ac 98 8a 3a 53 7e 81 3d
       0.016675467 0.033777446 0.0010574064 0.063229226

linear1.weight f4 [256, 512]
000000 88 ab 4d bd a1 da 9e 3d 44 f2 73 bd 08 89 b3 be
       -0.050212413 0.07756544 -0.059557214 -0.35065484
000010 63 34 70 3d 33 13 4e 3e 69 1a 42 be 8b b4 2d be
       0.05864371 0.20124511 -0.18955387 -0.16963403
000020 1b aa bc bc 01 55 37 be 09 0b 80 bd 26 f7 01 3d
       -0.023030331 -0.1790352 -0.06252105 0.03172984
000030 15 54 93 3d 37 ab c9 bd 91 05 9c 3d 1f ea 6c be
       0.07193772 -0.0984711 0.07618249 -0.23136185
000040 e0 65 fb bc 98 28 00 3e fa e7 1d 3e c3 64 ad 3e
       -0.030688226 0.12515485 0.15420523 0.33865938
000050 61 1e d1 bd 90 2b ea 3d 2e 23 3b be 10 6b 13 bd
       -0.102108724 0.1143409 -0.18275139 -0.035990775
000060 17 19 87 3d a2 23 a1 3d 68 84 5a bc ff 53 b0 3c
       0.065965824 0.078681245 -0.013337232 0.021524427
000070 ce 79 1e 3e 42 22 ad 3d 49 65 0c be 0a 4b 8b 3b
       0.15476152 0.084538 -0.13710512 0.0042508887
000080 5d 2a 98 3e cd d6 02 3d d0 39 e0 ba 80 05 bc 3d
       0.2971982 0.03194313 -0.0017107073 0.091807365
000090 ee c4 b3 3d 55 96 32 3e d5 b6 93 3d f2 61 a6 bd
       0.08777796 0.1744016 0.07212607 -0.0812415
0000a0 f4 64 77 3e 67 f0 66 bd c2 fa 90 3d a5 c2 8e 3e
       0.24159604 -0.05638161 0.07079078 0.27882877
0000b0 96 47 05 3e 39 0a 47 3e 19 d6 12 3e cd 32 16 3e
       0.13015589 0.19437493 0.14339484 0.14667816
0000c0 36 c1 a4 3e 66 81 5d 3d 44 bc 17 3e 3a 31 56 bd
       0.32178658 0.054078482 0.14817911 -0.05229304
0000d0 0a a4 2e bb 38 46 4e 3e 19 df 73 3d 4f 6a 80 3d
       -0.0026648068 0.20143974 0.059538934 0.06270277
0000e0 59 e3 e3 bd f5 ba a2 bc 13 e8 1d 3c 3b 97 97 be
       -0.111273475 -0.019864539 0.00963785 -0.29607567
0000f0 55 37 95 3c 8c 3d e2 3d 42 f4 9d be 24 97 d0 bc
       0.01821486 0.110468954 -0.30850416 -0.025462694
000100 8c 7f 4c be e8 2a 0e 3d e3 e9 b6 3d 41 70 e0 3d
       -0.1997053 0.034708887 0.08931329 0.10958911
000110 83 5c 23 bc e3 a1 11 3e fa 17 1a 3d bf 58 fa bc
       -0.009970787 0.14221911 0.037620522 -0.030559896
000120 ef 40 88 be f8 55 a5 3d b7 a3 37 bc 57 a2 40 be
       -0.2661204 0.08073038 -0.011208466 -0.18811928
000130 59 cf 18 bd 48 b2 c0 be b7 05 83 bb c7 92 03 3c
       -0.037307117 -0.37636018 -0.003998484 0.0080306
000140 3a 81 96 bd e6 4f f3 bd bc 2e d3 3d 74 d4 35 bc
       -0.07348867 -0.11880474 0.10311648 -0.011098016
000150 bf 0f ef 3d 99 36 67 bd 78 fe 66 bc b3 45 9e 3c
       0.11672925 -0.056448553 -0.014098756 0.019320345
000160 b3 27 2a bc 0e 34 1d be 3d 1f 31 bd c4 03 b5 3d
       -0.010385442 -0.15351889 -0.04324268 0.08838609
000170 ab 01 6e 3c d7 d9 27 3d 54 d5 3e be 42 96 7e be
       0.014526765 0.040979233 -0.18636066 -0.24862006
000180 7b da 14 3b c0 dd 29 bd 61 8c 38 be d4 94 10 3e
       0.0022713232 -0.041471243 -0.180223 0.14119273
000190 08 b9 65 bd 69 bc 1d 3e 55 75 b4 3c 6f c9 18 bd
       -0.056084663 0.15403904 0.022028605 -0.037301477
0001a0 74 81 61 3d c4 ea a8 3d a7 14 bb bc 91 b1 02 3b
       0.055055097 0.08247903 -0.022836996 0.0019942264
0001b0 86 ad 44 3e d8 aa 1e bd b6 63 4c 3c 26 63 9c 3d
       0.19206819 -0.038737148 0.012474945 0.076360986
0001c0 f4 cc d3 bc 4e c6 16 bd 5f 60 75 3c 7c 56 ec bd
       -0.025854565 -0.03681021 0.01497659 -0.11539933
0001d0 11 ee 0b be 98 0f 44 3b 09 e4 18 3d 38 0a 9a bc
       -0.13665034 0.002991652 0.037326846 -0.0188037
0001e0 66 88 96 3e 0a dc a9 bd 6d 09 6c 3e f0 c7 3a bd
       0.2940094 -0.08293922 0.2305047 -0.04560083
0001f0 61 72 32 3e 57 de 93 3d b9 ca dd 3b d8 fa 6c 3d
       0.17426445 0.07220142 0.006768551 0.05785641
000200 5e 2b 21 3d 53 0f 2c 3e c8 74 8f 3d 9e 58 00 bd
       0.039348 0.1680272 0.07004696 -0.031334512
000210 c9 d3 7a 3e e5 b4 83 3e 5a 96 29 3d c2 5a 6e be
       0.24494852 0.2572395 0.041403152 -0.23276809
000220 9e 58 d9 bd 3c ce 45 be d6 2f 5d 3e 58 f7 f1 bd
       -0.106126055 -0.19316953 0.21600279 -0.11814755
000230 28 2b ac bd 33 b7 10 3e 30 b8 44 bb de 1a 61 bc
       -0.08406669 0.14132385 -0.003001701 -0.013739316
000240 56 96 de bd ca 32 46 3c c3 e7 37 be 86 b2 09 3e
       -0.10868518 0.01209707 -0.17959504 0.13447008
000250 6e 44 0e be d2 f2 03 3d 86 b5 b4 3e f1 a2 a3 3c
       -0.13893291 0.032213993 0.3529474 0.019975157
000260 7d 32 e1 3d f0 41 ae be 1f 23 09 be 4a 5f 89 bd
       0.10995958 -0.3403468 -0.13392304 -0.06707628
000270 2b 4d 38 3e c7 8e 82 bd ce f1 fa 3d c6 bb 4c 3d
       0.17998187 -0.06374889 0.12253152 0.049983762
000280 52 c9 cd bd 33 75 1e 3e 3c 29 2e 3d 25 12 b7 3d
       -0.100481644 0.15474395 0.042519793 0.08939008
000290 93 6e 8d be 56 92 77 bd 15 75 4a bd 9b ff 21 3d
       -0.27623424 -0.06044229 -0.049428064 0.039550405
0002a0 f6 94 de 3d 2f b8 db 3d 27 be 2e 3e cf f6 aa 3d
       0.10868256 0.107284896 0.17064725 0.08347856
0002b0 38 76 29 3e f0 d1 01 be 6e dc 0e 39 6e 7f 02 3e
       0.16549003 -0.12677741 0.00013624292 0.12743923
0002c0 09 a4 9a bd 26 85 47 bd 26 fe 90 3d 50 6a ab be
       -0.075508185 -0.048710965 0.07079725 -0.33479548
0002d0 cf 71 bf bd c3 db a5 bd 59 3f 0c bd a9 c1 10 3e
       -0.09347879 -0.08098557 -0.0342401 0.14136375
0002e0 aa 46 35 3b 49 ca 42 bc df bb 1b 3e 7f d8 f7 3c
       0.0027660527 -0.011889049 0.15208386 0.0302546
0002f0 7b 6e b9 be 10 bd ab 3d 2f c1 b9 bd eb ab 12 be
       -0.36217102 0.0838567 -0.0907005 -0.14323394
000300 34 8a 86 3d f0 56 da bb b7 8e ea 3d 52 d3 b9 3d
       0.06569329 -0.006663196 0.11453002 0.09073509
000310 96 97 29 3d 94 51 a5 be 23 dc 74 3c 7d a8 cc bc
       0.04140433 -0.32288802 0.014945063 -0.024982685
000320 bb c7 3d be 27 75 32 be 5e 1d 7b bd 4d 39 05 bd
       -0.18533222 -0.17427503 -0.061307304 -0.03252535
000330 b2 df 3b bd ed ea b3 bd 51 fd 5f 3e 90 c9 49 3e
       -0.04586763 -0.08785043 0.21873976 0.19705796
000340 c4 03 bc 3b d0 3f 02 3b 1c d8 54 bd 46 f3 86 be
       0.0057377536 0.001987446 -0.05196391 -0.26357478
000350 2f 16 0a be f0 2c 91 3d 37 d3 be 3c 5a 2c a9 3c
       -0.13485025 0.07088649 0.023294074 0.020651031
000360 c0 a3 fe bd 09 5c 31 3d 3d b3 b1 3d 16 4f 71 bd
       -0.124335766 0.043300662 0.08676765 -0.058913313
000370 b6 a9 17 bd 20 58 dd 3d 28 69 b5 bd d6 e7 64 be
       -0.037027083 0.10807824 -0.088579476 -0.22354063
000380 bf de 6b bd 71 6f d3 bd 19 2e 48 3d ab 92 fe bd
       -0.057585474 -0.1032399 0.048872087 -0.124303184
000390 0b c6 7f 3d 06 a0 04 3d ad 16 0c be 96 97 d4 bd
       0.062444728 0.032379173 -0.13680525 -0.10380475
0003a0 08 5a 07 bb 74 a6 74 3d 50 84 0a bb b1 cb c6 3d
       -0.0020653028 0.059729055 -0.0021135993 0.0970682
0003b0 d8 25 25 be 2b 33 8d be 7f 79 ca 3e 65 fd 35 3c
       -0.16127717 -0.275781 0.3954582 0.011107777
0003c0 06 1b 07 ba 90 0a 4a 3e 45 b7 b5 bc d5 50 44 be
       -0.0005153868 0.19730592 -0.022182116 -0.1917146
0003d0 df 6b 8b 3d 3f da 05 3e 32 5f c7 3e 8c 78 eb bd
       0.06807684 0.13071536 0.38939816 -0.11497602
0003e0 07 cb b0 bd ef 1e 15 3e 34 1e 38 be 95 20 fb 3d
       -0.086324744 0.14562581 -0.17980272 0.12262074
0003f0 bb 7d 41 be a6 34 bb 3e 48 cc cc 3c e7 ad 86 bd
       -0.18895619 0.36563605 0.024999753 -0.06576138

linear1.bias f4 [256]
000000 e8 21 51 bd 0c 0f 05 bc 57 a6 97 bd 50 36 e4 bd
       -0.051057726 -0.008121263 -0.07404774 -0.11143172
000010 71 f9 45 bd 66 71 7a bd 94 60 92 bd ea b0 8e bc
       -0.04833359 -0.0611433 -0.07147327 -0.017418344
000020 14 c4 af bd 37 9e 8f bd 8c b9 c1 bd 1c 84 88 bd
       -0.08582321 -0.07012599 -0.094592184 -0.06665823
000030 5d 91 ce bd e8 3a 2a bd c2 cd cd bc 36 07 50 bd
       -0.100863196 -0.041560084 -0.025122527 -0.050788127
000040 9c 23 98 bd b6 f4 9e bc 7a c1 da bc 85 6e de bc
       -0.07428667 -0.019403797 -0.026703585 -0.02715231
000050 fd 36 97 bd 6f d1 e9 bd d2 a6 90 bd df fc 86 bd
       -0.07383535 -0.114168994 -0.070630684 -0.065912
000060 f3 18 0c bd b0 04 8e bd 70 25 c3 bc 99 c6 35 bd
       -0.03420348 -0.06934488 -0.023821563 -0.04437885
000070 76 4d 1b bc 5d b3 79 bd db 01 b8 bc 6b 90 bc bc
       -0.009478917 -0.06096207 -0.022461822 -0.023018083
000080 57 56 69 bd 3c 70 b5 bc 2e 5f b4 bd 91 62 41 bd
       -0.056967106 -0.022148244 -0.088072166 -0.04721314
000090 51 0a 72 bd a8 61 92 bd 77 0b 8d bc 36 9f 45 bd
       -0.05909187 -0.07147533 -0.01721738 -0.04824754
0000a0 a7 d8 40 bd d4 11 73 3b 2a 5d 73 bd 66 7a 6a bd
       -0.047081616 0.0037089484 -0.05941502 -0.057245634
0000b0 6d 1c 34 bd 07 da 82 bd bc d1 03 bd bd 03 78 bd
       -0.04397242 -0.06389242 -0.03218244 -0.06055044
0000c0 b3 bb 2b bd 89 f2 47 bd 4d 79 15 bd 43 5a b2 bd
       -0.04192705 -0.048815284 -0.036492635 -0.08708622
0000d0 28 2f 91 bd fe 70 c0 bd a6 91 c5 bd ca 55 62 bd
       -0.070890725 -0.093965515 -0.09646921 -0.055257596
0000e0 0f 2c bd bd 83 7d 84 bc 29 dd 8d bd 53 ea 7f bd
       -0.09236919 -0.01617313 -0.069269486 -0.06247933
0000f0 f8 15 db bd 6f ae 0f bd 35 d0 2d bd 92 5d 9a bd
       -0.106975496 -0.035078462 -0.04243489 -0.07537378
000100 49 18 21 bd c6 79 3b bb 94 c6 82 bd 1b 72 d0 bc
       -0.0393298 -0.0028606518 -0.06385532 -0.025445035
000110 a7 e8 42 bd 31 ee 9e bd cc 26 a2 bd 28 37 92 bd
       -0.047585156 -0.07760275 -0.07917556 -0.071394265
000120 93 93 99 bd 07 99 20 bd 55 0a 55 bd 9b 1b 97 bd
       -0.07498851 -0.03920844 -0.052011807 -0.07378312
000130 7c 18 37 bd 2b 27 6a bb 80 08 a9 bc 8a 76 3f bd
       -0.044701084 -0.0035728912 -0.020633936 -0.046743907
000140 c0 5b ec bc 4d 7d 5e bd f5 ef 8a bd 05 4b 79 bd
       -0.028852344 -0.054318715 -0.067840494 -0.06086256
000150 4a 25 69 bd b0 23 fe bd a6 08 e0 bd 50 fe f5 bc
       -0.056920327 -0.124091506 -0.109391496 -0.030028492
000160 c2 3b a9 bd 9c b6 4f bd c8 f1 b1 bc 45 6c 03 bd
       -0.08263351 -0.05071126 -0.021721736 -0.032085676
000170 2d 9d d4 bc 2c d8 7c bc 28 d5 8f bd 70 ad 6e bc
       -0.025953854 -0.015432399 -0.07023078 -0.014567718
000180 f0 a0 f3 bc 9a 2b d0 bc f5 88 70 bd 47 7e bb bd
       -0.029739827 -0.025411416 -0.058724362 -0.09154945
000190 90 8e 7f bc a5 71 60 bd 8a 71 9c bd 83 cf c0 bc
       -0.015597954 -0.05479588 -0.07638843 -0.02353645
0001a0 0b 80 3e bd fc bd 80 bd 0a 30 c0 bd ef ed ac bd
       -0.04650883 -0.06286237 -0.09384163 -0.0844382
0001b0 fd 3b c4 bc 5f ca b6 bc 5a e4 d1 bd d6 7a 24 bd
       -0.023954386 -0.022313295 -0.10248633 -0.040156208
0001c0 bd ab 70 bd ed dd 95 bd f2 d9 61 bd 9c c3 2e bd
       -0.058757532 -0.073177196 -0.05513949 -0.042667016
0001d0 8e 12 a5 bd 17 1d c4 bc 9e 2f a3 bc 65 74 2f bd
       -0.0806018 -0.023939652 -0.019920167 -0.04283561
0001e0 79 c5 81 bd 17 6a 06 bd cc c7 b6 bc 37 e1 a1 bd
       -0.06336493 -0.03281602 -0.022312067 -0.079042844
0001f0 dc 61 77 bd e9 46 89 bd c8 ed bd bc 18 f2 db bd
       -0.06039606 -0.06702978 -0.023184672 -0.10739535
000200 8f 96 91 bd c1 44 04 bd 51 76 c2 bd f7 a5 83 bd
       -0.07108795 -0.03229213 -0.09495223 -0.0642814
000210 e3 a7 d5 bc cb 03 02 bd 5f a9 5b bd 12 99 0d bd
       -0.026081031 -0.0317419 -0.05362832 -0.034569807
000220 c0 47 b8 bd 11 62 be bc b1 8a 43 bd ab ce 04 bd
       -0.0899806 -0.023240121 -0.04773969 -0.032423656
000230 75 00 9a bc 00 c3 14 bd 7c ea 27 bd 9d fd f9 bc
       -0.018799046 -0.03631878 -0.040995106 -0.03051644
000240 ef 8d a4 bd b8 5c c1 bc 3f 9f 99 bd fb 00 a2 bd
       -0.08034884 -0.023603782 -0.07501077 -0.07910343
000250 03 bb 36 bd 17 2f 8e bd 18 ee 9e bd 44 b3 7d bc
       -0.044611942 -0.069425754 -0.077602565 -0.015484635
000260 bf 82 2a bd a4 c3 d5 bc 20 ca 06 bd 3b 1f 04 bd
       -0.041628595 -0.026094265 -0.032907605 -0.032256346
000270 8e ad 88 bd ce 96 5e bd 13 12 8b bd a8 b7 49 bd
       -0.06673728 -0.054343037 -0.06790557 -0.049247414
000280 8d 3c d3 bd bd 33 50 bc 27 69 51 bc 47 56 31 bd
       -0.103142835 -0.012707648 -0.012781418 -0.04329517
000290 47 03 45 bd 3d 65 a5 bd 10 c2 bb bc 95 81 b2 bd
       -0.04809883 -0.0807595 -0.022919685 -0.08716122
0002a0 8d 88 05 3d 77 52 8d bd 91 b9 8c bd ba f1 37 bd
       0.032600928 -0.069004945 -0.068713315 -0.044908263
0002b0 53 5f 96 bc e0 1f fd bc 21 32 fe bc c6 b6 1b bd
       -0.018356001 -0.030898988 -0.031029763 -0.038016103
0002c0 ad 8c 9d bc 9e 29 19 bd 91 46 86 bd 30 21 3d bd
       -0.019232119 -0.037393205 -0.06556428 -0.04617423
0002d0 e6 38 1a bc 78 e9 ee bc 6f f7 d9 bc a9 fc 6d bc
       -0.00941298 -0.029164061 -0.026607243 -0.014525571
0002e0 3e 91 9f bc c9 28 94 bd 89 29 f2 bc 14 ca 22 bd
       -0.019478437 -0.07234342 -0.029560821 -0.039743498
0002f0 19 93 80 bd d4 00 1b bd 3f 90 5a bd e9 06 23 bd
       -0.06278057 -0.037842587 -0.05336022 -0.039801512
000300 f4 5d 0c bd c3 69 76 bc 23 c9 ef bd 39 3c f7 bc
       -0.03426929 -0.015039864 -0.11708286 -0.030180084
000310 46 06 cd bc 02 63 52 bd bd d7 6f bd be a8 35 bd
       -0.025027405 -0.051363952 -0.058555353 -0.04435038
000320 a0 b6 ff bc d8 9a 47 bd 82 bd 89 bd 20 68 de bd
       -0.031215012 -0.048731655 -0.06725599 -0.10859704
000330 71 ca 77 bd 20 82 bb bd 31 11 12 bd d9 03 b4 bd
       -0.060495798 -0.09155679 -0.035660926 -0.087897964
000340 af 53 04 bd 5b d7 33 bd bc 7a 8b bd 50 75 5f bd
       -0.03230637 -0.04390655 -0.06810519 -0.054555237
000350 b5 0a 4a bd 90 a6 85 bd 3b 3e 21 bd 4b 8a 30 bd
       -0.049326617 -0.0652591 -0.03936599 -0.043100636
000360 05 d4 c3 bc 0e 0c ac bd 98 6d 87 bd 39 d0 f4 bd
       -0.02390481 -0.08400737 -0.066127 -0.11953778
000370 93 6b 6e bd ff e0 37 bd 9c b0 32 bd 6b 0e 8d bd
       -0.05820806 -0.044892307 -0.04362546 -0.06887516
000380 44 35 9e bc d4 01 0e bd 71 35 cf bc 06 33 d5 bc
       -0.019312508 -0.034669712 -0.025294038 -0.026025306
000390 36 9d 49 bd c0 c7 92 bd cb 14 84 bd 49 ae a7 bd
       -0.049222194 -0.071670055 -0.064492784 -0.08187539
0003a0 dc 5e 9e bc 88 55 c7 bc 6c 41 36 bd a8 14 30 bd
       -0.019332342 -0.024332777 -0.044495985 -0.04298845
0003b0 d7 eb 28 bd 8d eb 3d bc b0 0f 05 bd 1c 2a be bd
       -0.04124054 -0.011591804 -0.032485664 -0.092853755
0003c0 10 3f d8 bd 60 d9 cb b9 4b 3b 9d bc 9b c4 59 bd
       -0.10558903 -0.00038881134 -0.019193312 -0.053166013
0003d0 43 4c 98 bd ef 8c 17 bd d0 26 31 bd 4f 47 10 bd
       -0.07436421 -0.03699964 -0.043249905 -0.035224255
0003e0 eb 9a ba bd eb c4 b0 bd 40 8c ab bd b3 03 83 bd
       -0.091115795 -0.08631309 -0.0837636 -0.0639719
0003f0 4b f1 97 bd 19 b1 d3 bd 71 7b 36 bd 81 f0 19 bd
       -0.0741907 -0.10336513 -0.044551317 -0.037582878

linear2.weight f4 [60, 256]
000000 22 0e 69 3c c1 bd af 3c 9a ac a3 3c b7 19 82 bc
       0.014224561 0.021452786 0.019979764 -0.015881402
000010 60 02 4a bc 0b 61 a3 bb 47 40 88 3b 46 90 21 3d
       -0.012329668 -0.0049859337 0.004158053 0.03944423
000020 dd 5d cc bd 42 6f a3 bd 6d 4a bb bc a7 35 13 be
       -0.099788405 -0.07980205 -0.022862637 -0.14375935
000030 64 99 90 bd 69 46 88 3b f3 7c b1 3c 2b 25 9c bc
       -0.07060507 0.004158784 0.021666026 -0.019060692
000040 d8 d2 21 3e 60 fb b8 3d 2f 14 b5 3c df 2e 18 bd
       0.15803087 0.09032321 0.02210435 -0.037154075
000050 60 f0 59 3c d5 5c 21 3e b9 76 22 3c 09 88 a7 3d
       0.013301939 0.15758069 0.009916001 0.081802435
000060 6b d8 f8 3c e2 6c 86 3c c1 1a 66 3d a5 19 05 bd
       0.030376634 0.016409341 0.05617786 -0.03249516
000070 38 bd 37 3d ac 4b 00 bd 0a f6 5e 3c 12 41 98 bd
       0.044858187 -0.031322166 0.013608465 -0.07434286
000080 54 51 b6 3c a9 cc fb bc 50 d7 90 bd 9c 7b 72 bd
       0.022255577 -0.030737238 -0.070723176 -0.059199914
000090 63 1d 26 b8 18 93 3e bd 33 2d 44 bc 8a 4b a2 bb
       -3.9604853e-05 -0.046527 -0.011973667 -0.0049528526
0000a0 0b 82 68 bb a2 e5 3d bd 4e 3e 7e bd 31 a0 e7 bc
       -0.0035477902 -0.046361573 -0.062071137 -0.028274627
0000b0 7a f9 0f 3d 99 9d 94 3d 59 65 2d 3c 30 3b 13 bd
       0.03515003 0.07256622 0.010583245 -0.035945117
0000c0 dd 8a a9 3d 3b 3a 02 be d5 c7 7e 3d bb 96 73 3d
       0.08278439 -0.12717526 0.062202293 0.05946992
0000d0 c4 c7 23 bd dd 6e 59 3d 16 9f fd bc 72 0f 7d be
       -0.039985433 0.053084243 -0.030959647 -0.24712923
0000e0 e4 04 79 3b ac de c0 3b 5c 83 91 bd 63 5a 81 bc
       0.00379973 0.0058859196 -0.07105133 -0.01579017
0000f0 44 88 2b bd db 72 60 3d 6b 4f 04 be 13 b8 18 39
       -0.041878 0.054797035 -0.1292092 0.00014564423
000100 7e 5f 21 3d 9a 74 be 3c be ff 71 3d c3 46 16 3d
       0.03939771 0.02324896 0.059081785 0.036688577
000110 44 8b 9a 3c c9 3a 7d bc 9f 1f 91 3d 69 f7 60 3d
       0.018865235 -0.01545591 0.07086109 0.05492345
000120 18 39 76 3d 1e a9 81 bd 62 d5 15 3b 06 f5 b3 3c
       0.060113043 -0.06331085 0.0022862782 0.021967422
000130 c4 39 10 be 0b 22 cc bc ce 64 5e bd a5 0c dc bc
       -0.14084536 -0.024918577 -0.054295354 -0.026861498
000140 be cd 23 bc 1e 4e 47 be d9 71 85 bd 35 ea 9e bd
       -0.009997783 -0.19463393 -0.06515855 -0.07759515
000150 cf a7 e8 bb 42 0b 1f 3d 3c 66 0f 3e 32 c6 89 bd
       -0.0071000825 0.038829096 0.14003843 -0.06727256
000160 d0 9b 90 bd 6b 91 76 bc 9d ef d7 3c 50 e8 1b 3c
       -0.07060969 -0.015049319 0.026359374 0.009515837
000170 88 ea 8a bc ff 3b 6e 3c b8 d5 b9 3d 62 54 a4 3c
       -0.016957536 0.014540671 0.09073967 0.020059768
000180 54 e6 49 3d c4 b1 4b bb 49 80 8c bd b5 26 51 3c
       0.049291924 -0.0031081298 -0.06860406 0.012765576
000190 ac 74 c5 bc fb 09 81 3d cb 26 8c 3d c5 7a 16 bd
       -0.024103485 0.06300732 0.06843337 -0.036738176
0001a0 f8 c2 9d 3c 81 3d f8 bb dc c6 45 3d 0d 1f 44 3e
       0.019258007 -0.007575691 0.04828535 0.1915247
0001b0 95 7b 95 3c d2 9d 08 bd 3d 13 e4 bd 56 19 cf 3a
       0.018247405 -0.033353634 -0.11136482 0.0015800397
0001c0 89 16 24 bd 89 10 cd bd de 83 b8 bb 97 bd b0 bc
       -0.040060554 -0.100129195 -0.005630954 -0.021574778
0001d0 a5 a8 08 3d 72 e3 2a b8 97 49 03 3d 19 a5 0a bd
       0.033363957 -4.0742983e-05 0.032052603 -0.033848856
0001e0 58 d9 ae bd 2b e9 1e 3c 96 89 01 be ac 1b 81 3d
       -0.08537549 0.009699146 -0.12650141 0.06304106
0001f0 72 c7 8a 3d 80 2c 04 ba 6a 4f 10 3e f0 58 90 3e
       0.067763224 -0.00050420314 0.14092794 0.28192854
000200 5f fa b3 bc 3c 74 6e bd 2d 62 08 3e 0a ad 8b 3a
       -0.021969972 -0.05821632 0.13318701 0.0010656428
000210 6b ac 2b bd d4 d0 a9 3d 73 5d 02 3d c8 9f bc bd
       -0.041912477 0.08291784 0.0318274 -0.09210163
000220 f8 10 fb bc 9c 14 f2 38 8e 4d 53 bd 85 d9 25 3d
       -0.03064774 0.00011543298 -0.051587634 0.040490646
000230 5a 0e 10 3d cc 5a 7a 3d 13 9e 3f 3b e5 dc e5 3c
       0.035169937 0.061121747 0.0029238507 0.028059432
000240 db 56 1b bb fe f8 b1 3d da 5d 33 bd 27 a8 02 3d
       -0.0023702893 0.086900696 -0.043790676 0.031898644
000250 c3 6a a7 3c d8 f8 71 3d 51 31 ac bc 44 3d ae bc
       0.02043665 0.059075207 -0.02101961 -0.021269448
000260 00 70 91 3d 89 a0 3e bd 1f e3 19 3c 16 89 0d 3d
       0.071014404 -0.046539817 0.009392529 0.034554563
000270 37 93 a6 bd 52 ef 87 3c fd aa 83 3d 12 ed 6b 3d
       -0.08133548 0.016593609 0.06429098 0.057599135
000280 86 bd d8 bd 56 5f c1 bc d4 f0 e1 bc 8c ef 70 bc
       -0.10583024 -0.02360503 -0.027580656 -0.01470555
000290 32 f9 c1 3c e2 59 b6 bd f5 eb 0b 3d 94 13 4c be
       0.023678396 -0.089038625 0.034160573 -0.19929343
0002a0 33 ff 1b 3b 3e 45 b2 3c f0 a7 1d 3d c1 ae 44 3d
       0.0023803234 0.021761533 0.038490236 0.04801822
0002b0 5e 85 4a 3c 40 db a0 3c 32 cc a7 bc 2e ef 4a bd
       0.012360899 0.019635797 -0.02048311 -0.049544506
0002c0 25 d6 00 bd d1 b9 c6 3d 8c 92 5b bd ea 1c 81 3d
       -0.031454224 0.097034104 -0.053606555 0.06304343
0002d0 db c5 af bd 37 b7 82 3e 32 28 7f 3d 23 3f 8a bd
       -0.0858266 0.25530407 0.062294193 -0.067503236
0002e0 e4 52 0b 3d 9a 0c aa 3d 74 7b 35 bd 47 31 b1 3c
       0.034014598 0.08303185 -0.044307187 0.021629943
0002f0 ef 34 2f 3d 3f 33 3e 3d 22 4b bf bb 88 2e 08 bc
       0.04277509 0.04643559 -0.005837814 -0.008311875
000300 bc ca 2a 3d c9 19 da 3c 86 30 98 bd 8a 2b e1 bc
       0.04169725 0.026623623 -0.0743113 -0.027486581
000310 05 91 ae bc 78 80 b4 3c 55 34 24 bd f9 46 8b 3c
       -0.021309385 0.022033915 -0.04008897 0.017001616
000320 c9 ff 11 bb c6 fc 55 bd da 94 d1 bc 25 94 71 3c
       -0.0022277704 -0.052243017 -0.025583673 0.014744793
000330 be be 51 3d 88 20 80 bd e9 61 85 3c c3 39 f2 bc
       0.051207297 -0.06256205 0.016282039 -0.029568559
000340 dd c1 2a bd af c6 e1 3c 71 94 94 bd 1f 62 e9 3d
       -0.04168879 0.02756056 -0.072548755 0.11395668
000350 ed f6 c6 3c 97 f5 40 3b 6f 70 09 bd d5 07 23 3d
       0.024287665 0.0029443258 -0.03355449 0.03980239
000360 bb ca a9 3d 7e b3 2f 3c d0 c4 78 3d c1 2a aa 3d
       0.08290621 0.010723947 0.06073457 0.08308936
000370 2c d6 9c 3c 2f 2c dd 3c a8 fd 1d ba da 40 8b 3e
       0.019145094 0.026998607 -0.00060268724 0.27197915
000380 fa 70 86 3d 8a 7a 64 3c e2 9a 46 bd 67 5f 50 3d
       0.06564517 0.013945231 -0.04848755 0.050872233
000390 a6 33 3e 3c 13 0f bb 3c 35 0a 01 3d 76 34 da bd
       0.011608994 0.022834336 0.031503875 -0.106545374
0003a0 2d 21 2c 3c c2 43 bf 3d 1a 10 49 3e 09 10 46 3d
       0.010505957 0.09339096 0.19635049 0.048355136
0003b0 fc 65 18 bd 48 04 ec 3c 31 0b 4e 3d 36 ec 3d 3d
       -0.037206635 0.028810635 0.05030364 0.046367846
0003c0 a2 7d 17 3d 52 2e 62 be 83 78 1a bc d4 e5 b7 3d
       0.036985047 -0.22087982 -0.009428146 0.08979383
0003d0 91 2d 93 3d 56 d7 a4 3d 36 89 7e 3d 0b ec c0 bc
       0.071864255 0.080488846 0.062142573 -0.023550054
0003e0 69 9c c6 3d 41 64 9d 3c 04 df bf bb 0a 4b 09 bd
       0.096978016 0.019212844 -0.005855443 -0.03351883
0003f0 c9 42 a5 ba 8e f9 5a be c6 2f 5c bd c3 8c b4 3c
       -0.0012608405 -0.2138426 -0.053756498 0.022039777

linear2.bias f4 [60]
000000 2e 0b 2a bd 1f 79 30 bc 41 9a 86 3d 89 98 33 3d
       -0.041514568 -0.010771065 0.0657239 0.04384664
000010 a0 eb bc bc 9a e1 90 bd 2d 49 44 bb 00 ea b2 bc
       -0.023061574 -0.0707428 -0.0029950843 -0.021840096
000020 f3 f1 a7 ba 05 78 1c 3d 19 e7 d1 3c 74 2c 08 bd
       -0.0012813195 0.038200397 0.025622891 -0.03324552
000030 ec b5 d6 3d e0 2e 9d 3b 1a 86 2d 3c ae 35 0c bc
       0.104839176 0.0047968477 0.010591054 -0.00855772
000040 05 66 b1 3d 4a b5 75 3c 7c e4 73 bd 4f 74 84 bd
       0.08662037 0.014996836 -0.05954407 -0.064674966
000050 39 aa 33 bc 0a 59 29 3c 38 e5 66 3d e9 55 95 3b
       -0.010965877 0.01033617 0.056370944 0.0045573604
000060 1d 02 53 bc ba 3c 09 bc 2f e0 09 3d 30 c8 a1 bc
       -0.012878922 -0.008376295 0.033661064 -0.019748777
000070 18 61 55 bd 21 cb bc bd c9 b7 a1 bc 32 f7 99 bc
       -0.05209455 -0.09218431 -0.019740956 -0.01879463
000080 09 65 be 3c 91 9d 61 3b 4d 8d 1a bd a4 08 21 bb
       0.023241537 0.0034426192 -0.03773241 -0.00245718
000090 02 cb e0 3c ef d2 8e bd 04 ca 0e bd 5d 50 1c 3d
       0.027440552 -0.06973826 -0.034860626 0.038162578
0000a0 b7 67 5f bb 3b af c9 3b e1 ab 0b 3c fc f8 83 3c
       -0.0034088918 0.0061549223 0.008524866 0.016109936
0000b0 da 01 83 bd e3 21 c1 bc cb b7 ac bc 73 84 4f 3d
       -0.063968375 -0.023575729 -0.021083733 0.050663423
0000c0 e3 07 fc 3c e6 e5 8d bc 32 88 ba 3c b2 ed f0 bd
       0.03076548 -0.017321538 0.022770021 -0.11764087
0000d0 ce c6 4f bd 35 ba 6c bd 13 04 5c 3d a5 cc 2f 3d
       -0.050726704 -0.05779477 0.053714823 0.042919774
0000e0 14 51 5d bd 2c c2 25 bc ef 37 86 3d 82 9c 50 bd
       -0.0540324 -0.010117095 0.06553637 -0.050930507

weight f4 [1, 768]
000000 65 3e 23 3c c5 f1 9b 3c 79 0d 0a bb e9 c1 d3 3a
       0.0099636065 0.019036183 -0.002106516 0.0016155812
000010 0e cb a9 bb 1b f5 45 bc 2b 8e 17 3c 13 44 6a bc
       -0.0051816767 -0.0120823635 0.009250204 -0.014298457
000020 17 32 ac ba 64 45 01 bd c0 e8 19 bc 0f 68 1c 3c
       -0.0013137487 -0.031560317 -0.009393871 0.009546294
000030 32 19 ea bb 4a 9a fc bb a1 2d 28 bc e6 04 33 bc
       -0.007144117 -0.0077088224 -0.010264785 -0.010926461
000040 85 61 2f 3c 78 52 35 3d b0 4d 86 3b 66 56 35 bc
       0.010704403 0.0442681 0.0040986165 -0.011067962
000050 f2 9f 99 3c 33 73 eb bc e2 1b 1b bd 74 e6 ff 3a
       0.018753026 -0.028741455 -0.037868388 0.0019523636
000060 1d 5b 9b ba 3e f2 f5 3a d5 3e 2e bc 43 ee 17 bc
       -0.0011852715 0.001876421 -0.0106350975 -0.009273115
000070 3a 20 3f bc 31 54 a4 3c d6 41 71 3b 05 b0 08 3d
       -0.011665398 0.020059677 0.0036812923 0.03337099
000080 e0 ea 90 b9 5b 22 71 3c 85 23 82 bc 65 21 b0 3c
       -0.00027640816 0.014717664 -0.015886078 0.021500299
000090 f9 56 b1 bc db e7 da bb b9 c6 4e bc 9a b7 44 38
       -0.021647917 -0.0066804714 -0.012620621 4.6901034e-05
0000a0 57 03 0e 3c de 86 d6 bc 60 c2 0f bc 3e 40 f0 3c
       0.0086677885 -0.026187357 -0.00877437 0.029327508
0000b0 57 30 83 3c 23 79 0b ba 4d a5 c5 bc 37 8f 41 bc
       0.016014261 -0.000532048 -0.024126673 -0.01181393
0000c0 19 36 33 3b f4 e4 0c bc 31 e7 f8 3c 8a bd ff 3b
       0.0027345477 -0.008599509 0.030383678 0.0078045772
0000d0 0e 4a 12 bc 5a 6a 88 3c 29 f2 b4 3c 42 b1 da bc
       -0.008928789 0.016652275 0.022088127 -0.026695851
0000e0 b8 0c be bc f0 56 c4 3c a4 67 30 bb 36 f2 be b9
       -0.023199424 0.023967236 -0.0026917243 -0.00036420085
0000f0 ae cf 9c 3c 45 8f a1 3c 74 c2 8f bb 03 35 1d bb
       0.019141998 0.019721637 -0.0043871943 -0.0023987896
000100 56 20 e1 bb cd 84 db 3c 5d 5a 43 bc 57 c8 b7 3b
       -0.00687031 0.026796723 -0.0119234 0.005608599
000110 c4 e2 96 bc 03 27 f9 3c 3f 9d 8e 3c 98 e4 95 bc
       -0.018418677 0.03041411 0.017408965 -0.018297479
000120 a6 d2 d2 bc 94 3c 82 3c d2 d3 2a bc 9e f4 41 ba
       -0.02573521 0.015898027 -0.010426478 -0.00073988165
000130 20 b7 82 3b d4 84 c5 bc 8d af 8a 3a 39 2b b7 3c
       0.0039891154 -0.024111189 0.0010580883 0.022359477
000140 7c 2d 70 bb ae 3e b8 3c c9 e3 ce bc 4a f2 ed 3c
       -0.0036648205 0.022490826 -0.0252551 0.029046196
000150 1c f4 ab bc 17 ba 85 3c 95 a0 c2 3c d7 df cb bc
       -0.020990424 0.016324086 0.023758212 -0.024887009
000160 d1 be 3e bb d9 46 ab 3c 59 95 1f 3b 00 da ef b9
       -0.0029105435 0.020907806 0.0024350493 -0.00045748055
000170 e5 0f db bc 06 7f 88 bc 87 7f 5b bc 1a 6a f2 3b
       -0.026740978 -0.016662132 -0.013397104 0.007397902
000180 50 ea b7 bc 7c 09 d9 bc 98 91 8f bb f5 65 0c bc
       -0.022450596 -0.02649378 -0.00438137 -0.00856923
000190 8a 06 78 bc 2d a9 c2 3b 0a 9f c1 3c b3 2b 58 bc
       -0.015138278 0.0059405775 0.023635406 -0.013194012
0001a0 76 0a ff 3b 5f f7 81 3c 22 2a 8d bc f8 02 e8 ba
       0.0077832295 0.015865026 -0.017232005 -0.001770108
0001b0 02 d7 6e ba 6d 6e 12 3c e1 50 07 3c c4 3e b9 3c
       -0.0009111018 0.00893746 0.008259029 0.022612937
0001c0 c1 45 ea 3c 1a 53 39 3c c5 a9 29 3c 65 e0 d1 bc
       0.028597714 0.011311317 0.010355418 -0.025619695
0001d0 e6 02 3f 3c ca 4b 08 bc 33 85 dd bc 9c bf 04 3d
       0.011658406 -0.008318851 -0.027041053 0.032409295
0001e0 ad 7a 52 bc 52 24 8b bb 66 64 cb bb e5 4c 0f 3c
       -0.012846631 -0.004246273 -0.006207037 0.00874636
0001f0 27 61 9d 3c 18 0f f8 bb d6 f6 e3 bc 4e e1 b9 bb
       0.019211365 -0.0075701587 -0.027827661 -0.0056726104
000200 1f b3 44 39 f1 40 9b 3c 38 1f 35 3c 51 ce f8 bc
       0.00018758744 0.018951865 0.011054806 -0.030371817
000210 a9 4b 0b 3d 63 88 db 3c 2e eb d5 3c 74 c7 2f bc
       0.034007702 0.026798433 0.026113119 -0.010728706
000220 6c 56 cf bc 60 1d 4b bc 23 b1 35 bc ac 24 f9 3c
       -0.025309764 -0.01239714 -0.011089596 0.030412994
000230 bf b0 23 3c 92 28 80 bb 3e 3d 04 3c f4 54 eb 3a
       0.00999087 -0.0039110864 0.008071242 0.0017954395
000240 27 e3 be bb c5 70 9a bc 53 27 47 bc 68 dd 4c ba
       -0.0058254185 -0.0188526 -0.012155372 -0.00078149745
000250 c2 77 c7 3b dd 0e 0f 3c 77 17 94 bc 85 2c 15 3d
       0.0060872743 0.008731571 -0.018077595 0.03641941
000260 8f 02 c4 bc 28 63 6c 3b a3 fc 15 3b 98 aa 6f 3c
       -0.023927001 0.0036069844 0.002288618 0.014628075
000270 7d c3 0c 3c 53 26 8e 3c 33 cc 07 3c 7c 39 4a bb
       0.00859153 0.017352259 0.008288431 -0.0030857017
000280 d9 ca bd ba 43 c3 c2 bc 92 5e 4f bc 0e c2 c5 bb
       -0.0014480009 -0.023774749 -0.012656825 -0.006035096
000290 51 de cb bc 15 9d 50 bc 6a f1 0d 3c 81 b5 a7 3c
       -0.024886282 -0.012732764 0.008663515 0.02047229
0002a0 7a 79 bb bc 9b 51 85 b7 64 75 12 bd 94 30 4e bc
       -0.022885073 -1.5892836e-05 -0.035756484 -0.012584824
0002b0 ea 87 91 3c 7c cc a9 3b 56 2e b6 3c 10 a8 cc bc
       0.017765004 0.005181847 0.022238892 -0.024982482
0002c0 0c 67 1b ba 0a d2 f2 ba 3a b9 7d 3c 81 36 d4 3c
       -0.0005928136 -0.0018525731 0.015486056 0.025904896
0002d0 0e 01 be 3c 0d 98 b6 3c 88 f1 e1 bc d4 d5 8e 3c
       0.023193862 0.0222893 -0.027580991 0.017435946
0002e0 1d 42 99 bc ec a8 44 3c fa ce fc bb c0 5a 87 bc
       -0.018708283 0.012003165 -0.007715103 -0.016522765
0002f0 53 1f 08 3c 82 6a cb 3b c4 9c cc 3b 59 69 90 bb
       0.0083082495 0.006207765 0.006244274 -0.0044070897
000300 cb ae 9a 3c 5f 0d b7 3b f3 92 91 3c 56 6f 8e 3c
       0.018882176 0.0055863108 0.017770266 0.017387073
000310 dd 33 50 3c 0f 05 0e 3c 1d 24 a7 3c 7b e7 1d 3d
       0.012707678 0.008668198 0.020402962 0.038550835
000320 3d 81 79 3b 63 c3 e5 bc 3f 7d 3b 3c a7 9e 7f 3c
       0.0038071417 -0.02804727 0.011443435 0.0156017905
000330 5e de 5e bc b5 67 aa bc 7c 76 34 bc c8 0d e7 bc
       -0.013602821 -0.020801404 -0.011014577 -0.028204814
000340 01 fb 78 bb b9 ec 34 ba 14 c3 66 3c 56 66 bd 3c
       -0.0037991407 -0.00069017295 0.014084596 0.023120087
000350 96 ab ec bb 72 38 a5 3c 38 3d b4 3b 6d 8b 45 bc
       -0.007222603 0.020168517 0.005500462 -0.0120571675
000360 c2 ca f6 3c 49 75 3f bc 97 35 04 3c 28 69 97 bc
       0.03012598 -0.011685678 0.008069417 -0.01848276
000370 30 e9 1a 3b e4 cb 85 bc b8 45 15 bb 90 bb 50 bc
       0.0023637526 -0.016332574 -0.0022777151 -0.012740031
000380 e6 36 7a 3b d3 a2 8a bc 46 c3 5e 3b 0f 19 f8 bb
       0.0038179695 -0.016923344 0.0033990904 -0.0075713466
000390 96 04 88 3c 4e d7 ab 3c 11 51 79 bc c2 95 d1 ba
       0.01660375 0.020976689 -0.015217082 -0.0015990066
0003a0 7b b7 68 3c 5a 82 e4 ba 0e 52 38 3c 02 4d 9a 3b
       0.014203901 -0.0017433867 0.011250032 0.004708887
0003b0 d7 f1 c5 3c 70 2c d2 bc 92 5d 2f bb 92 61 94 bc
       0.02416317 -0.025655955 -0.0026758653 -0.018112931
0003c0 c7 66 3e bc de 11 50 bc c7 78 0a 3c 1e 4e 9e bc
       -0.011621184 -0.012699572 0.008451647 -0.019324359
0003d0 50 94 b8 3b 11 f5 09 3b a2 bc 97 3c ad 4a e0 37
       0.0056329146 0.0021050612 0.018522564 2.6737654e-05
0003e0 3f da 04 bd b9 74 fe 3c ae 25 0c bc 22 1d e1 bb
       -0.0324347 0.031061517 -0.008553905 -0.006869928
0003f0 3a 4b 03 3c 63 f2 9a bc f4 cb c9 3c 20 4c ba 3a
       0.008013541 -0.018914407 0.024633385 0.0014213361
