SPMLUA_outputs/伪标签＋全监督/Train_with_full_labels_L2loss/checkpoint_best_2.pth (torch, 691471 bytes, 7 tensors)

weight f4 [80, 240]
000000 7b 8e 34 3f 32 6d 99 3c 93 11 6b 3d 83 3a 3c bd
       0.7052991 0.018728826 0.057389807 -0.04595424
000010 f4 3e da bd fc 15 0c 3d b6 26 dc 3d 65 93 b3 bd
       -0.106565386 0.034200653 0.10749571 -0.08768348
000020 e5 e7 1c bd 21 bd 06 be 5c 50 8b bd c0 00 eb bd
       -0.03830709 -0.13158084 -0.06802437 -0.114747524
000030 47 a2 cf bd 1d 8b 9d bc eb 4f a2 bd 68 c4 b6 bd
       -0.10138374 -0.019231373 -0.079253994 -0.0892418
000040 dc 5a 4d bd 6c 3e e1 bd be 98 01 be 51 85 a6 bd
       -0.05013548 -0.10998234 -0.12655923 -0.08130897
000050 3a 27 a0 bd ff 64 e1 bd 7d 1d 02 be 14 f9 dd bd
       -0.07819982 -0.110055916 -0.12706561 -0.108385235
000060 4a 56 39 3e ba 87 28 3d 27 31 93 3b 8c 1f 82 3e
       0.18099323 0.041145064 0.0044919434 0.25414693
000070 27 6d 55 bd 5d 4b 6d bb 48 3e d0 bb a0 3b 29 bd
       -0.05210605 -0.003620825 -0.0063550808 -0.04131663
000080 35 e6 9b bd 20 49 da 3c 9d 95 a0 3d 55 b0 9d bd
       -0.07612268 0.026646197 0.078410365 -0.07699648
000090 06 13 a9 3e 64 25 8b 3d 0e ac 9b bc df 96 7b bb
       0.33022326 0.06794241 -0.01900294 -0.0038389487
0000a0 e6 4c c6 bd 6c ec 5b 3e 8c 05 a2 bd 20 56 5d bd
       -0.09682636 0.21476907 -0.07911214 -0.054037213
0000b0 47 ac ab bd fb 5d b7 bc 12 11 5d 3c 54 43 e5 bc
       -0.08382469 -0.02238368 0.013492839 -0.027986206
0000c0 c9 1b 1d bb a1 20 f4 bd 77 4f ba bd 8b 3f 75 bc
       -0.002397286 -0.11920286 -0.09097188 -0.014968763
0000d0 39 de 1b 3d ff e0 02 bc 7e 61 a2 3c e8 60 f4 3c
       0.038053725 -0.007988214 0.019821879 0.029831365
0000e0 46 88 65 bc 0e 37 82 3a 59 40 fd bd 4c 17 84 bd
       -0.014009541 0.000993462 -0.12365789 -0.06449756
0000f0 f7 a4 1d be 89 2e 08 bd 97 5b 8b 3d 85 b5 65 bd
       -0.1539496 -0.033247504 0.06804579 -0.056081314
000100 9e 1b 0e be 9e d3 70 bd cc 18 d8 bd aa 92 86 3e
       -0.13877723 -0.058795564 -0.10551605 0.2628377
000110 45 16 13 3d fa 05 02 be 3e dc 8a bd e7 4d 2d be
       0.03590991 -0.12697592 -0.06780289 -0.16924249
000120 cb 7a 0c bd e7 95 52 bd e0 62 2d be de ec 02 be
       -0.034296792 -0.05141249 -0.16932249 -0.1278567
000130 17 d2 89 bc 5c b6 2e bd 10 d4 8f bd 1a 57 5f 3d
       -0.016823811 -0.04265438 -0.070228696 0.054526426
000140 1c d3 7b 3d 7b 45 dd 3e 3c 64 44 3c 2b 3b 99 3e
       0.061480626 0.43217072 0.011986788 0.29927954
000150 5f cd 62 3c b5 c9 86 3e bd c3 18 3e 88 59 92 be
       0.01384291 0.26325765 0.14918418 -0.28583932
000160 84 d7 9a 3e 6a 87 be bd 0e 92 df 3d fe 18 69 be
       0.3024255 -0.09303172 0.109165296 -0.2276344
000170 8b e3 41 3e 5a 79 a1 3e f3 54 36 be 13 26 28 3e
       0.18934457 0.31537896 -0.17805843 0.16420774
000180 83 3f 18 3e bc fe 18 bb 68 ad 54 3e 24 f0 b6 3d
       0.14867978 -0.0023345193 0.20769274 0.08932522
000190 b1 fb 09 3e 10 4a 92 3e 1f 1f 95 be ee dc e9 3d
       0.13474919 0.2857213 -0.29125306 0.11419092
0001a0 4f a2 6b 3d 47 72 42 bd f7 eb 6a 3e cd 98 1d be
       0.057527836 -0.047472265 0.22941576 -0.1539032
0001b0 54 72 35 3d 93 b3 2b 3d c7 fb 8d bd 4d ee 00 3e
       0.044298485 0.041919302 -0.06932788 0.12590905
0001c0 b6 ab 72 3e 1f 87 ba be f4 24 6e be 3d 9a 80 3e
       0.23698315 -0.36431214 -0.23256284 0.25117674
0001d0 c8 59 87 be 77 1f b5 be 35 83 ce bd b0 03 af bd
       -0.26435685 -0.35375568 -0.100836195 -0.08545625
0001e0 6b 57 a8 be 87 0e 37 be a9 18 02 3d 55 fd 90 3e
       -0.32879195 -0.17876635 0.0317618 0.28318277
0001f0 a4 21 7a 3e 0f 1d 5f be 67 80 68 3e 66 26 30 be
       0.24426895 -0.21788429 0.22705232 -0.17202148
000200 18 db 23 bd 26 7b 62 3e ac 23 02 3e 14 73 96 3d
       -0.040003866 0.2211729 0.1270892 0.07346168
000210 b5 96 82 3d b2 4c 25 be 30 1f 00 be 8f ef 42 3e
       0.06376401 -0.16142538 -0.12511897 0.19036697
000220 85 3e 8c 3c e6 27 55 be d0 eb 3f 3d a4 40 f5 3d
       0.017119655 -0.20816001 0.046855748 0.1197522
000230 64 13 10 be 86 c4 3f 3e c7 da 59 3d 62 60 06 be
       -0.14069897 0.18727311 0.053187158 -0.13122705
000240 18 a5 81 be 8c ce 38 be c9 03 07 bb fe f6 e4 bc
       -0.2532127 -0.18047541 -0.0020601621 -0.027949806
000250 67 69 98 3e 99 6c 71 3d 10 ad 21 3e 4e da e0 bc
       0.29767916 0.058941457 0.15788674 -0.027447846
000260 f2 a2 86 bd 69 94 64 be 15 65 7b 3e 1f 5e 01 3a
       -0.06574048 -0.22322239 0.24550278 0.00049349846
000270 6e f9 58 3e 85 d2 b9 bb 4e 06 78 be 6f cd b2 3e
       0.211889 -0.005670848 -0.24221155 0.34922358
000280 a8 f9 e2 3b 7a 5b 08 bd ca 83 e7 3c cf 48 4a bc
       0.006926734 -0.033290364 0.028261084 -0.0123464605
000290 b1 a6 08 bd 5e ee 09 bd 1b 18 6b bd c1 1d 08 bc
       -0.033362094 -0.03367459 -0.057396036 -0.008307875
0002a0 ea 29 a5 3b 0b 64 9b 3c 47 92 96 bd ae 81 15 3c
       0.005040397 0.018968603 -0.07352119 0.009125156
0002b0 1c 4e 8e 3c 55 d4 fa bc 60 17 0e 3c bc 55 81 bd
       0.01737123 -0.030618826 0.008672565 -0.06315181
0002c0 98 47 52 3c d8 95 95 ba 7f b7 e8 3b 84 54 3a bc
       0.012834452 -0.0011412455 0.0071019526 -0.011372689
0002d0 2e e1 67 3c 2a d4 06 bd 6b e0 14 bb 12 d9 9b 3c
       0.014152808 -0.03291718 -0.0022716771 0.019024406
0002e0 6e 70 2d 3d f4 1c f2 3c 48 2d 50 3b 1f 34 47 bc
       0.04234355 0.029554822 0.003176527 -0.012158423
0002f0 65 07 ba bc f1 bf d0 bc 56 c1 02 bd 51 4b ce 3c
       -0.022708604 -0.02548215 -0.03192266 0.025182398
000300 b9 02 95 bc 2f 77 ef 3b e8 09 16 bd 44 c9 19 bd
       -0.018189775 0.007307909 -0.03663054 -0.037545457
000310 47 9c c0 bc fa 71 12 3d bc 30 35 3c 66 0e 1d bd
       -0.023512019 0.035753228 0.011058982 -0.03834381
000320 80 0d 56 3d 82 bf 94 bc 15 9f 65 bd bf c9 a8 3c
       0.05225897 -0.018157724 -0.056059916 0.020604013
000330 17 83 01 3c 30 7b 49 3d ac ed 45 bc 4e 88 28 3d
       0.007904789 0.049189746 -0.012080591 0.041145615
000340 7a 7d 47 3c 4d 40 b3 3c d2 05 a6 ba f1 43 20 3d
       0.012175912 0.021881247 -0.001266653 0.039127294
000350 19 cd 51 3c 5b 15 10 bd 57 2c ac bb 69 ab e0 3c
       0.012805247 -0.035176616 -0.005254309 0.027425485
000360 5b a1 80 3b 92 11 20 bd cf c4 38 bc 6f c5 58 bd
       0.003925485 -0.039079256 -0.011277392 -0.052922662
000370 ce 84 29 3d 27 f5 d5 bb bf bc d8 3b c9 a3 13 bd
       0.041386418 -0.0065294686 0.006614297 -0.03604487
000380 5e 8a 91 3c 63 fd ae bc 51 24 28 bd 4d ed 04 3c
       0.017766174 -0.021361059 -0.04105026 0.008113218
000390 a1 27 5a ba 45 01 00 3c 11 16 3b 3d c2 f7 54 3c
       -0.0008321945 0.007812803 0.04567534 0.012998523
0003a0 16 6b 1f 3d 11 76 df 3c 64 5b 4e 3d 51 4b d3 3c
       0.038920484 0.027277978 0.050380126 0.02579275
0003b0 ee bf 80 3c 5b 8f a5 bc 81 ac d3 3c 62 57 26 bd
       0.01571652 -0.020209959 0.025839092 -0.04061068
0003c0 33 e7 5d bc cf 93 59 3f c4 bf 49 3d 7d 5b 09 be
       -0.013543892 0.84991163 0.049255148 -0.13413806
0003d0 ef 6d 50 3c c9 e7 44 bd d5 eb 63 3b c0 d7 80 bd
       0.012721523 -0.04807261 0.0034778018 -0.06291151
0003e0 33 78 80 bc 9a 05 00 bd 30 13 9f bc b5 df 84 bd
       -0.015682315 -0.031255342 -0.019418329 -0.06487981
0003f0 32 fd 4c bc bb f1 b4 3c 33 66 48 bc dd 58 eb 3a
       -0.012511538 0.022087922 -0.012231397 0.001795556

bias f4 [80]
000000 15 2d de 3d a4 ea 74 3d 64 bd a1 3d 38 2f 8a 3d
       0.108484425 0.059794083 0.078974515 0.067472875
000010 6f 63 8c bb 1e 6e ee bc c3 79 ae bd 93 ef ef 3c
       -0.0042843143 -0.029105242 -0.08519318 0.029289043
000020 27 47 96 3d 04 b6 ca 3c 58 13 cc 3c d1 c5 b7 3d
       0.0733779 0.024744995 0.024911568 0.08973277
000030 7b ce 9a bb 64 a4 d4 bc f4 0c 32 3d 08 2e 53 ba
       -0.0047243214 -0.025957294 0.043469384 -0.00080558704
000040 4f 52 91 bc ea d1 98 3d a0 e8 99 3c fb 62 12 3b
       -0.017739443 0.07461913 0.018787682 0.002233683
000050 ef 12 79 3c 13 45 8c bb 66 fd 12 3e b6 c5 f3 3c
       0.015202268 -0.004280695 0.14354476 0.029757362
000060 61 4d 4e 3d bf e1 96 3d da 2f 0e 3e 73 e5 04 3d
       0.050366763 0.073672764 0.13885441 0.032445382
000070 6b aa f6 bb 5b 66 b6 3c f9 88 1c bc 6a 66 82 3d
       -0.0075276396 0.022265604 -0.009554141 0.0636719
000080 8b 37 68 3d 3b 9b b7 3d 0e 23 3d 3d cf d4 86 bb
       0.056693595 0.08965155 0.04617601 -0.004114724
000090 8b 65 be bc ba 44 93 3c ed f2 a4 bc bd 88 0b 3e
       -0.023241779 0.017977107 -0.020135367 0.1362638
0000a0 0a 3c 4a 3d 4d 8b 05 3d 4c a8 ac 3d ef aa ae 3c
       0.049373664 0.03260355 0.084305376 0.021321742
0000b0 7e b9 ee 3d 05 d9 a8 3d ed 62 94 3d 56 f0 f3 3c
       0.116564736 0.08244518 0.07245431 0.029777687
0000c0 61 20 7a 3d ac 36 39 3d 21 6a a4 3d 03 3a 8c 3d
       0.061066035 0.045218155 0.08028055 0.06847002
0000d0 a0 e4 6a bc 4e 05 ad bc 35 d4 ec 3b 7e 66 8d 3c
       -0.014336735 -0.021120694 0.0072274455 0.017260786
0000e0 b2 7d 88 3d c9 7e c7 bc ab bc 0c 3e 6c 94 4a 3d
       0.066645995 -0.024352448 0.13743846 0.049457952
0000f0 54 4b 05 3e ef 6c aa 3d 53 ab 3e 3d 8f ad c0 3d
       0.13017017 0.08321559 0.046550106 0.09408104
000100 ca 64 4e 3d 0c d8 8b 3d f3 17 bc 3d 0e 5c c5 3d
       0.05038909 0.06828317 0.091842555 0.09636699
000110 f3 66 f5 3c 0c f6 a9 3d 43 fd b2 3c ee e7 8d 3d
       0.029956317 0.08298883 0.02184928 0.06929003
000120 e1 21 42 3d 25 f2 0b 3e 06 23 c8 3d b1 bf 9e 3c
       0.04739559 0.1366659 0.09772305 0.019378515
000130 16 db 16 3d 49 1a 0d 3e 23 c1 72 3d 45 be 5a 3d
       0.03683003 0.13779558 0.05926622 0.05340411

linear1.weight f4 [256, 512]
000000 fb fb d5 bd a2 0e 16 3e 5d 57 14 3d 37 76 65 be
       -0.10448452 0.1465402 0.03621613 -0.22408377
000010 94 9b c8 3c ed 4a 40 3e 15 03 a3 3d 76 79 ae 3d
       0.024488248 0.18778582 0.07959572 0.085192606
000020 86 03 a7 bd ad 89 66 3d 0b ed d9 bb d3 0a a2 3d
       -0.08154969 0.05628364 -0.006650572 0.07912221
000030 a8 e7 87 3d 1a 1a 2a 3e 14 6d 1c 3d 4f 37 dc 3d
       0.06635982 0.1661152 0.038189963 0.10752737
000040 13 ac 33 bd ef 29 8c 3c c8 0d 82 bd cc 3d f2 3b
       -0.043865275 0.01710984 -0.06350285 0.0073926207
000050 18 21 17 3d be 1d 8d 3d b8 7c 12 3d d9 2c 49 be
       0.036896795 0.068904385 0.035763472 -0.19646014
000060 12 93 1c 3c 1a 4e 6b be 33 0d bc 3c 2d 40 2a bd
       0.009556549 -0.22979012 0.022955513 -0.04156511
000070 f9 7c 4f be 2b 30 a0 bc f7 e6 d3 bc 91 75 56 3c
       -0.20262517 -0.019554218 -0.025866969 0.013089553
000080 5a 47 81 3e 12 d6 5e 3e 73 b8 d9 3d 1e 6e 35 3e
       0.2524975 0.21761349 0.10630884 0.17717788
000090 a7 4a 1c bb 26 c4 64 bd af 0f ed bd a8 a9 4d be
       -0.0023848207 -0.055851124 -0.11575257 -0.2008425
0000a0 d9 a4 9a 3d c3 31 2b 3d 01 43 73 3e c9 02 4f 3e
       0.075509734 0.041795503 0.23756029 0.20215906
0000b0 ab ee 04 be c9 f1 43 3e 74 79 33 be ce 59 2c 3d
       -0.1298167 0.19135202 -0.175268 0.042077832
0000c0 38 a1 85 3d 42 be 41 bc 5b 84 ae 3d 64 18 98 3d
       0.06524891 -0.011825146 0.085213386 0.07426527
0000d0 ae 54 a9 bc 84 d7 06 be d1 82 3e bd 24 7e 44 3e
       -0.020670261 -0.1316815 -0.046511475 0.19188744
0000e0 09 89 24 bd 73 bd 56 be 0e d7 14 be 5f 2b 38 bd
       -0.04016975 -0.20970707 -0.14535162 -0.044963237
0000f0 a7 7f 0c be 51 47 a7 3c 8e 39 73 bc e8 63 56 bd
       -0.1372057 0.020419748 -0.014845265 -0.05234137
000100 f7 0c 54 be 6b d0 ce bd 3f d4 0c be 0c 2c e3 bd
       -0.2070807 -0.10098346 -0.1375284 -0.11092386
000110 33 9e 62 be 0a e2 0c be d1 0e 20 3d d1 ee 15 bd
       -0.2213066 -0.13758102 0.03907663 -0.036604706
000120 75 a5 99 bd c0 40 14 3d 49 db c4 3c 27 a1 96 3c
       -0.075022615 0.036194563 0.024030345 0.01838739
000130 93 2a 05 be 15 6e 04 3d bd a9 61 bd 26 ec 43 3d
       -0.13004522 0.032331545 -0.055093516 0.04783263
000140 5c 1e aa 3d 4d 4f 5f bd fe cc 51 3d 6a 7e 81 bc
       0.08306572 -0.054518986 0.051220886 -0.01580735
000150 82 51 0f bd ed 22 9a bd 5e 59 a7 3a 2e 1e 6a bd
       -0.03498984 -0.07526193 0.0012767722 -0.057157688
000160 80 ab 3c bc 01 03 53 bd 43 20 09 be 7f 90 e4 bd
       -0.011515498 -0.051516537 -0.13391213 -0.11160373
000170 db 71 d9 bc 3c f3 c8 3d bc 3c fe 3d 84 9d 47 be
       -0.026543548 0.09812018 0.12413928 -0.19493681
000180 fa b3 09 3d 4a 97 64 3e a2 33 4c be 1a fe ac bb
       0.033618905 0.22323337 -0.19941571 -0.0052793147
000190 89 cc 2a be 94 fe fe 3c 1b 83 71 bd e4 09 22 3e
       -0.16679586 0.031127252 -0.058962923 0.15824085
0001a0 83 12 10 3e 6e 46 d3 bc 15 9c e2 bd a3 cd fa 3d
       0.14069562 -0.02579042 -0.110649265 0.12246253
0001b0 5c 2b 18 3e 3e 2b f9 3d 5c d3 fa 3d 4c 89 e7 3d
       0.1486029 0.12166451 0.12247345 0.11305484
0001c0 07 3b 2b 3d 81 f0 ad 3d dc 4a b1 bd 49 03 2e 3e
       0.04180434 0.08493138 -0.086568564 0.1699344
0001d0 64 4d 59 be dc 14 f9 3c f2 a6 55 be 69 d9 1b bd
       -0.21220928 0.030405454 -0.20864466 -0.038049135
0001e0 1a 9c 66 3d 4b 91 d4 bd 7b 7c 4c 3e f5 3d 0f bc
       0.056301214 -0.10379275 0.1996936 -0.008742799
0001f0 cf 33 8c be d4 09 07 3e c6 34 94 bc 3b d9 d5 bd
       -0.27383277 0.13187343 -0.01809157 -0.10441824
000200 44 2d 00 be fc 15 f3 3d 91 e7 d5 3d 00 9c 66 be
       -0.12517267 0.118694276 0.104445584 -0.22520447
000210 c0 ca e1 bd e0 c7 13 3e ee 22 11 3e 30 67 ef bc
       -0.110249996 0.14431715 0.14173481 -0.029224008
000220 34 94 5b 3d 67 0f 00 be 07 ad 3f 3e c0 85 b1 bd
       0.053608134 -0.12505876 0.18718348 -0.08668089
000230 ae 7f 7b be 07 8f aa 3d 1e 5d ec bd 42 c1 63 bb
       -0.24560425 0.083280616 -0.11541198 -0.0034752642
000240 5b b8 57 bd 13 0a c5 3c 94 09 bc bc e4 1d 70 be
       -0.05266605 0.024052655 -0.022953786 -0.23448902
000250 f8 7a 27 bd 06 ba 2b be cb 78 ad 3d 89 bd 40 3e
       -0.040888757 -0.16770181 0.08470305 0.18822302
000260 2b 7b 50 3c 4b 0e f7 bd a5 03 4d bd 74 71 f5 bd
       0.012724678 -0.12063273 -0.050052304 -0.1198453
000270 ae cc dc 3d fc 59 1e be 97 ad cb 3d 41 a3 00 3e
       0.10781227 -0.15464014 0.09945219 0.12562276
000280 02 94 74 bc 46 dd ab 3b e9 92 1e bc 6c 12 f4 3c
       -0.014927866 0.0052448837 -0.009678581 0.02979394
000290 19 f3 f6 3d e2 f3 cf bd 4d 3b c9 bd 2f c1 b0 3d
       0.12058086 -0.10153939 -0.09825764 0.08630597
0002a0 12 95 e3 bd d8 38 23 be 37 41 0f 3e 15 85 06 3e
       -0.11112417 -0.15939653 0.13989721 0.13136704
0002b0 5f ff 7c 3d c8 24 e7 bd 54 56 2e 3c 35 5d 1a be
       0.06176698 -0.11286312 0.010640699 -0.15074618
0002c0 bd a5 e5 3d 67 62 e8 bd bd 25 8a bc 27 c9 b0 3d
       0.11213253 -0.11346894 -0.016863698 0.08632117
0002d0 bb 5c 42 3d 0b b6 27 bd 7d f7 55 bd f2 9c 59 3d
       0.047451716 -0.040945094 -0.052237976 0.05312819
0002e0 22 49 74 bd da 27 e5 bc bf f1 3a 3d 63 a7 95 be
       -0.059640057 -0.027973104 0.045640703 -0.29229268
0002f0 7f 8a 39 3c 78 54 3f be 17 5d 90 3d 2c b1 36 bc
       0.011324524 -0.18684566 0.070490055 -0.0111506395
000300 ad 0a 57 be ee c3 a1 3e c2 0b 08 3d c0 11 4f be
       -0.21000166 0.31594795 0.033214338 -0.20221615
000310 03 3e 67 3e a7 00 ac bd f1 27 8c bd 04 04 34 ba
       0.2258225 -0.08398562 -0.06843556 -0.00068670535
000320 9f 5c d2 bd 19 7b d3 bc e4 b0 8a 3d ec 1d 62 bb
       -0.10271572 -0.025815533 0.067720205 -0.0034502698
000330 80 38 be b9 e6 64 c0 bd a9 22 9f 3d 17 63 33 bc
       -0.0003628172 -0.09394245 0.07770283 -0.010948918
000340 ea be 5a bd 19 e9 e8 3c 7e f7 9f 3c 1a 11 2a 3d
       -0.053404726 0.028431462 0.019527193 0.041520216
000350 ac 94 db 3d db a2 22 be 6b 56 4f bd ee ab da 3c
       0.10721716 -0.15882437 -0.050619524 0.02669331
000360 98 f2 bf 3c b1 84 61 be 10 9d ec 3c 2a ae e9 3d
       0.023431107 -0.22023274 0.028883487 0.11410172
000370 7d 07 1f bd c5 93 73 ba 85 5c 0a be 9d f6 08 3e
       -0.0388255 -0.0009291734 -0.13511856 0.13375326
000380 03 74 a0 bd ba a2 95 3b af 96 8c be 2a 40 2d bd
       -0.078346275 0.0045665177 -0.27458712 -0.04229752
000390 87 05 0b be 63 a9 23 bd 79 8c 17 3e c4 95 2f bd
       -0.13576327 -0.03995646 0.1479968 -0.042867437
0003a0 07 ba a9 3c 68 4c 7b bd fa fa e9 bd 51 2b 90 3b
       0.020718588 -0.061352164 -0.11424823 0.004399695
0003b0 f1 bc a6 3d d9 b4 c0 3d 2b 7e a9 3d 43 93 92 bd
       0.081415065 0.09409494 0.08276018 -0.07156994
0003c0 83 f6 0e bc b6 e6 38 3d e6 e5 9c bd c9 20 fb 3d
       -0.008725765 0.045141898 -0.07661037 0.12262113
0003d0 26 a4 40 3e e1 58 04 3e 80 4d 6f 3e e6 2d 48 39
       0.18812618 0.1292453 0.23369408 0.00019090585
0003e0 b1 e7 c8 bd 3b 63 0d 3e d3 4c 47 be 13 41 d1 3d
       -0.09809817 0.13807385 -0.194629 0.1021749
0003f0 ef ff 1f bd b8 bf cd bd e0 87 4f 3d 50 db 7d bd
       -0.039062437 -0.10046333 0.05066669 -0.06197673

linear1.bias f4 [256]
000000 f1 1e d2 bd 29 07 e2 bc 6a 18 54 bd 1d 11 3f bd
       -0.10259808 -0.027591305 -0.051781096 -0.04664718
000010 2c b9 ca bc 68 b6 94 bd 64 68 60 bd d0 ca 43 bd
       -0.0247465 -0.07261354 -0.054787055 -0.04780084
000020 06 53 61 bd 8a e6 70 bd 97 dd 53 bd df 0c 5c bd
       -0.055010818 -0.05881361 -0.051724996 -0.053723212
000030 61 47 ea bc f6 05 81 bd 2d 36 a8 bc e4 3a ee bc
       -0.02859849 -0.06299965 -0.020533646 -0.029080816
000040 a5 fc 12 bd 22 e8 83 bd c1 79 c1 bc d9 99 8c 3a
       -0.03588547 -0.0644076 -0.023617627 0.0010727003
000050 82 14 1b bd a6 a5 71 bd d5 2a b0 bd 74 18 f7 bb
       -0.037861355 -0.058995865 -0.086019196 -0.007540757
000060 cf 90 a2 bd b7 52 c9 bc c7 38 84 bd 5d 50 3b bd
       -0.07937776 -0.024575574 -0.06456142 -0.045730937
000070 fd b4 25 bd a9 9e 44 bd f3 14 6c bd df 79 2a bc
       -0.040455807 -0.048002873 -0.057637166 -0.010405033
000080 67 a2 76 bd 88 75 d5 bd 29 5a dc bd f7 a4 8f bd
       -0.060213473 -0.10422808 -0.10759384 -0.070138864
000090 3f 69 b8 bc db 58 9c bc 36 12 27 bd a8 7b 84 bd
       -0.022511123 -0.019085338 -0.04078885 -0.06468898
0000a0 55 18 85 bd 5a 98 4b bd fa 8f ec bc bb cd 18 bd
       -0.064987816 -0.04970584 -0.028877247 -0.037305575
0000b0 fa 04 0f bd c8 0f ad bd a9 81 32 bd e3 ed d0 bc
       -0.034916855 -0.08450276 -0.043580685 -0.025504058
0000c0 e4 a3 61 bd 7f 53 34 bd f1 b2 69 bd ed e5 07 bd
       -0.05508794 -0.04402494 -0.057055417 -0.03317826
0000d0 28 67 69 bd cb dc 0b bd d8 37 d4 bc b5 96 d7 bd
       -0.056983143 -0.03414611 -0.025905535 -0.10526792
0000e0 19 53 4c bc f0 be ef bc 61 d7 34 bd 46 0f 9b bd
       -0.012470984 -0.02926585 -0.044150714 -0.075712726
0000f0 e3 31 8f bd e9 9d 64 bd ac ee 12 bd 5d d4 f2 bc
       -0.06991937 -0.055814657 -0.035872146 -0.029642278
000100 de 64 31 bd 3b 24 c2 bc 05 da 94 bd 78 43 7b bd
       -0.043309085 -0.023698917 -0.072681464 -0.06134364
000110 e3 9c ec bc 4e 6d 48 bd ef 18 fc bd 83 c4 7f bc
       -0.028883403 -0.048932366 -0.12309443 -0.015610817
000120 05 55 4d bd ab 9a 5e bd bd 53 35 bd b5 ab 0e bd
       -0.05012991 -0.05434672 -0.044269312 -0.03483172
000130 c1 2d 3b bd 3f dc b0 bc bd eb ea bc 26 b7 61 bd
       -0.04569793 -0.021589397 -0.028676862 -0.055106305
000140 a9 21 19 bd f8 f9 8e bd 00 e7 8d bd da a3 d4 bc
       -0.037385616 -0.069812715 -0.069288254 -0.025957037
000150 7e ea 09 bb 1c 84 c9 bd a3 0e 97 bd e2 18 70 bd
       -0.002104431 -0.09839651 -0.073758386 -0.05861748
000160 d3 97 78 bc a5 70 96 bd 52 98 9e bd b2 39 e7 bd
       -0.015172916 -0.07345704 -0.077438965 -0.112903014
000170 2b 0a af bd 2e 35 7b bd b6 a9 b6 bc f2 fd 0a bd
       -0.08546861 -0.061330013 -0.022297721 -0.033933587
000180 34 54 84 bd 0a 77 52 bd 53 fc 09 bd e0 fb 82 bd
       -0.06461373 -0.051383056 -0.0336879 -0.063956976
000190 7f 81 a3 bd 8d 24 64 bd 3a d9 b2 bd 32 85 80 bd
       -0.07983684 -0.05569892 -0.08732839 -0.06275405
0001a0 14 29 a6 bd 3e 82 06 bd 0b 7d a7 bd b3 95 92 bd
       -0.08113304 -0.032839052 -0.08178147 -0.07157459
0001b0 e4 0b d1 bd eb d5 d0 bd 8c b1 69 bd cc f7 a0 bd
       -0.10207346 -0.101970516 -0.057054088 -0.078597635
0001c0 80 6f a3 bd a2 b2 b7 bd f9 80 d3 bd ac 3c 0f be
       -0.07980251 -0.089696184 -0.10327334 -0.13987988
0001d0 94 db de bd 7a 65 82 bd b6 ae 8f bd d5 f4 a3 bc
       -0.10881725 -0.06367011 -0.07015745 -0.020014206
0001e0 d2 5a 4c bc 3e bf a9 bc db 7a e1 bc 12 ef 1e bd
       -0.012472825 -0.020721074 -0.027524402 -0.038802214
0001f0 aa 3c 8c bd 0c 49 0d bd 69 02 9b bd 5a 24 3c bd
       -0.06847508 -0.03449349 -0.07568819 -0.045933105
000200 76 c7 d6 bb 5a 8d ce bc d7 16 f7 bd 07 44 ea bc
       -0.0065545393 -0.025213886 -0.12064903 -0.028596891
000210 84 6f 3d bd 8d 68 96 bd d2 d4 01 bd 7a 0b ee bd
       -0.046248928 -0.0734416 -0.031697102 -0.11623283
000220 81 29 6b bd a1 74 10 bd 62 d5 12 bd 49 6e 49 bd
       -0.057412628 -0.035267476 -0.03584803 -0.04917744
000230 4d b5 86 bd bc 51 68 bd fc 25 83 bd d1 3f 94 bd
       -0.06577549 -0.056718573 -0.06403729 -0.072387345
000240 03 a1 46 bd e2 e0 4b bd 37 78 62 bc 7f 38 b4 bd
       -0.048493396 -0.04977501 -0.013822607 -0.08799838
000250 cd 2b a7 bd 18 e9 40 bd 47 22 dd bc 02 33 80 bd
       -0.08162651 -0.047097296 -0.026993884 -0.06259729
000260 79 ed 2b bd d1 74 84 bd c6 da a2 bd dc 6a 0a be
       -0.04197452 -0.064675935 -0.07951884 -0.13517326
000270 83 bd 0e bd 3c 84 6b bc a0 cc ac bc 14 1d 8e bd
       -0.0348487 -0.014374789 -0.021093667 -0.0693914
000280 0b 69 96 3d b2 09 e6 bc 1c 21 d1 bc 85 3a c5 bd
       0.07344254 -0.028080795 -0.025528483 -0.09630302
000290 77 3c 62 bd 73 d9 e0 bd dd 56 8d bd 2c 0e 34 bd
       -0.055233445 -0.10978975 -0.069013335 -0.043958828
0002a0 4d fa 3b bd 42 36 0c bc 8d a2 5b bd 46 ce d8 bc
       -0.045893002 -0.008557858 -0.053621817 -0.026465546
0002b0 24 b9 68 bd 4d ef 8f bd 97 20 2d bd e8 60 30 bd
       -0.05681719 -0.07028065 -0.04226741 -0.043061167
0002c0 a1 66 c1 bd 56 a0 20 bd 63 33 41 bc 34 ab 3e bd
       -0.09443403 -0.03921541 -0.011792037 -0.04654999
0002d0 62 fe 3e bd 69 e8 fb bc a9 8c 85 bd 3b 6d 6d bd
       -0.046629317 -0.03075047 -0.065209694 -0.0579655
0002e0 c4 98 af bc 0b d7 4f bd 09 e9 64 bd 75 c7 06 be
       -0.021435149 -0.05074219 -0.055886302 -0.13162024
0002f0 c5 a2 11 bd 35 e0 26 bd ae 30 80 bd 30 08 3b bd
       -0.03555562 -0.040741164 -0.06259285 -0.045662105
000300 c9 94 84 bd 82 4c af bd 2a 15 57 bd 2f aa 4a bc
       -0.06473691 -0.085595146 -0.052510418 -0.0123696765
000310 02 e2 82 bc 33 b3 87 bd 70 1c 59 bd 7e 0c 8f bd
       -0.01597691 -0.066259764 -0.053005636 -0.069848046
000320 8c 9e 3f bc 02 75 33 bd 6b 93 fe bc 99 dd ae bd
       -0.011695515 -0.04381276 -0.031076154 -0.0853836
000330 d6 dc 90 bd d5 87 ac bd 9c e4 27 bd b9 a4 11 be
       -0.07073371 -0.084243454 -0.040989503 -0.14222993
000340 71 4c f6 bc 46 55 84 bd 57 a9 51 bd ee f4 9b bd
       -0.030065747 -0.06461577 -0.051186886 -0.07615076
000350 f7 6a cb bd 1b b2 51 bc 3f 3d 65 bc d6 3a 3b bd
       -0.09932511 -0.012798811 -0.013991653 -0.045710407
000360 b2 39 89 bc b6 d6 9e bd 96 cc 21 bd 9f 2d 23 bd
       -0.016751144 -0.077557966 -0.03950175 -0.03983843
000370 ae b0 4e bd 97 a9 67 bd de 71 1f bd 6e 3c 3a bd
       -0.050461464 -0.056558218 -0.03892695 -0.045467786
000380 a5 de 90 bc b6 04 09 bc 0b 74 07 bd f2 6c 14 bd
       -0.01768429 -0.00836294 -0.03306965 -0.03623671
000390 0f 98 6a bd 2c fd 93 bd 14 24 89 bd 7a 41 2b bd
       -0.05727392 -0.07226023 -0.066963345 -0.04181049
0003a0 52 28 36 bd d4 fd a6 bd 3e c2 75 bd b1 d2 0b bd
       -0.044472046 -0.081538826 -0.059999697 -0.034136478
0003b0 70 17 94 bd 9f 17 08 bd d3 7d 65 bd 2c e5 24 be
       -0.07231033 -0.03322565 -0.0560282 -0.16103047
0003c0 dc 1a a3 bd 51 03 36 bd f2 15 53 bd 25 a5 1d bd
       -0.079641074 -0.044436757 -0.0515346 -0.038487572
0003d0 c3 9a fa bc ac 3c 8a bd ca 34 89 bd 65 92 8b bd
       -0.030591374 -0.067498535 -0.06699522 -0.06815032
0003e0 31 57 3c bd 2e cd 9f bd a3 fe a1 bd e2 e3 66 bd
       -0.04598159 -0.07802807 -0.07909896 -0.05636967
0003f0 72 70 82 bd 0e 33 5e bd 6d 5d ba bd eb b2 8a bd
       -0.063691035 -0.05424791 -0.09099851 -0.06772407

linear2.weight f4 [80, 256]
000000 46 d5 c0 3d b7 89 e5 bb 83 f1 7f 3d 9b be df 3d
       0.09415679 -0.0070049423 0.062486183 0.10925027
000010 45 fd 9b 3c 69 9b 79 3d 54 7c fe 3d ec fe 82 bd
       0.019041667 0.060939226 0.124260575 -0.06396279
000020 1f 87 10 bd 5f c9 ee bb 71 79 ee bc b1 5f ac bd
       -0.03528511 -0.007287189 -0.029110642 -0.08416689
000030 95 61 2d ba fd 5c 44 3d e7 47 ca 3c c9 80 20 bb
       -0.0006613967 0.047940243 0.024692489 -0.0024490824
000040 32 c3 8a 3d 97 50 92 bd ef b0 30 bd 64 15 6a bb
       0.06775512 -0.071442775 -0.043137487 -0.0035718316
000050 0c 8f 16 bd 82 c6 34 3b dd 38 27 bd 70 76 ac 3d
       -0.036757514 0.002758414 -0.040825713 0.08421028
000060 75 73 92 bc a0 ec 79 bd d6 78 c2 3d 1c e3 32 bc
       -0.01787732 -0.06101668 0.09495704 -0.010918405
000070 b3 98 79 3b 4c 1f ee bc 22 89 92 bd ae 5a 45 bc
       0.00380854 -0.029067658 -0.07155062 -0.0120455455
000080 91 cc d5 3c 96 fb 4a 3c 3e 62 06 3c e6 f6 be bd
       0.026098521 0.012389084 0.008202134 -0.09324436
000090 c5 bf 6f bc 0d 17 77 3d a7 52 2a bd 78 fc 99 3b
       -0.014633124 0.060324717 -0.04158273 0.004699286
0000a0 8b 5e 17 bb 62 db 5a 3d 8f 9a ac 3d 94 c9 27 bd
       -0.0023097123 0.053431876 0.08427917 -0.040963724
0000b0 36 d1 74 3c d3 e8 d4 3d 1d 1f b3 3d bb ad b6 bc
       0.014942458 0.1039597 0.08746169 -0.022299638
0000c0 4e ab 09 bd 8c 06 84 bd 7f 5a c5 3d e5 81 d5 3c
       -0.033610635 -0.06446561 0.096364014 0.026062915
0000d0 52 1c 80 3d 2d 0e 4f bd 65 fd 98 bb a2 98 3d bd
       0.06255402 -0.05055063 -0.004668879 -0.04628814
0000e0 3b 87 74 bd f0 f9 a0 ba 94 76 37 bd 00 78 a8 3d
       -0.05969928 -0.0012281518 -0.04479082 0.08226013
0000f0 d2 2c e6 bc b2 22 b2 bb 5f a9 bb bc b3 cb fd 3c
       -0.028097544 -0.005436265 -0.02290791 0.03098092
000100 b7 bb 67 3d 69 a0 03 3c 02 dc cf bc 89 83 1f bd
       0.056575503 0.00803385 -0.025373463 -0.0389438
000110 07 ac 9a bd 64 d2 c2 bc 36 70 71 bd e7 36 56 3d
       -0.07552343 -0.023781963 -0.058944903 0.052298453
000120 51 4b 86 3d 69 1a 13 3c 8a 70 63 bb a0 af 94 bc
       0.06557334 0.008978465 -0.003470453 -0.01815015
000130 61 cf 40 bd 57 02 b8 3c 8c ed d6 bd 36 df 92 3c
       -0.047072772 0.022462053 -0.10494527 0.0179287
000140 b8 8f 7e bc 6e d9 bb 3c a2 d9 36 bc 01 cd e9 3c
       -0.015537195 0.022930827 -0.011160286 0.028540136
000150 dd e7 a6 3d ed ba cf 3d bd e4 83 bc 9f f7 81 3c
       0.08149693 0.10143075 -0.016100282 0.015865145
000160 0d 5e 19 ba 55 3f 3a bd e1 f9 c2 bb e8 aa a4 3d
       -0.00058505015 -0.045470554 -0.005950198 0.0804041
000170 77 8a e8 bc 69 a7 00 bd 04 db 16 bd 06 08 d3 bc
       -0.028386338 -0.031409655 -0.036829963 -0.025760662
000180 36 ba 98 3c d0 92 8c bd 5c 9a 83 bd 9b 95 5a bb
       0.01864348 -0.0686394 -0.06425926 -0.0033353332
000190 80 55 0f 3d f9 a8 50 bc 75 4a 89 3c a1 dc 80 3d
       0.03499365 -0.012735599 0.016759137 0.062920816
0001a0 20 e5 b5 bd f2 6c 2b 3b ab 8a 50 bd 42 47 0c 3e
       -0.08881593 0.0026157466 -0.050913494 0.13699058
0001b0 b4 82 b8 3d bf ec 9e bb b0 7b 8b bd 44 11 a9 bd
       0.09009305 -0.0048499997 -0.06810701 -0.08255246
0001c0 2f 59 e7 bc ad 13 54 3e 16 22 7a 3c 99 9d ed bb
       -0.028240768 0.2071063 0.015266916 -0.007251453
0001d0 0e ff 06 3d 27 41 41 bc 4b 59 2a bc dd 2e 47 bd
       0.032958083 -0.011795319 -0.010397266 -0.048628677
0001e0 e8 23 d7 bc 91 96 ba 3d 1c e1 b7 bc 83 04 0b 3c
       -0.026262239 0.091107495 -0.022446208 0.008484962
0001f0 0c 00 ad bd f5 f9 8b bd e3 77 bb 3d 5f 48 36 bd
       -0.084472746 -0.06834785 0.09153726 -0.044502612
000200 b6 fc d4 bc 8e 1c 7f 3d 80 75 25 3e 5f 84 30 3c
       -0.025999408 0.06228309 0.16158104 0.010773747
000210 fe fa 09 bd 26 85 c2 3d ce b0 35 3d 55 ea 1c 3e
       -0.03368663 0.09498052 0.044358067 0.15323766
000220 ce 7d 57 3c 39 6c c8 3a ba 84 f5 bc bd 21 8f 3c
       0.013152553 0.0015291042 -0.029970516 0.017472142
000230 c7 c6 34 bd cd 57 d8 bb 0b 8e 70 bc 91 35 84 bd
       -0.04413488 -0.0066022635 -0.014682303 -0.064555295
000240 03 54 39 bc 39 71 82 bb 0a 39 9a bc a1 9b 82 bd
       -0.011311534 -0.0039807823 -0.018826026 -0.0637734
000250 56 e1 cb 3d 95 ef 05 bd 8a 5a 56 bb e5 6f 62 bd
       0.09955089 -0.032699186 -0.0032707774 -0.055282492
000260 0a 01 69 3d bf 5a aa bd a2 06 37 bd 88 21 09 3e
       0.056885757 -0.0831809 -0.04468406 0.13391697
000270 91 b4 89 bc 5f c1 a5 bc 60 5a 02 bd 19 3b 23 bc
       -0.016809734 -0.020233808 -0.03182447 -0.00996282
000280 df c4 d8 bc c6 17 91 bd 75 11 86 bb ed 66 87 3d
       -0.026461063 -0.070846125 -0.0040914365 0.066114284
000290 42 1f 0d 3d e3 71 37 bd eb a4 3f bc 7b 47 4f bc
       0.034453638 -0.044786345 -0.011697034 -0.01265132
0002a0 82 d4 60 bd df 5c 07 3b 37 fe 50 bc ee e9 37 3b
       -0.054890163 0.002065472 -0.012755922 0.0028063017
0002b0 91 86 36 bd d4 2c 62 3d 16 86 7e bd 2c 41 43 bd
       -0.044561926 0.055218533 -0.062139593 -0.047669575
0002c0 08 15 31 3e c4 1e 83 3a 9e a8 a6 3c 93 6b 22 bd
       0.17293179 0.0010003676 0.020344075 -0.039653372
0002d0 f1 b8 77 3c 06 14 d3 37 bc 54 9a 3c d6 f3 fe bc
       0.015119777 2.5162484e-05 0.018839233 -0.03112213
0002e0 34 13 80 bd a1 3b 87 bd eb f6 06 bd 99 b2 4f bd
       -0.06253663 -0.0660317 -0.032950323 -0.050707433
0002f0 4b 23 81 3d c4 89 89 bd 75 c8 c2 bc 89 46 61 3b
       0.0630556 -0.0671573 -0.023777226 0.0034374318
000300 0f 2e 13 3d 96 f6 f5 3d ce ab 99 3b 05 38 54 bc
       0.035932597 0.12009923 0.00468967 -0.012952809
000310 60 c9 fb 3c e9 70 8d bc 17 76 dd 3c 6f 3a 17 bd
       0.030735672 -0.017265754 0.027033849 -0.03692096
000320 39 8d 49 bb ab a8 f5 bc ab e6 9f 3c 7c a8 10 3c
       -0.0030754341 -0.029987654 0.01951917 0.008829232
000330 9e 13 0d 3d bb d8 b8 3d 8b 6c 04 3e 95 a0 7a ba
       0.034442537 0.09025713 0.12932031 -0.0009560672
000340 cb 96 a5 bc 3b cf a6 bd ec 42 1e 3c 46 5b f0 bc
       -0.020213505 -0.08144995 0.00965951 -0.029340398
000350 88 d3 0b 3c 8e f8 4e bd 56 00 88 3c 9d 5a 25 3d
       0.00853432 -0.05053001 0.016601723 0.04036962
000360 20 3c 3f 3d 8a e3 2b bc 04 04 ee 3d d9 17 ac 3c
       0.0466882 -0.010491261 0.1162186 0.021007465
000370 30 70 8c bc b1 75 4a bd 25 6a ac bc 40 38 f7 bd
       -0.017143339 -0.049428646 -0.021046707 -0.12071276
000380 ae 21 3e bd 38 3c 68 3d e7 47 4f bd e1 7c 16 3c
       -0.04641884 0.056698054 -0.05060568 0.009185047
000390 31 48 f3 3b 60 a3 1e 3e 5b e2 85 bd 16 ac b9 bd
       0.0074243774 0.1549201 -0.065373145 -0.09066026
0003a0 59 0a 07 bc ad 3e 89 3c 5b 76 82 bd 25 2b 48 bc
       -0.008242213 0.016753519 -0.06370231 -0.012217318
0003b0 d3 a9 a1 3c c6 f3 6a bd 87 45 5f ba f9 96 72 bc
       0.019734299 -0.057361387 -0.0008517135 -0.0148065025
0003c0 7c d0 ca bc 0f 21 72 bb b6 60 bd bd 12 c1 8e bc
       -0.024757616 -0.0036945974 -0.09246962 -0.017426047
0003d0 00 85 dd bc a0 45 e5 bc fc 00 a7 bd b7 cc 9e bd
       -0.027040958 -0.027987301 -0.08154485 -0.0775389
0003e0 f8 c1 d5 3c 44 03 2a 3d 84 ce 4b bd 79 af 4e bd
       0.026093468 0.04150702 -0.049757496 -0.050460313
0003f0 9e ed 69 bd 1b da 75 3d c7 7c aa ba 80 a1 83 bc
       -0.057111375 0.060022455 -0.0013007157 -0.01606822

linear2.bias f4 [80]
000000 e2 91 13 bd 4b 30 85 3d 99 60 d7 3b 71 cf 61 3c
       -0.036027797 0.06503352 0.0065727946 0.013782368
000010 95 7a 9c ba eb 85 11 bc 4b f7 b0 3c 01 38 7f bc
       -0.0011938388 -0.008882026 0.021602293 -0.015577317
000020 c8 84 bb 3c bf 59 da bc b0 ae f2 3d 9a ba 53 bd
       0.022890463 -0.026654122 0.11849725 -0.05169163
000030 d9 3a f9 3c 19 9b e1 3d 43 35 5f 3d bb 5e c2 3d
       0.030423569 0.11015911 0.054494154 0.09490725
000040 8e 6d a9 3d d0 5d 80 bd bd 35 f4 3d b0 65 e9 bc
       0.08272849 -0.06267893 0.11924312 -0.028490871
000050 48 d5 b9 bc e5 66 89 3d 03 09 cb bd 4f 00 2f bc
       -0.022684708 0.06709079 -0.09913828 -0.010681226
000060 85 94 d1 3c 37 a6 38 bd 17 87 89 3d 51 b6 ca bc
       0.025583515 -0.04508039 0.067152195 -0.024745138
000070 e5 cf 5d bc 39 a7 b4 3c 22 72 a0 bc 90 ec db bb
       -0.013538335 0.022052394 -0.019585673 -0.00671155
000080 4f dd 05 3e b2 71 9c bc 21 1f 62 bd c7 a8 01 3e
       0.13072704 -0.019097183 -0.055205468 0.1266204
000090 da 17 e4 bd 1c 03 ba bd 69 7d 13 bd 03 ef 42 3d
       -0.11137362 -0.09082624 -0.036008272 0.04759122
0000a0 72 6e b5 bd ca e3 7e bc d4 3f 75 3d 9c 3a 01 3c
       -0.088589564 -0.015557239 0.059875324 0.007887509
0000b0 f5 66 5a 3d 71 46 83 bd 39 1c 2e 3d 2e d2 e2 bd
       0.053320844 -0.0640992 0.042507384 -0.11075245
0000c0 77 78 a0 bd aa 05 99 3d b2 c8 03 be 2f 24 6e 3d
       -0.07835477 0.074717835 -0.12869528 0.058139976
0000d0 bc 0e 07 3d 1e 22 62 3c 60 e3 cf bd a1 6c b5 bb
       0.032973036 0.0138020795 -0.1015079 -0.005536631
0000e0 02 b1 cf 3b 59 db 78 bd 49 09 8e 3c 2b f8 9e 3d
       0.0063382396 -0.06075606 0.017338412 0.07762178
0000f0 5f b9 23 bc 6c 6f f1 3a 96 e1 98 3d aa b7 6b bd
       -0.009992926 0.0018420047 0.07464902 -0.057548203
000100 ce c7 57 bd 6e e2 52 bd e0 72 cf bc 6f 38 28 bc
       -0.052680783 -0.05148547 -0.025323331 -0.010267361
000110 0a 06 eb 3d 3e cf 92 bc 91 da 99 3d 38 d8 38 bd
       0.11475761 -0.017921086 0.07512391 -0.045128077
000120 1b 32 81 bc 54 a2 48 bd 91 48 96 3d 5d df 5f bd
       -0.015770962 -0.048982933 0.0733806 -0.054656375
000130 c5 ea ee 3d 70 24 2a bc 9e b4 8f 3d 06 8e 8c 3d
       0.116658725 -0.010384664 0.07016872 0.06863026

weight f4 [1, 768]
000000 57 3c cd 3c 7c e3 4c 3c fe 01 55 bc 37 84 36 3b
       0.025053186 0.012505408 -0.013000963 0.0027849802
000010 57 77 20 3c 88 78 e2 3b 2e 75 3d 3c 0d c9 7a bb
       0.009794078 0.006911341 0.011563582 -0.0038266808
000020 3a 5a 95 bc c5 fd aa 3c bf 1f c1 bc a1 49 96 3b
       -0.0182315 0.02087296 -0.023574708 0.004586414
000030 5b 8a 0c bc 26 e8 9d 3c 21 6e 8d 3c 2a 24 75 bc
       -0.008577908 0.019275736 0.017264428 -0.014962235
000040 ee d2 b8 3c 26 4e cf 3c 59 8e 24 3c 29 b9 a3 3b
       0.022561517 0.025305819 0.010043704 0.004996438
000050 0f af bd 3c a6 79 a7 bc 5c 46 6d 3b 70 b6 67 3c
       0.023154764 -0.020443749 0.0036205268 0.014142618
000060 1b 4e 4d bb 5f 41 eb 3b 7c f7 e7 3b 90 f8 9f bc
       -0.0031327072 0.0071794237 0.007079063 -0.019527704
000070 d0 c0 b9 bc a3 ae 40 3c b7 b4 c7 bc 38 a1 66 bd
       -0.022674948 0.011760387 -0.024378164 -0.056306094
000080 9e f3 92 bc 55 cc be 3b 31 f9 9a bc 21 31 a6 bc
       -0.017938431 0.005822698 -0.018917652 -0.020287098
000090 df 00 af bb 16 2e a6 bc cc 81 9d 3c 44 8b d2 bc
       -0.00534068 -0.020285647 0.019226931 -0.025701173
0000a0 e9 f5 85 ba 80 a9 78 3c 45 76 c2 bb df f2 49 bc
       -0.0010220382 0.015177131 -0.005934509 -0.012325971
0000b0 58 82 98 3b 8d 0f cf 3c 24 25 b1 3c ac d1 b0 3b
       0.00465421 0.02527597 0.021624155 0.0053960886
0000c0 17 a6 d9 3c 8e 35 32 bc 27 07 4e 3c c2 72 d7 3b
       0.026568456 -0.010877026 0.012574947 0.0065749595
0000d0 41 95 9d 3c b7 8a b7 bb 9c 3b 4c 3c aa 67 a4 bc
       0.019236209 -0.005601253 0.012465384 -0.020068962
0000e0 49 d3 25 bc eb 9c d1 bc dc 1d 05 bb 7a 67 16 bb
       -0.010121175 -0.02558752 -0.0020311987 -0.002294986
0000f0 b4 3b 23 ba e9 53 9b bc 87 d2 cb bd 42 d0 96 bc
       -0.0006226853 -0.01896091 -0.09952264 -0.018409852
000100 3a 85 0b bd 91 8a ce bc b7 73 b8 bb 8a d1 b7 3c
       -0.0340626 -0.025212558 -0.0056290287 0.022438783
000110 24 2e d6 3c 8a 43 05 3d 95 23 87 3b 63 eb bd 3c
       0.026145048 0.032535113 0.0041241148 0.02318353
000120 2a 75 54 3c 34 a7 b6 bc 91 47 b2 3b 56 4f 26 bc
       0.012967387 -0.022296526 0.0054406603 -0.010150751
000130 f3 93 b3 bc ab b7 59 bb 19 19 d3 bb 14 c6 93 3c
       -0.021921134 -0.0033221047 -0.006442201 0.018038787
000140 4f 15 b1 bc ea 6e b9 3c 40 08 d2 3c 82 bd c4 bb
       -0.021616606 0.022635896 0.0256387 -0.0060040364
000150 f0 98 bb bc b3 26 2c bc 6c 3e ad 3c 81 67 68 3c
       -0.022900075 -0.0105072735 0.02114793 0.0141848335
000160 3c 8f 61 3c 1e b3 79 bb 76 63 92 3c 5e 37 d0 bb
       0.01376706 -0.0038101147 0.017869692 -0.0063542565
000170 7c 06 49 bc 88 15 a9 3b 83 48 3e bc 75 8f 47 3c
       -0.012269612 0.0051600374 -0.011613968 0.012180199
000180 a3 9d 83 3b 86 60 cd bb 6c a9 62 3b 30 56 f8 bc
       0.0040165945 -0.00626761 0.0034585847 -0.030314535
000190 72 b3 e3 bc 92 ad 8c bb 56 ae 88 3c bc 71 32 bc
       -0.027795527 -0.004293152 0.016684692 -0.010891374
0001a0 f3 22 90 3c 9b 84 b8 bb 83 fb 7e 3c 51 e0 a8 bc
       0.01759479 -0.005631042 0.015562895 -0.020614775
0001b0 81 98 cd 3a 16 77 90 bc 74 7e a9 bc ea 1f b7 bc
       0.0015685708 -0.01763491 -0.02069018 -0.022354085
0001c0 7c 8e 64 3c 13 5d 58 bc 73 45 83 bb fd 41 2f 3c
       0.013949987 -0.013205784 -0.0040060817 0.010696885
0001d0 5f 04 d2 bc 4b 65 6e 3c cc 73 6e 3c 08 06 78 3c
       -0.02563685 0.014550517 0.014553975 0.015138157
0001e0 6b e2 80 3b 7b 7a 39 bc 78 00 49 3b f0 21 88 3b
       0.003933241 -0.0113207055 0.0030670445 0.0041544363
0001f0 aa 06 8d bc f7 a6 bf 3b 34 dd 1e bc 89 93 92 3c
       -0.017215092 0.005848761 -0.009696294 0.017892616
000200 43 2e b9 bc 8b bc 93 bc 94 9b 95 3c 08 0c 37 bc
       -0.022605067 -0.01803424 0.018262662 -0.011172302
000210 f3 3c df 3c ec 41 cc bb ae d7 8b bb 6a 8b 91 3b
       0.027250743 -0.0062334444 -0.0042676544 0.0044416683
000220 0f fb bf bc 0c fe 0a bc 31 67 cc 3c 93 2d 56 bc
       -0.023435144 -0.008483421 0.02495155 -0.013072389
000230 55 f2 3c bc 67 47 59 3c 12 f6 f9 3c 1d f8 ea 3a
       -0.011532386 0.013261653 0.030512843 0.0017926727
000240 01 31 1f 3a cf 0a 8f 3b 9e ca 00 3b a5 2d 66 3b
       0.0006072671 0.004365302 0.001965202 0.003512242
000250 60 2a 33 3c 7b a9 a5 bc 6a 25 59 bc b3 d6 92 3c
       0.010935396 -0.020222416 -0.013253549 0.017924642
000260 b5 f6 8e bc 07 2e b3 3c 3c 3f 86 ba a9 74 50 bc
       -0.017451623 0.021872533 -0.0010242234 -0.012723126
000270 28 14 4c bb 6a 6a 47 3b 15 a2 f2 3c 7c 64 83 3c
       -0.0031139944 0.0030428418 0.029618302 0.016039126
000280 79 5e 83 bc b7 64 c8 3b 79 56 35 bc e3 38 7f bc
       -0.016036259 0.006115522 -0.01106798 -0.015577528
000290 81 26 a6 bc 40 26 53 3b 49 e9 e8 3c ad f9 eb bb
       -0.020282032 0.0032218844 0.028431552 -0.0072013945
0002a0 6a 5c 49 3c 56 4a 0c 3c 8b 62 af ba ba ae 82 3c
       0.0122901 0.008562645 -0.0013380809 0.015952457
0002b0 d6 b0 56 bc 8b 83 4c 3b eb 46 00 bb 43 c7 e9 3b
       -0.013103684 0.0031206335 -0.001957352 0.0071343496
0002c0 f3 05 80 3c 6e 51 eb 3b de 97 93 b9 58 22 34 3c
       0.015627837 0.007181338 -0.00028151175 0.010994516
0002d0 35 37 9c bc 07 2a cd 3b 2d 50 4a 3b 85 92 48 bc
       -0.019069294 0.0062611136 0.0030870542 -0.012241964
0002e0 0b 90 78 bc b9 5e c0 3c ea e2 a1 3c 25 d2 16 bc
       -0.015171061 0.023482667 0.019761521 -0.009205376
0002f0 5e 78 ea 3c 12 56 6e 3c f6 9a 15 bd 2e 3a 86 3c
       0.028621849 0.014546888 -0.036524735 0.016385164
000300 34 11 cf bc 35 e2 84 3c 21 52 8a bb 93 5f 07 bc
       -0.025276758 0.016221145 -0.0042212163 -0.008262533
000310 1a 67 fa ba 6d 38 01 bc 2c 6b 8b 3b 48 34 4a 3c
       -0.0019104213 -0.007886988 0.0042547192 0.012341566
000320 6c 57 74 3c 65 8a 90 3c 2e 08 eb bb 77 94 d2 3c
       0.014913421 0.017644117 -0.007172606 0.02570556
000330 62 65 8d 3c dd e1 3b bb 7a 49 6d bb 9b 1e a1 bc
       0.017260257 -0.002866856 -0.0036207126 -0.019667914
000340 b8 12 49 3c f7 f7 e3 3b b6 93 ac bc 7e ad 4a 3c
       0.012272529 0.00695705 -0.021066528 0.012370465
000350 f5 99 68 3c 96 3d 5c 3c 28 54 7c bc de 8d e3 bb
       0.0141968625 0.013442418 -0.015400924 -0.006944402
000360 36 67 5f bb c2 6b a7 3c 79 0f 76 3c 5a b7 69 3c
       -0.0034088618 0.020437125 0.015018337 0.014264906
000370 74 34 ab 3c 7e 11 b9 3c d5 81 6b bb 2e aa df 3c
       0.020899035 0.022591349 -0.003593554 0.027302828
000380 24 0b 7a 3c 1f cc be ba 4a 7d 3d bc 1f ca 04 3b
       0.015261445 -0.0014556682 -0.011565516 0.0020262075
000390 e6 c7 42 3c 83 32 e0 bb f8 a8 68 ba da 31 b7 3a
       0.01188848 -0.006841959 -0.0008875276 0.0013976649
0003a0 8c 3f f3 bc 33 ad 60 bc f8 4d a5 3b 16 60 54 bc
       -0.029693387 -0.013713169 0.005044695 -0.012962362
0003b0 f5 99 b0 bb 06 d4 c7 3c 68 fa ba 3c 45 88 87 bc
       -0.005389447 0.024393093 0.022824481 -0.01654447
0003c0 77 fb fe bb a0 e9 98 3c de 9b 60 3c 24 dd 08 bb
       -0.007781442 0.018666089 0.013709037 -0.0020883763
0003d0 2a 65 0e bc 43 d6 01 3d 8d 89 90 bc c8 20 d3 3b
       -0.008691112 0.031698477 -0.017643714 0.006443117
0003e0 86 e8 6d bc 8f ac 4e 3c 5d 0f 38 3c 94 2c be 3b
       -0.01452077 0.012614383 0.011234132 0.005803654
0003f0 11 0f f8 bc 1f a2 86 3c 66 71 ca 3c 1a 1d 8c bc
       -0.030280622 0.016434727 0.024712276 -0.01710372
