SPMLUA_outputs/伪标签＋全监督/Train_with_full_labels_L2loss/checkpoint_best.pth (torch, 691407 bytes, 7 tensors)

weight f4 [80, 240]
000000 03 1a 23 3f ee 9e de bc a0 25 d0 3b b5 a0 22 bd
       0.63711566 -0.027175393 0.0063521415 -0.039704043
000010 fe fa 22 3c e3 6e 14 bd 5f ac 31 bd b1 f9 2c bc
       0.0099475365 -0.036238562 -0.043377277 -0.010557578
000020 dd 40 ed bc 91 c6 0f 3c dc 53 0a bc 30 34 44 ba
       -0.028961593 0.008775369 -0.008442845 -0.0007484583
000030 bf d9 e3 3b ae 3a 9b ba ee 94 20 3c f5 00 d5 bc
       0.0069534476 -0.001184305 0.009801133 -0.026001433
000040 c5 95 ac 3c 57 f3 bf bc c1 5f 91 bc d1 b3 9d bc
       0.02106751 -0.023431463 -0.017745854 -0.019250782
000050 e7 49 c4 bb 59 dc 02 3c 95 ae 5c 3b 29 2f ca 3b
       -0.005990255 0.007987105 0.0033673395 0.0061701727
000060 c8 ed 11 bd 0e d3 65 bc a1 3e 47 bd ea ad 7b bd
       -0.035627156 -0.01402737 -0.048643712 -0.061445154
000070 ef 2b a9 3c 14 d1 03 ba 46 50 68 3d b5 e4 d9 bb
       0.020650832 -0.00050284085 0.05671718 -0.0066495785
000080 ef b6 04 bd b7 59 0a bd 2e 2c 86 bd 16 da ba 3a
       -0.03240102 -0.033776965 -0.06551395 0.0014255669
000090 74 77 f8 bb 38 06 07 bd f0 39 90 bd a0 a0 60 3c
       -0.0075825993 -0.032964915 -0.07042301 0.013710171
0000a0 b8 1d 06 bd 10 46 cd bc ec 31 64 3c 7b 05 cf bc
       -0.032743186 -0.025057822 0.013927918 -0.025271168
0000b0 d4 a2 5c 3c 8e 95 08 3b ce e1 5b 3c 10 ea da 3b
       0.013466556 0.0020841095 0.013420535 0.0066807345
0000c0 e6 0a 1f bc 2e af ee bc af 00 1b 3c 54 b5 eb 37
       -0.009707188 -0.029136267 0.009460612 2.809862e-05
0000d0 d0 27 e3 bc 17 c3 32 bc c5 bb 58 3b 15 00 1f 3d
       -0.027728945 -0.010910771 0.0033070904 0.038818438
0000e0 93 02 6b 3b 3f 62 6f bc 7a 99 02 3d 65 99 1d ba
       0.0035859689 -0.014610826 0.031884648 -0.0006011932
0000f0 6a fd f6 39 3a ce 0c bb 64 ee 77 3b 6c cc 6a 3b
       0.00047109585 -0.0021485225 0.00378313 0.0035827411
000100 c2 65 52 3d 5f 7f 02 3c c1 3a 6a 3c 84 0a 81 3c
       0.051366575 0.007964938 0.014296235 0.015752085
000110 bc ba 2a 3c 40 e3 0e 39 40 c9 a4 3b b4 31 f9 3c
       0.0104204975 0.00013626833 0.0050288737 0.030419208
000120 6c e2 80 3c 2b d8 cf 3b 66 15 26 3d 37 13 4d 3c
       0.015732966 0.006342908 0.04054775 0.012516788
000130 08 d0 1d 3d 71 37 42 bc 18 a3 5e bd e5 58 68 3b
       0.038528472 -0.011854039 -0.054354757 0.0035453376
000140 89 18 aa 3c d4 5c b3 bd 29 55 56 bd 03 bf 26 3d
       0.020763652 -0.0875794 -0.05232731 0.040709507
000150 9e 5b 9b 3a c5 2c 6a bd dc b3 c5 3c 89 c4 d3 3e
       0.0011852866 -0.0571716 0.024133615 0.41360882
000160 33 07 25 bf c9 a2 39 bd 6b b1 f2 3b 02 c2 84 bc
       -0.6446411 -0.04532126 0.007406404 -0.016205791
000170 4d 41 f3 bd 9c 91 e2 bb d8 84 16 bf 99 1a 5d bd
       -0.118776895 -0.0069143306 -0.58796453 -0.053980444
000180 c3 39 5e 3c c3 2c fe ba b3 f7 66 3b 9f f4 e8 3c
       0.013563576 -0.0019392002 0.0035242855 0.028436957
000190 02 20 ae 3b 6e de 83 bc 6a 0a 1b be 1c dc 48 bc
       0.005313874 -0.016097274 -0.15140691 -0.012259509
0001a0 52 34 9b 3d a7 42 96 bd e4 93 59 3d 25 d0 90 3c
       0.07578339 -0.07336932 0.053119555 0.017677376
0001b0 f3 91 26 3e c1 2b 64 3d 71 67 2f be 18 31 3a bc
       0.16266613 0.05570579 -0.17129304 -0.011364244
0001c0 3b 06 34 3c fd ea 41 be eb ed ef 3e db 5e b2 bd
       0.010987814 -0.18937297 0.46861205 -0.087094985
0001d0 0b 88 26 bd 74 37 4c bd 9d 85 5e 3c f2 9d fb bb
       -0.040657084 -0.04985757 0.013581661 -0.0076787407
0001e0 01 2a c7 bc e4 d7 09 bc c2 29 19 bb 1d 89 10 3f
       -0.024312021 -0.008413289 -0.0023370837 0.5645922
0001f0 70 58 99 3b 90 43 67 bc 8a 96 cb 3d 41 ce eb 3a
       0.004679732 -0.014115229 0.099408224 0.0017990546
000200 2f 0f 5b bb f5 3c fa ba d1 ad a3 3d af 32 20 3e
       -0.0033425798 -0.0019091653 0.07992137 0.15644334
000210 4d 63 cc 3c e0 ed ba bc 91 cf 8b 3a 8d b2 83 3e
       0.024949694 -0.022818506 0.0010666718 0.2572216
000220 e6 16 33 bc 29 c6 30 bc f8 cc a0 3c 2b b3 13 3d
       -0.010930752 -0.010789433 0.019628987 0.03605954
000230 fe bf 7b 3d c4 9b 49 3e 87 48 95 3d 56 54 7c 3b
       0.061462395 0.19688326 0.07289224 0.0038502417
000240 58 ee 8d 3c 79 ff b3 bc cb 29 76 3c 47 4b ea 3b
       0.017325565 -0.021972405 0.015024613 0.007150087
000250 64 ba cc 3c 4d b0 02 bf 6b a5 ed bd e1 e6 15 bf
       0.024991222 -0.51050264 -0.116038166 -0.5855542
000260 94 9f 1a 3b ac 09 83 3c 58 ca d1 3b 3c f1 2b bd
       0.002359365 0.015995823 0.006402295 -0.041978106
000270 68 d4 c6 bc e8 33 f3 be bb 4e 7e 3c cb 6b 8c 3c
       -0.024271205 -0.4750054 0.0155217005 0.017141243
000280 dd 63 37 bc 0e e5 8e 3c 21 4b ce bc 0e a0 26 3c
       -0.011193243 0.017443206 -0.025182309 0.010169996
000290 14 5e 06 bc 8a d2 3a 3c 71 3e c5 3b 7a 33 b7 3a
       -0.008201141 0.0114027355 0.0060194065 0.0013977133
0002a0 5f 95 99 b9 05 94 61 3c 13 dc e6 b9 23 b2 29 3c
       -0.00029293724 0.013768201 -0.00044032987 0.0103574125
0002b0 c4 c7 df 3b c9 0e 97 3c 8a 1b eb bb 08 cb f8 bb
       0.006829234 0.018439667 -0.007174914 -0.0075925626
0002c0 c6 28 9f 3c c7 91 ef 3a 94 46 97 bb 93 f0 1c bc
       0.019428622 0.0018277698 -0.004616568 -0.009578842
0002d0 1c 8c ba bc 9e 5e d6 bc 7c c7 93 bb 27 c1 59 bc
       -0.022771887 -0.026168164 -0.0045098644 -0.01329068
0002e0 91 2d 8d 3c 89 cd 27 bc ba 25 fb bc d0 84 f8 bc
       0.017233642 -0.0102418745 -0.030657638 -0.030336767
0002f0 f7 9c af bb ec 1b 12 ba 0c 06 5f bc 0f cd 43 3c
       -0.005359288 -0.00055736187 -0.0136122815 0.011950745
000300 44 b1 8d bc 1a d8 51 3c d4 bd c1 3c 4f 5b 43 3c
       -0.01729644 0.01280787 0.023650087 0.011923625
000310 d6 b4 a2 3c 5a d4 8b ba b2 81 20 bd 5c fc f7 bb
       0.01986162 -0.0010668144 -0.039186187 -0.0075679254
000320 42 76 29 bc 38 b2 f9 3c 24 8e ab 3c 95 0e 0d 3c
       -0.010343136 0.03048049 0.020941801 0.008609434
000330 9d 35 e0 bc ad a3 1a bd 64 66 a1 3c 1f 3c 04 3c
       -0.027369315 -0.03775375 0.019702144 0.008070975
000340 2a 40 d8 bb c9 59 c6 3c 80 1d 8b 3c ae f0 95 bb
       -0.006599446 0.024212735 0.01698184 -0.0045758104
000350 fc 45 67 3c da 3d 27 bb eb ba d8 3b d3 fc 8d 3b
       0.014115807 -0.0025519044 0.0066140792 0.0043331175
000360 10 01 c7 bc f8 29 2c 3c 3d ca 69 3c 25 32 47 bc
       -0.024292499 0.010508053 0.014269409 -0.0121579515
000370 56 a7 ba bc e2 cb a5 bc f9 b1 dc 3c b6 b6 e0 bc
       -0.02278487 -0.02023882 0.026940333 -0.027430873
000380 8e ce 32 3c 06 9c 96 bb 6d f3 fb bc 36 1e 90 bc
       0.010913504 -0.004596236 -0.030755723 -0.01759253
000390 7f fd 03 bd a5 39 52 bc b8 bc 1d bc 09 7f 03 3d
       -0.032224175 -0.012831126 -0.009627514 0.032103572
0003a0 a6 13 a5 bc d9 5f a0 3c cf 5e 42 3c e0 6d e7 bc
       -0.02015097 0.019576954 0.011863424 -0.028250635
0003b0 37 a5 26 bc 3e 62 34 bc b1 5f a3 bc 1f 9c d0 ba
       -0.010171226 -0.011009751 -0.01994309 -0.0015915668
0003c0 00 25 4f bc b6 6b 18 3f 3c ab 9d 3c 50 17 60 be
       -0.012643099 0.59539354 0.01924669 -0.21883893
0003d0 35 c6 ae 3b 77 d4 0e bd 9c a4 83 bc a7 09 91 3b
       0.0053336867 -0.03487059 -0.016069703 0.0044261995
0003e0 cb 42 1d 3b 45 f1 64 bd ee 0e ef bb 6c 27 89 bc
       0.002399611 -0.055894155 -0.007295481 -0.01674243
0003f0 9f b3 be bc b7 26 72 bc c0 79 86 3b 6c e2 3e bb
       -0.02327901 -0.014779738 0.004103869 -0.0029126657

bias f4 [80]
000000 aa 9e 10 3d 5a af 39 bc 76 4f 80 bd d9 db a0 3c
       0.035307564 -0.011333311 -0.06265156 0.019636082
000010 df 68 97 3c 7a 60 a8 bd 71 62 bd bd 8f 79 06 3c
       0.018482624 -0.082215264 -0.09247292 0.008207693
000020 11 51 d0 3d 3b 54 a9 3c 1e 88 2f 3c 97 f1 5c 3d
       0.10171712 0.020670047 0.010713605 0.053941336
000030 e8 0d 1c 3d 97 c2 48 bd 19 97 35 bc 93 21 db 3b
       0.0380992 -0.0490137 -0.011083388 0.006687352
000040 83 33 19 bd 4d fa a4 3d 21 58 2e 3d 40 70 bd 3c
       -0.03740264 0.080555536 0.042564515 0.023124814
000050 a3 b8 35 3d 0e 15 25 3c 7e e9 2c 3e b7 fe 85 3d
       0.044365536 0.010075821 0.16885945 0.065427236
000060 ae 09 b8 bc 75 70 e9 bc e6 8d 4a 3b a1 40 b4 bc
       -0.022465553 -0.028496007 0.0030907332 -0.022003474
000070 e2 2b fc ba 25 6f 2e bb 46 09 a3 3c ab ca 53 3d
       -0.0019239152 -0.002661654 0.019901883 0.05170695
000080 ba 57 6c bc 66 72 83 3d 35 60 e3 bb aa de 90 bb
       -0.0144252125 0.06418304 -0.006938959 -0.004421075
000090 cd 32 e6 37 d7 84 72 3d 5a 3b 62 3d 11 d5 09 be
       2.7441793e-05 0.059208717 0.055232383 -0.13460185
0000a0 20 ce 84 3d 3e ea 0c be 80 fa 1a 3d 62 ff 48 bc
       0.06484628 -0.13761231 0.03783655 -0.012267919
0000b0 cd 11 20 3d eb 4e 95 bd 6f 11 b6 3c 92 48 ae bd
       0.039079476 -0.07290443 0.02222511 -0.085099354
0000c0 81 65 3a 3d da 8e 27 3d 2e 2a 62 3d 93 58 dd 3c
       0.045506958 0.04090772 0.055216007 0.027019775
0000d0 18 84 47 bd 26 8d a6 bc 80 0e bc 3c 34 4a 93 bc
       -0.04870996 -0.020330977 0.022956133 -0.017979719
0000e0 ae 3e e0 bd bb 56 e1 bb 24 57 b7 bb bf 4c cf bc
       -0.10949455 -0.006876794 -0.005595105 -0.02530515
0000f0 78 76 32 3c f9 80 3a 3d 02 a2 9a bc 36 11 b0 bc
       0.010892503 0.045533154 -0.01887608 -0.021492582
000100 c6 dd 72 bb d0 a5 1e bc aa 21 91 3d 06 29 06 be
       -0.0037058457 -0.0096830875 0.07086499 -0.13101587
000110 b9 a1 f5 bc c8 3a 1f 3d c4 a4 0b 3b 45 b6 dc 3c
       -0.029984342 0.038874418 0.0021307925 0.026942382
000120 41 38 12 3d 96 bb 83 ba c9 f2 a1 3c f0 da 42 3d
       0.03569818 -0.0010050412 0.01976909 0.047572076
000130 e8 bb 29 be c4 ed 0b 3d db 2a 9e 3b 41 61 4f bd
       -0.16575587 0.034162298 0.004826886 -0.050629858

linear1.weight f4 [256, 512]
000000 e3 7a 27 bd f7 f7 55 3d c0 4a 6f 3c 42 c3 ad 3c
       -0.04088868 0.05223843 0.014605224 0.02121127
000010 2e 76 1c 3d e6 b1 21 3d d2 af 54 bd 37 2c b1 bc
       0.038198642 0.039476298 -0.051925488 -0.021627529
000020 88 c5 42 bd 71 5a bf ba c6 cf 3a bd 93 47 07 bd
       -0.04755166 -0.0014599097 -0.045608304 -0.033027243
000030 a1 55 f7 bb 69 91 59 3d 44 46 51 3d 5a 9d ca bc
       -0.0075480496 0.05311719 0.0510924 -0.024733234
000040 f8 b9 f2 3c e8 8d d3 3c 60 01 b2 3c c5 85 01 bd
       0.029629692 0.025824502 0.021729171 -0.031621713
000050 7d ad 5e bc 9d 1d 73 3d bc 51 de 3c 51 ce 8f 3c
       -0.0135911675 0.059354413 0.027138583 0.017554434
000060 ef 73 92 bc 60 3c 90 bd fe 27 60 bd 23 a2 a2 bc
       -0.017877547 -0.070427656 -0.05472564 -0.019852703
000070 50 79 03 bd 69 8f 8b 3d d0 25 58 bc fe 81 10 bc
       -0.032098114 0.06814463 -0.013192609 -0.008820055
000080 2f e7 e2 bc df f6 1b 3d 8c c8 99 3c d0 e2 8d 3b
       -0.027698128 0.03807723 0.018772386 0.0043300167
000090 84 c7 4d bd 3d 4d ef 3c be 72 7a bd 89 23 35 bd
       -0.0502391 0.029211635 -0.061144583 -0.044223342
0000a0 5d 45 43 bd 3d 6e 07 3d df ff f8 3c 18 1e 4d 3d
       -0.04767357 0.033064116 0.030395446 0.050077528
0000b0 37 98 13 bd 35 be 96 3c 7f af 4b bd 07 62 e2 bb
       -0.036033835 0.018401245 -0.049727913 -0.0069086584
0000c0 e1 5f f2 bc e7 a8 68 3c d2 20 4c 3d f4 b5 58 bd
       -0.029586734 0.014200426 0.049835987 -0.0529079
0000d0 5e 55 45 bd d2 b7 98 3c e9 36 3f 3d 69 0f 82 3d
       -0.048177116 0.01864234 0.046683226 0.063505955
0000e0 28 c2 7c bc 92 f0 0b bc 79 47 3a 3d cb dc c6 bc
       -0.01542715 -0.008541243 0.045478318 -0.024275204
0000f0 f7 2b 62 bd 0c 4f 1f bc 95 66 13 bd a5 8b 53 3d
       -0.05521771 -0.009723436 -0.0359865 0.051646847
000100 ba af 80 bc 81 76 22 bc 52 c1 fb bc b1 3f 5b 3d
       -0.015708793 -0.009915949 -0.03073183 0.053527538
000110 a1 9d 43 bd 19 37 4e bd 51 1b a8 bc 6a a5 1e bd
       -0.04775775 -0.050345514 -0.020520838 -0.03873197
000120 02 50 31 bd 2b fa 83 3c 1f bf 50 bc 2b fa f3 bc
       -0.043289192 0.0161105 -0.012740879 -0.029782375
000130 23 ea 00 bd b0 0f 05 bc d0 20 8a bc f2 a1 a0 3c
       -0.03147329 -0.008121416 -0.01686135 0.019608472
000140 54 8a 86 bd b5 04 15 bd c8 cf 5a 3d de 63 ec 3a
       -0.06569353 -0.036381442 0.053420812 0.0018035134
000150 d5 e2 5d 3c 78 7a 59 bd fb bf 35 3c 0d 85 97 3c
       0.0135428505 -0.05309531 0.011093135 0.01849606
000160 02 82 a6 bc c7 1a 5c 3d d3 22 81 bc d3 41 95 3c
       -0.020325664 0.053736474 -0.015763676 0.018219864
000170 b7 7c 11 bd 68 29 cf bc b2 af 85 3d 7f 37 07 bd
       -0.035519328 -0.025288299 0.06527652 -0.03301191
000180 6f 12 0c bd f7 31 66 3d a4 28 2c bd 8e 9d 6c 3b
       -0.034197267 0.056199994 -0.042030945 0.0036104652
000190 e4 1a 91 39 f4 af aa bb d3 cd 36 bd 4e 7b 3b 3d
       0.0002767659 -0.0052089635 -0.044629883 0.04577189
0001a0 15 1e b8 3c 67 6f ad 3c 12 ed 0f bb d9 19 06 bd
       0.022475282 0.021171285 -0.0021961373 -0.032739494
0001b0 df b2 00 3d 25 d0 af 3d 7e 38 62 3d 15 99 2b 3d
       0.031420585 0.08584622 0.055229656 0.041894037
0001c0 84 af 5e 3d db 22 a1 3d 7d e2 5e bd c4 a7 9b 3c
       0.054366603 0.07867976 -0.054415215 0.019000895
0001d0 60 d2 46 3d 5d 1d 33 3d 00 99 f7 bc 92 e6 f0 bc
       0.048540473 0.043729175 -0.030224323 -0.02940682
0001e0 00 a1 c2 3c 79 92 61 3d 4e dd 04 3d 9e 87 cc bc
       0.023758411 0.055071328 0.032437615 -0.024967011
0001f0 6f 0f 25 3d 58 c9 83 3a 14 7b c2 bc b3 68 7d 3d
       0.04029792 0.0010054512 -0.023740329 0.061867427
000200 dd 9b ba bc b1 19 0b 3d 30 07 f0 3c 13 fb d3 bc
       -0.0227794 0.033960048 0.029300302 -0.025876557
000210 7b b6 e4 3c 76 8b f5 3c fa 6b ac bc 8e 79 04 bd
       0.027919045 0.029973727 -0.021047581 -0.032342486
000220 43 9a 8d 3d b1 79 22 bc 20 f0 c7 3c 12 45 8a bc
       0.06914189 -0.009916709 0.024406493 -0.016878638
000230 10 a4 23 bd cc ed 00 3d 22 a0 51 bc 02 74 f4 3c
       -0.039951384 0.03147678 -0.012794526 0.029840473
000240 ae b4 ce bc 11 c4 c3 bc a2 32 6f bc 89 14 32 bd
       -0.02523264 -0.023897203 -0.014599474 -0.043476615
000250 d0 31 b4 3c 71 72 28 bd db b5 27 3c 34 41 15 3d
       0.021996409 -0.041124765 0.010236229 0.036439136
000260 e6 14 5f bd ec 9c 43 3b 8c f2 f8 bc 4b ca 42 bc
       -0.05446329 0.0029848171 -0.030389093 -0.011889051
000270 ba b9 f9 bc fa 13 b0 bc 7a 71 81 bd 41 e5 ce 3b
       -0.03048407 -0.0214939 -0.06320472 0.0063139503
000280 a2 2e b9 3c be 40 11 bc 16 59 8d 3c 9d 35 79 3d
       0.022605244 -0.008865533 0.017254394 0.060842145
000290 6b fd f8 ba 71 73 de bb b3 bf 2d bd ef 4a 90 3c
       -0.0018996423 -0.006788664 -0.042419147 0.017613856
0002a0 13 0f 07 3d e9 e2 28 3d 3e 74 8f 3c 73 b9 1c 3d
       0.03297336 0.041232023 0.017511483 0.038262796
0002b0 1a 38 66 3d b2 df e0 bc d7 ae 4a bd c9 40 31 bd
       0.056205846 -0.027450416 -0.049483147 -0.043274675
0002c0 c1 56 7e 3c 08 97 c1 3c ee e7 08 3d 60 52 2f bd
       0.015523613 0.023631588 0.03342431 -0.04280317
0002d0 b9 37 b0 bc 58 6e 34 3d 26 a7 47 bd fd 68 e8 bc
       -0.021510946 0.044050545 -0.04874339 -0.028370375
0002e0 8c 43 80 bc e9 ca 7e bc d7 fc 0a 3d 80 1c 4d 3d
       -0.015657209 -0.015551307 0.033932533 0.050076008
0002f0 c3 45 dc bc 1f 97 6c bd 71 53 02 3d 3d 09 e2 3b
       -0.026888734 -0.057761308 0.031817857 0.006898074
000300 b7 e7 3d 3d f0 df eb 3c 5f eb 73 3c 18 06 80 bd
       0.04636356 0.028793305 0.01488766 -0.06251162
000310 e3 63 ba 3c 62 3a 34 bd de 87 98 bc e2 97 95 3c
       0.022752708 -0.04400099 -0.018619474 0.0182609
000320 9b 3f 24 bd da 35 5f bd 90 d5 e8 bc cd d5 a6 bd
       -0.04009972 -0.054494716 -0.028422147 -0.08146248
000330 58 d2 81 bd b6 01 63 bd 41 31 77 3c 01 ee 5d 3d
       -0.06338948 -0.055421554 0.015087427 0.054182056
000340 ba 94 fb bc 05 7b 30 bd d2 f5 d9 3b 1b b0 ac bc
       -0.030710567 -0.04308607 0.0066516185 -0.021080067
000350 17 53 5a 3d 5b 2e 17 bd 7d 80 cb 3b 7d 8b 2b bc
       0.053301897 -0.036909442 0.0062103854 -0.010470268
000360 af 11 4d 3d 7c 88 e6 bc 4b c4 48 3d 9b b3 3e 3d
       0.050065693 -0.028141253 0.049015325 0.046558004
000370 6a dd 3b 3d 01 36 5d 3b 39 97 81 bc 97 56 4b bd
       0.045865454 0.0033754113 -0.015819179 -0.049643125
000380 f0 85 32 3d 09 02 0a 3d 73 f9 21 bd 63 2b 37 bc
       0.043584764 0.033693347 -0.039544534 -0.011179778
000390 a0 6e 01 bd da 66 45 bd cd 31 de bc ff 2d 31 3d
       -0.03159964 -0.04819379 -0.027123356 0.043256756
0003a0 1d 4d 99 bc b6 03 70 bb 7c 9c df 3c 0f ca 02 3d
       -0.018713528 -0.0036623306 0.027296297 0.03193098
0003b0 94 a8 1a bd 07 a9 01 bc 6a 0f 6b 3c 6d c6 db bc
       -0.037758425 -0.007913834 0.014346937 -0.026828015
0003c0 4a 2a 0f bc 25 c2 25 3c d7 98 2c bd 48 5f e4 3c
       -0.00873811 0.010117088 -0.042137947 0.027877465
0003d0 33 f8 87 3c ae 87 97 3c d2 43 3b 3c b2 60 44 bd
       0.016597843 0.018497314 0.011429744 -0.04794378
0003e0 71 14 a7 bc fd a5 62 bc 55 7f 39 bd 1b 1a 26 3d
       -0.02039549 -0.01383352 -0.04528745 0.04055224
0003f0 2a be d7 bc a2 11 3b bd 15 b2 69 3d ac bf 96 bc
       -0.026335794 -0.045671113 0.057054598 -0.018401943

linear1.bias f4 [256]
000000 92 b9 5c bd 64 0a f5 bc 02 f4 af bc 42 c0 2a bd
       -0.05388791 -0.029912181 -0.021478657 -0.041687258
000010 de 46 78 bd c5 0e 4c bc 29 8c 98 bc 69 43 8b bd
       -0.06061446 -0.012454693 -0.018621521 -0.06799967
000020 dd ca af bc 5a c7 1f bd 9e 25 cd bd 4f a7 6f bd
       -0.021459037 -0.039008476 -0.100169405 -0.058509167
000030 94 5b 79 bd 3c 7d 6e bd 4a a2 89 bd 10 18 69 bd
       -0.06087835 -0.0582249 -0.06720407 -0.056907713
000040 35 84 91 bc 95 0b 6f bc 65 62 c5 bd e0 c5 b1 bd
       -0.017763237 -0.014590164 -0.09637908 -0.0868032
000050 d0 8a 16 bd a1 56 52 bc 8f ae 3d bd 88 64 3a bc
       -0.036753476 -0.012838037 -0.04630905 -0.011376508
000060 47 6c ac bd c8 61 25 bd 8b 5c 8a bc 2c 8e 23 bd
       -0.0841909 -0.040376455 -0.016889831 -0.039930508
000070 b9 d1 8f bd c2 ab 21 bd f5 4a 21 bc df 26 94 bd
       -0.07022423 -0.03947044 -0.009844531 -0.072339766
000080 07 af 5d bd 90 36 b5 bd 05 78 f4 bc 05 63 d3 bc
       -0.054121997 -0.088482976 -0.029842386 -0.025804052
000090 72 76 b1 bc a4 dc 47 bd c0 9c c2 bc 90 42 54 bd
       -0.021662924 -0.048794404 -0.023756385 -0.05182129
0000a0 43 4f 10 bc f6 0e ef bc 0e 7e 5a bd 8b b3 47 bd
       -0.00880796 -0.029181939 -0.05334287 -0.04875521
0000b0 7c 61 0c bd ad ab 56 bd 29 1a 7e bd 70 3e de bc
       -0.034272656 -0.052409817 -0.062036667 -0.027129382
0000c0 23 95 c9 bc dd 11 13 bd 46 0b 18 bd 64 d2 63 bd
       -0.024607247 -0.035905708 -0.037120126 -0.055620566
0000d0 51 90 1d bc 07 02 97 bc 95 96 df bc e4 7f 7c bd
       -0.009616927 -0.018433584 -0.027293483 -0.061645404
0000e0 63 61 a5 bc 62 74 12 bd a1 3f 49 bd 37 ad 75 bd
       -0.02018804 -0.035755523 -0.049132947 -0.059979644
0000f0 c1 50 f3 bc 74 ff 29 bd 24 3a c2 bc 15 19 da bd
       -0.029701592 -0.041503385 -0.023709364 -0.10649315
000100 ff e6 7a bd 2e f8 29 bd d1 99 2d bd e3 c9 19 bd
       -0.06125545 -0.04149645 -0.04238302 -0.03754605
000110 09 f1 cf bc 1d a7 2f bc d0 bc 8a bc 0f 0b 8a 3d
       -0.02538349 -0.010720995 -0.016935736 0.067403905
000120 1f 85 15 bd c4 74 bf bb 78 33 23 bd 71 7e 61 bd
       -0.036503907 -0.005842777 -0.039844006 -0.055052225
000130 43 90 07 bd e9 11 b8 bc 59 40 85 bd 69 d0 4e bd
       -0.033096563 -0.022469478 -0.06506414 -0.050491724
000140 d6 54 5c bd b6 15 c3 bd 51 ad 57 bd 10 14 49 bd
       -0.053791843 -0.095256254 -0.05265552 -0.0490914
000150 1e a4 06 be 5f c4 66 bd fa 39 d9 bc 64 e1 0b bd
       -0.13148543 -0.056339618 -0.026516903 -0.034150496
000160 00 86 4c bd f9 4f 4c bd f9 3e 17 bd de 02 8d bd
       -0.04993248 -0.049880955 -0.03692529 -0.068853125
000170 8c 0f 32 bd fa 01 69 bd 58 b6 4c bd 93 4b 50 bd
       -0.043471858 -0.05688665 -0.049978584 -0.050853323
000180 a4 87 7c bc 98 d3 96 bd 23 91 d7 bc 67 d3 5f bd
       -0.015413199 -0.07364577 -0.026314324 -0.05464497
000190 58 29 a7 bd fa 4c a2 bd ae 11 05 bd 85 0b 4a bb
       -0.081621826 -0.07924838 -0.032487564 -0.003082962
0001a0 09 38 30 bd 6c c2 54 bd 6f 31 3f bd 0e bc b0 bd
       -0.04302219 -0.051943228 -0.046678003 -0.086296186
0001b0 ca 87 2b bd 31 b6 92 bc 91 16 6d bc a5 8e 5f bd
       -0.041877545 -0.017909141 -0.014470712 -0.054579396
0001c0 0a 1e 64 3a b3 ac 0b bd 6e 57 31 bd 47 d6 8b bd
       0.0008701986 -0.034100246 -0.04329627 -0.068279795
0001d0 d6 e9 2b bd 7c b0 1a bd 52 9b 4b bd d3 43 74 bd
       -0.04197105 -0.037765965 -0.049708672 -0.059634995
0001e0 68 50 d9 bc c3 82 d8 bc f4 95 93 bd fe 9f 87 bd
       -0.026527599 -0.02642954 -0.07206336 -0.06622313
0001f0 a8 cc d8 bc 05 e5 84 bd c2 b2 6f bd fa 54 14 bd
       -0.026464775 -0.064889945 -0.058520086 -0.036213852
000200 e7 e8 18 bd 44 4d 48 bd ae f8 3d bd 9f 02 30 bd
       -0.037331488 -0.04890181 -0.046379738 -0.04297125
000210 b7 95 39 bc f5 dd 33 bd 72 f2 36 bc 1c 25 cf bd
       -0.011327199 -0.043912847 -0.011166202 -0.101145
000220 6c ba 78 bd 40 7c 80 bd 23 6a 83 bb d8 64 43 bd
       -0.06072466 -0.06273699 -0.004010455 -0.047703594
000230 2a b4 36 bd 2b ec 25 bd 50 a5 71 bd 3e 5c 00 be
       -0.04460541 -0.04050843 -0.058995545 -0.12535188
000240 de cb 12 bd 7b 28 ed bd e5 90 5f bd 66 fe 5a bd
       -0.035838954 -0.11579987 -0.05458154 -0.05346527
000250 67 4b 76 bd a9 f9 54 bd c5 65 79 bd 9d a3 d8 bd
       -0.060130503 -0.051995907 -0.06088807 -0.10578082
000260 56 3d 86 bd 6a fe 4c bd dd 49 64 bd e8 75 50 bd
       -0.06554668 -0.050047316 -0.055734504 -0.050893694
000270 33 b2 60 bd 88 ab d5 bc 45 33 d3 bc ef 5d eb bc
       -0.054857444 -0.026082769 -0.025781283 -0.028731314
000280 f9 89 3d bc d7 80 a0 bc 07 64 8e bd e6 af d9 bc
       -0.01156854 -0.019592686 -0.069526725 -0.026573133
000290 82 ea 51 bc 1c f5 e7 bc 14 07 d5 bc 85 d5 63 bd
       -0.012812259 -0.02831512 -0.026004352 -0.05562355
0002a0 50 fa 92 bd a9 7e a7 bb 78 af f1 bc b9 e6 81 bd
       -0.071766496 -0.0051115346 -0.029502615 -0.06342835
0002b0 e2 5b 4d bd 29 2b 2b bd a3 55 b0 bc 04 ce d8 bc
       -0.050136454 -0.041789208 -0.02152521 -0.026465423
0002c0 11 e8 c6 bd e6 cc 85 bd 2e 35 62 bd 4c 7d 6f bd
       -0.09712232 -0.06533222 -0.055226497 -0.0584691
0002d0 73 0d 07 bd a3 52 a3 bc 57 bd ea bd 55 a0 27 bd
       -0.03297181 -0.019936865 -0.11461895 -0.04092439
0002e0 50 80 45 bc ef 4e 80 bc 2a 19 31 bd 52 e4 78 bc
       -0.012054518 -0.015662638 -0.04323689 -0.015191155
0002f0 c4 5f ce bc a5 c5 65 bd 84 7d 5b bd 09 fb 03 bd
       -0.025192149 -0.05609669 -0.053586498 -0.032221828
000300 05 b4 0e bd e1 36 d6 bc 8d 6b 5d bd b7 aa 39 bd
       -0.03483965 -0.026149215 -0.054057647 -0.045328822
000310 ba 1a 80 bd 58 5c 45 bd 81 7a 28 bc 0a d3 db bc
       -0.06255098 -0.04818377 -0.010283113 -0.02683403
000320 de 3f 22 be d6 cd 5f bd da 5b 23 bd 2e be df bc
       -0.15844676 -0.05463966 -0.03988252 -0.027312364
000330 c7 31 e3 bc b0 91 f9 bc ed 82 30 bd 06 6e 1d be
       -0.027733697 -0.030464977 -0.04309361 -0.15374002
000340 ba 62 88 bd c2 f2 2d bd f3 f1 38 bd bd d8 2e bd
       -0.066594556 -0.04246784 -0.045152616 -0.042687166
000350 81 77 5f bd fd 69 58 bd 72 38 85 bc 40 5d 31 bd
       -0.054557327 -0.052835453 -0.016262267 -0.04330182
000360 28 a2 13 bc 89 82 6d bd 66 05 31 bd ff e0 ec bc
       -0.009010829 -0.057985816 -0.04321804 -0.02891588
000370 65 44 89 bc b7 7b 15 be b5 90 0d bd 33 48 52 bd
       -0.016756246 -0.14597975 -0.03456183 -0.051338386
000380 ed e6 5f bd 95 57 81 bc bb d4 61 bc 6a fb 5e bd
       -0.054663587 -0.015788833 -0.013783629 -0.054438986
000390 dc d6 b8 bc f0 ec 00 bd 4a c2 ff bc 48 30 4a bd
       -0.02256339 -0.03147596 -0.031220574 -0.04936245
0003a0 be 2b 60 ba cc 90 b7 bc 23 42 5d bd a5 38 b9 bc
       -0.000855144 -0.022407912 -0.05401815 -0.022610018
0003b0 43 b5 94 bc 0a 9d ca bc a0 d6 de bc 11 88 f5 bd
       -0.018152839 -0.024733085 -0.02720195 -0.11988843
0003c0 85 89 9d bd 0e d1 40 bd 97 cb 02 bd ae e9 e8 bc
       -0.076922454 -0.04707437 -0.03193244 -0.02843174
0003d0 9a f2 2a bd a1 f3 4b bd 01 8a 8d bd 48 11 43 bd
       -0.04173527 -0.04979289 -0.06911088 -0.047623903
0003e0 e2 b3 fc bc 13 75 21 bd 68 b5 ea bc 89 7b 2a bd
       -0.030847494 -0.03941829 -0.028650954 -0.04162172
0003f0 e6 39 22 bd b7 b3 a0 bc 1f 4e 4a bd 32 58 89 bc
       -0.039605998 -0.019616945 -0.04939091 -0.016765688

linear2.weight f4 [80, 256]
000000 96 96 b0 bb 9f 34 45 bc 8f bd 21 bd ce 93 4d bd
       -0.005389045 -0.012036472 -0.039487418 -0.050189786
000010 67 f7 28 bc f5 50 2b 3d 76 4a 45 bd 2d 28 4b 3c
       -0.010312892 0.041825254 -0.048166715 0.012399715
000020 90 3f 66 bd 70 ca 43 bd 2e 6b 13 3b 23 37 d2 bb
       -0.05621296 -0.04780048 0.0022494304 -0.006415264
000030 35 80 f6 bc 5d 8f 81 bd eb 9c a6 3c 42 25 92 bd
       -0.03009043 -0.063261725 0.020338496 -0.071360126
000040 98 04 33 3c bf 23 17 bc 0c 5a d7 bc d6 6d ac bd
       0.010926388 -0.009224831 -0.026288055 -0.08419387
000050 af 5e 79 bd 94 0d 0c 3d 08 f6 d1 3c b6 4a 23 3d
       -0.060881313 0.034192637 0.025630012 0.03986617
000060 e6 fb 4d bd 96 14 82 bc c4 60 5c bb a2 48 88 3c
       -0.050289057 -0.015878957 -0.0033627013 0.016636197
000070 ce 23 0b bd 3f 9f 07 bd 3c 96 8e 3c d9 42 44 bd
       -0.033969693 -0.033110853 0.017405622 -0.047915313
000080 52 34 b2 3c 5e ca 8c bc e8 83 9a 3c 51 69 40 3c
       0.021753464 -0.01718634 0.018861726 0.011743859
000090 87 60 1a 3d 0b 81 16 bd ec 01 35 bd f8 76 40 3b
       0.037689712 -0.03674416 -0.044191286 0.0029367786
0000a0 b6 f7 88 bc f7 d7 ec bc 85 de f2 bc fa de f0 bb
       -0.01671968 -0.028911574 -0.029647121 -0.0073507996
0000b0 6c 06 9d ba 5c e6 3a bd c4 d2 89 3a 6c 4a 53 bd
       -0.0011980063 -0.045629844 0.0010515084 -0.051584646
0000c0 0c 57 b7 38 29 03 24 3b cb 06 62 bc 66 9a 9e 3d
       8.742334e-05 0.0025026298 -0.013795565 0.07744293
0000d0 93 cc e0 bb 1a 24 4c ba 92 30 e0 3a dd 00 eb 3c
       -0.0068603246 -0.0007787362 0.0017104319 0.028686935
0000e0 31 a0 f6 3b 89 ec c7 3c 9e c8 01 bd da 49 30 bd
       0.0075264205 0.024404781 -0.031685464 -0.04303918
0000f0 0e f4 6c bc a4 42 87 3c 0c e0 04 3d 2f fd 61 bb
       -0.014462484 0.016511269 0.03244023 -0.0034483185
000100 8f 31 93 bd 7f 4d 61 3b 6a a4 29 bb 70 58 01 3d
       -0.07187187 0.0034378467 -0.0025885352 0.03157848
000110 f2 45 d2 3c cb 6a 1b bc e7 9e 8c 3c 51 f3 ad bc
       0.025668118 -0.009485911 0.017165614 -0.021234186
000120 7a 3a 0d bd f2 62 94 3b 21 70 19 bd 72 4a 17 bd
       -0.034479596 0.0045283968 -0.03746045 -0.03693623
000130 62 c1 63 3b 8f 04 00 bd 31 b3 17 bc 86 74 cc 3c
       0.0034752716 -0.031254347 -0.009259031 0.024957906
000140 e1 43 ac bb 2a 42 37 3e 5f 24 52 bd 91 2f f0 3c
       -0.0052571152 0.17896333 -0.051304217 0.029319556
000150 23 44 3a 3d b0 9a d7 3c 80 22 a5 bc 2d de 25 3c
       0.045475136 0.026318878 -0.020158052 0.010123772
000160 de 17 35 bd 06 42 60 3d b8 06 51 3d 68 3c 31 3b
       -0.044212215 0.054750465 0.051031798 0.0027044062
000170 76 a9 81 bd b6 29 86 bc 51 10 38 3d 3f 33 af 3c
       -0.0633115 -0.016377311 0.044937436 0.02138674
000180 7c 53 1a bc 5c 4e 3a bd a4 24 d1 3c cf f2 50 bc
       -0.009419318 -0.045484886 0.025530167 -0.012753203
000190 64 3d 85 3c 09 4f 42 3d 51 15 b1 bc 4a 3e 4d 3d
       0.016264625 0.047438655 -0.02161661 0.05010823
0001a0 e4 fa 2c bd fe fd 1c bb bb 8e 3a 3c 28 d2 fc 3b
       -0.042231455 -0.0023955102 0.011386569 0.0077154823
0001b0 d0 f6 40 bd 63 3f 26 3d e5 48 00 3d d3 f9 55 bd
       -0.04711038 0.040587794 0.031319518 -0.052240204
0001c0 4c ce 84 3d ce 26 2b 3d d7 23 6c 3b d8 44 90 bd
       0.064846605 0.041785054 0.0036032104 -0.07044381
0001d0 51 8f 11 bd 62 eb 43 3d 83 1a 72 bd 07 aa 90 bd
       -0.035537068 0.0478319 -0.059107315 -0.0706368
0001e0 1b 63 5b 3d 3f 4b 4b 3d 26 e9 5e 3c cd 02 f6 bc
       0.05356131 0.049632307 0.013605392 -0.030030632
0001f0 d5 0d 3d 3d 23 85 5f bd f3 c6 78 bd 9a 22 ff 3c
       0.04615577 -0.05457033 -0.060736608 0.031144429
000200 14 bb 74 bd 3c cc bc bc d4 69 8d 3c 8b 34 87 bc
       -0.059748724 -0.023046605 0.017262377 -0.016504547
000210 5d 94 45 3d f1 d2 df bc d8 52 7d bb d0 13 8d bc
       0.048237193 -0.027322264 -0.0038654115 -0.017221361
000220 0f 7a 29 bd 3c 96 4d bd 0f 5f 4b 3d 05 da a8 3b
       -0.04137617 -0.050192103 0.0496512 0.005152943
000230 b2 e0 38 3d 02 f4 65 bc 66 87 32 3c 7f ac 83 3d
       0.04513616 -0.014035227 0.010896539 0.064293854
000240 f9 b7 76 bc 93 6e ff bc 5c e6 cc 3c c7 c3 d2 3b
       -0.015058511 -0.031180656 0.025012188 0.00643203
000250 3d 87 a6 3c 42 eb 78 bd 33 3f 3c bc 3d 00 84 3d
       0.020328159 -0.060771234 -0.011489677 0.06445358
000260 e7 c6 84 3d 7c a0 f8 3c f4 20 41 bd 4d bf 2a bd
       0.0648325 0.030349962 -0.047150567 -0.041686345
000270 31 cc 56 bd b8 c7 b4 3c 9b 71 9d 3b 49 e9 8c bb
       -0.052440826 0.02206789 0.0048048026 -0.0043002707
000280 13 1b 04 ba 83 19 1c 3d 46 e8 0d 3c ed 25 04 bd
       -0.0005039435 0.038110267 0.008661335 -0.03226273
000290 64 5e 50 3d e8 7a 42 bd a8 a9 3e bd b6 29 6f bd
       0.050871268 -0.047480494 -0.046548516 -0.058389388
0002a0 f4 ee 56 bd 3f f2 02 3d 6d e2 21 bd 1c b8 6d 3d
       -0.052473977 0.031969305 -0.039522577 0.05803691
0002b0 85 ba 88 3b 63 54 99 3c 8f bf 77 3d dd e0 fe bb
       0.0041726255 0.018716997 0.06048542 -0.0077782706
0002c0 6d 3e 53 3d 9d 8a 27 bc fa 48 27 bb 65 8c 32 3d
       0.051573206 -0.010225919 -0.0025525675 0.043590922
0002d0 c5 d1 b2 bc c4 b7 5f 3c e2 4a a2 bd d2 c2 74 bc
       -0.021828542 0.013654653 -0.07924439 -0.014939027
0002e0 90 16 1c 3d 20 29 b5 bc f8 4a 75 3b 6c 8d d8 bc
       0.038107455 -0.022114336 0.0037428718 -0.026434623
0002f0 9e be 69 3d 89 af 8a 3b 70 03 84 bc 04 fa 1a 3d
       0.057066552 0.004232351 -0.01611492 0.03783609
000300 06 02 35 bd 45 f0 28 3d ce d9 9a 3c 1a 0b 14 bc
       -0.044191383 0.041244764 0.018902685 -0.00903585
000310 f9 ab bb bc 01 a1 80 bc bd 26 b5 3c f9 05 86 3b
       -0.022909151 -0.015701773 0.022113198 0.0040900675
000320 70 0b 9c bc cf 9c 4e 3d 20 0c 94 bc 29 55 0a bb
       -0.019048423 0.050442513 -0.018072188 -0.0021107888
000330 b0 23 07 bd 8a 05 bd bb ec 94 7c bc 4a e7 00 3d
       -0.03299302 -0.0057684826 -0.015416365 0.031470574
000340 63 fc 62 bd a0 70 22 bc 08 55 e1 3c 4c 07 23 bd
       -0.055416476 -0.009914547 0.027506366 -0.03980188
000350 48 fd 1a 3d 06 fa f1 3b 95 6b 08 bd e1 0f 4b bd
       0.037839204 0.0073845414 -0.033305723 -0.04957569
000360 a3 42 57 3d c5 91 31 3c 1a 62 89 bb 83 a1 80 bd
       0.052553784 0.010837977 -0.004192603 -0.06280806
000370 fa b3 88 bc 33 04 a4 bc de ab 53 3b 5c 8e 5c bd
       -0.016687382 -0.020021534 0.0032298486 -0.053846702
000380 06 fb 21 bc a2 1e 25 bd 16 18 50 3a d1 d2 3a bb
       -0.009886509 -0.040312417 0.00079381594 -0.0028507004
000390 78 15 39 bd 48 71 00 3d 9f fd 90 bb c8 43 fe 3c
       -0.04518649 0.031358033 -0.0044247652 0.03103818
0003a0 bb f9 69 3d e4 a8 62 bc ef a6 05 3c 06 9f 40 bc
       0.057122927 -0.013834212 0.008157476 -0.011756664
0003b0 18 95 59 bd 49 dd 76 3d 95 5b 67 bd 9c cd 0b 3c
       -0.053120703 0.060269628 -0.056483824 0.008532908
0003c0 65 ff 4a bd 0e 8e 00 3d 29 a4 ba bc ed 7f 88 3d
       -0.04955997 0.031385474 -0.022783356 0.06665025
0003d0 46 23 2f 3d 63 10 ec 3c 68 e1 4d bd 98 81 38 3d
       0.04275825 0.028816408 -0.050263792 0.045045465
0003e0 23 e2 83 3d ef 13 f1 bc 5d 15 13 3d 46 fd 94 bb
       0.064396165 -0.02942845 0.035909045 -0.004546794
0003f0 a8 d0 3a 3d 94 dc 53 3c 8f 7c d2 3c 6f 90 5e 3d
       0.045609146 0.012931008 0.02569416 0.05433696

linear2.bias f4 [80]
000000 0c 96 f3 3b 99 12 a2 3d a0 d5 84 3c c4 d0 27 bd
       0.0074336585 0.079137035 0.016215146 -0.04097058
000010 e5 e1 e3 bc 0f 8b bf 3d c4 b5 d7 39 22 2e bd bd
       -0.027817676 0.09352695 0.00041143422 -0.09237315
000020 8e 28 dd 3d 97 48 83 3c 81 fe 70 3c a1 d6 e8 3b
       0.10798751 0.016025824 0.014709116 0.007105664
000030 03 f5 86 3c ab 9a b3 ba c8 9a fa 3d 33 07 25 3c
       0.016474253 -0.0013702711 0.122365534 0.010072517
000040 c7 3f a0 bc 4d db b6 bc 3f 64 68 bd 59 b5 18 bc
       -0.019561661 -0.022321368 -0.056736227 -0.00932058
000050 2d 22 6a bc 56 39 0f bd 6e 79 e4 3b 97 a0 5c 3c
       -0.014290375 -0.03496679 0.0069724834 0.013466022
000060 1e d5 c6 bd 06 c1 c4 3d a2 69 8c bc f4 4d 70 3c
       -0.09708618 0.09607129 -0.017140213 0.014667023
000070 2d 05 27 bd 32 15 8c bc d5 43 8a 3d ba a4 c7 3c
       -0.04077642 -0.01709995 0.06751219 0.02437054
000080 16 38 76 bc bd 44 a4 3d ae 45 e6 bd 46 38 b6 3c
       -0.01502802 0.08020923 -0.11243759 0.02224363
000090 38 6c 83 bc a7 e6 55 3d b2 03 a5 3c f4 a2 26 b9
       -0.016042814 0.05222192 0.020143364 -0.00015891698
0000a0 39 dc a3 3c ee 7f ee bc cd c9 b3 3b a4 16 01 be
       0.020002471 -0.029113736 0.005486703 -0.12606293
0000b0 92 16 56 bc b0 9d 7d 3d 88 e1 56 bd 27 2b a2 bc
       -0.013066905 0.06191796 -0.052461177 -0.019795967
0000c0 3c 5a df 3c 06 49 1a bd 7d 65 37 bd a7 6a b6 bd
       0.027264707 -0.037667297 -0.04477452 -0.08907061
0000d0 d8 87 3b bd 1a e3 c0 bc ae 3d e6 3c 2a ca a5 bd
       -0.045783848 -0.02354579 0.028105583 -0.080952
0000e0 f4 b1 6b bd 41 8a ff bc 98 2f 7a 3c 8c e8 5a bd
       -0.057542756 -0.031193854 0.015270136 -0.05344443
0000f0 a6 9b 65 3c ad 19 7e bd 29 9e 4e bd d3 48 41 bb
       0.01401416 -0.062036205 -0.050443802 -0.002949287
000100 a1 f1 04 bd 41 66 dd b9 2b 87 52 bd 37 69 7b b9
       -0.032456998 -0.0004222859 -0.051398437 -0.00023976421
000110 e9 da 2d bd 52 19 ce 3d 7f 53 be 3d 0b e6 d9 3d
       -0.042445097 0.10063423 0.09293269 0.1063958
000120 9b 98 5b 3d 4a 36 95 bb 52 61 fc 3c 28 82 44 3d
       0.053612333 -0.004553591 0.030808125 0.04797569
000130 cd 0b 98 3c ed 5f e8 3d 53 5b 73 3d 04 94 59 3c
       0.018560315 0.113464214 0.059413265 0.013279919

weight f4 [1, 768]
000000 f3 4f a5 3b 60 ab d2 bc d4 a7 af 3c 56 59 83 bc
       0.005044931 -0.025716484 0.021442331 -0.01603381
000010 02 b6 ad 3a 01 9b e4 bb 24 d2 c5 3a bb 60 10 3c
       0.0013253095 -0.0069764857 0.0015092534 0.008812125
000020 7b e5 b4 bb a8 db a7 bc bb b8 86 3b 5d 5d 08 3c
       -0.0055205203 -0.020490482 0.004111377 0.008323041
000030 b4 50 36 bc f2 9c ef 3a fa 5b 05 bc eb 0d b0 3b
       -0.01112764 0.0018281026 -0.008139605 0.005372753
000040 69 67 00 bc 8f 72 41 3c 6e 54 b1 bb e3 e3 ff 3b
       -0.007837155 0.011807098 -0.005411676 0.0078091486
000050 50 33 2b 3b b9 ca 1a 3c cb 47 13 bc 92 6d 8c bc
       0.0026123114 0.009447747 -0.008989285 -0.017142091
000060 11 d4 4c 3b 93 35 fe bb 35 65 84 bb 89 fd aa 3c
       0.003125433 -0.0077578514 -0.004040385 0.020872848
000070 7b de 10 bc 10 1f c1 bb f0 bf 3a 3a 32 4a 2c 3c
       -0.008842106 -0.0058935955 0.0007123938 0.010515736
000080 3a 2d 89 3b d9 7c f3 3b a9 9e 7a 3c 52 f7 7b bc
       0.0041862996 0.0074306545 0.015296617 -0.01537879
000090 33 b2 cb 3b 4d 40 7a bb 7d 50 37 bc 75 ee 88 3c
       0.0062163114 -0.00381853 -0.0111886235 0.016715268
0000a0 e4 9a 10 bc 9a b6 9d 3b d4 49 88 bc ad 6d 57 bb
       -0.008825991 0.0048130276 -0.016636766 -0.0032871768
0000b0 fe 76 5e bc 82 12 b0 bc 00 cc ac 3b 05 e4 85 bc
       -0.013578175 -0.0214932 0.005273342 -0.01634408
0000c0 6d 1e a3 3c e1 c3 9f 3c 1c be 2b 3b 90 c6 b0 3c
       0.01991197 0.019502582 0.0026205843 0.021579057
0000d0 74 e1 6f 3c b0 9e 18 bc 60 be c5 3c 58 65 93 3c
       0.014641155 -0.009315178 0.02413863 0.01799266
0000e0 61 1b 67 3c 13 49 d2 bb 13 a5 7d 3c 68 66 9d bc
       0.014105649 -0.0064174025 0.015481251 -0.01921387
0000f0 a5 f8 2a bc c0 bf bd 3c 86 28 16 3d 55 c9 bf bc
       -0.010435258 0.023162723 0.03665974 -0.023411432
000100 17 74 0d 3a 13 86 de bc df d5 8a bb c2 1d 07 bc
       0.0005396022 -0.027163541 -0.004236921 -0.008246841
000110 72 c4 2d 3c f7 40 69 b9 b9 cb 10 bc 66 c9 42 3c
       0.010605918 -0.00022244813 -0.008837634 0.011888837
000120 44 c1 79 3c e9 04 95 3c b3 50 ca bb 5e 92 d9 bc
       0.015243832 0.018190818 -0.006174171 -0.026559051
000130 50 bd 20 3c a7 0d 9b bc eb ec 71 ba 78 f8 70 bc
       0.009810761 -0.018927408 -0.0009228724 -0.014707677
000140 86 df af bb a4 48 81 bb ff 27 4f 3c 55 fc d9 3b
       -0.0053672222 -0.003945427 0.012643813 0.006652395
000150 ca 5b 3a bc 33 f7 8d bb 19 6b 9f b9 d5 97 62 3c
       -0.011374423 -0.004332447 -0.00030406637 0.013830145
000160 4b 55 62 bc 88 50 8b 3c bc 69 1e 3c db e4 75 3b
       -0.013814281 0.017006174 0.009668764 0.0037520442
000170 92 12 01 3b 9d d2 94 38 8a fe 55 bb 7a 1b 8a 3b
       0.0019694907 7.09642e-05 -0.0032652938 0.0042147012
000180 10 87 0c 3c 5d 6e a5 bc 0a 2c 8f 3c 26 f6 f8 3b
       0.008577123 -0.020194227 0.017477054 0.0075977026
000190 eb f9 1d bc 65 99 8f bc bd 1b 6d b8 70 e1 53 3c
       -0.009642105 -0.017529199 -5.6531037e-05 0.012932166
0001a0 76 b8 ef bb e9 ad ad 3c c8 9a 6c 3b 25 1a 01 bc
       -0.0073156906 0.02120109 0.0036103 -0.0078797685
0001b0 2f e6 c4 3b ca 24 bd 3c 20 d5 a8 3c 03 27 5e 3c
       0.0060088853 0.023088831 0.020609438 0.013559106
0001c0 03 4b ab 3a c9 a3 44 3c f4 20 ad 3b 9b b7 c6 3b
       0.001306862 0.01200194 0.0052834693 0.006064368
0001d0 ec 37 74 bc c3 cb af bb bf 2c 4a bc 28 ae d0 bb
       -0.014905911 -0.0053648665 -0.01233977 -0.0063684173
0001e0 fe 1f 0c 3b 89 ff 7e bc 19 63 a6 bc 8b d4 aa bc
       0.0021381374 -0.015563854 -0.020310925 -0.020853302
0001f0 93 26 1f bc 6b 4b a6 3b b8 8b 3c bc 1f 73 75 3b
       -0.009713787 0.0050749085 -0.011507921 0.003745265
000200 d4 21 92 bc 23 b4 56 3b f7 c9 5a 3c 46 94 86 38
       -0.017838396 0.0032761178 0.013353816 6.417236e-05
000210 f9 fc 3b bc 73 8c 03 3b f1 1c 28 bc 1a 8c 6a 3c
       -0.011473888 0.0020072728 -0.010260806 0.014315629
000220 a8 ba 9a 3b a3 84 02 3c b8 14 3e 3c 2e f9 98 bc
       0.004721958 0.007966193 0.011601619 -0.018673506
000230 89 6c 54 3c 8c 54 a9 bc bd 0c 6b bc a6 f3 78 bc
       0.01296533 -0.020670198 -0.014346299 -0.015194809
000240 b7 a5 00 bc 3d be 27 3c b1 96 83 3c a1 e9 6b bc
       -0.0078520095 0.010238227 0.016063066 -0.014398963
000250 25 fc 98 bc bf 6f d5 3a eb 03 c7 ba 62 81 9d bc
       -0.01867492 0.0016283913 -0.0015183663 -0.019226734
000260 cc d0 0f bc a9 b7 cc bb b9 85 d6 3c f8 6b ea 3b
       -0.008777808 -0.00624748 0.02618681 0.007153984
000270 b4 26 1a bc 11 68 17 3c fc 4d 2c bc 8a a8 bc 3c
       -0.009408642 0.00924112 -0.01051664 0.023029584
000280 0e 12 de bb 64 b4 70 3c b1 75 3a 3c 8a 3f 73 bc
       -0.0067770546 0.014691446 0.011380599 -0.014846692
000290 ec 4b c8 3c 7b 18 56 bc 8b 9f c7 bb 95 1c 8d bc
       0.024450265 -0.01306736 -0.006092017 -0.017225543
0002a0 c0 d0 4d 3c 08 3b 79 3b b9 0e b2 3c 90 80 1a bb
       0.012561977 0.003802957 0.021735536 -0.0023575164
0002b0 dc b1 2f 3c 87 82 02 3c ff ee 8f 3c 49 6b 54 3c
       0.010723557 0.00796569 0.017570017 0.012965032
0002c0 6a 00 5d bc 19 38 a4 3c f5 82 c3 3b 63 64 85 bc
       -0.013488868 0.02004628 0.005966539 -0.01628322
0002d0 6a c7 3e 3b 7f 98 7f 3c 31 c0 87 3c a9 4c 96 3c
       0.002911056 0.015600323 0.016571136 0.018347101
0002e0 25 48 ab bc aa 1b b0 bb ae 05 0e 3c 22 d1 da bc
       -0.020908425 -0.0053743916 0.008668346 -0.02671105
0002f0 3e 34 f0 bb b7 2c 04 3c 25 74 03 3c da 80 e7 3c
       -0.0073304465 0.0080673015 0.0080232965 0.028259683
000300 79 23 5e 3c a5 7d ba ba da 79 1b 3c 1e 0f 13 bc
       0.013558262 -0.0014228119 0.009489501 -0.008975772
000310 d2 bd 75 b9 c5 94 a4 39 ff 5f 0c bc 57 ee 7d 3c
       -0.00023435734 0.0003139136 -0.008567809 0.015498719
000320 d5 94 f8 3b c0 ea 22 bb a5 3d dc bb df 7b 9a bc
       0.0075861015 -0.002485916 -0.006721216 -0.018857894
000330 d5 5d 2e b9 96 8a 90 3c 16 94 3d 3b 5c 7e 01 3c
       -0.00016628888 0.017644208 0.0028927377 0.007903662
000340 67 f7 21 3c 8b 4f e0 bb c4 dc 5d bc b1 39 68 3c
       0.0098856455 -0.0068454198 -0.013541404 0.014173911
000350 61 a8 59 3c e7 11 2e 3c 0d 33 cd 3a 10 67 43 3c
       0.013284774 0.010624385 0.0015655473 0.0119264275
000360 84 36 05 bc f5 a6 4a bb 42 7f 89 3b 13 42 38 bc
       -0.008130673 -0.0030922268 0.0041960785 -0.011246222
000370 75 43 d8 3b 67 d4 a3 3c a1 44 50 bc 4f 3a 80 3c
       0.0065998384 0.019998742 -0.012711675 0.015652804
000380 c0 c8 8a 3c 19 bf 30 39 25 1e a9 bc 6c 8d 13 3c
       0.016941428 0.00016855857 -0.020644257 0.009005886
000390 ed 1b 4e 3b b6 b6 26 bc 7c 59 6f bc c8 fd 47 bc
       0.003144975 -0.010175398 -0.014608737 -0.012206502
0003a0 11 b8 9b bb be 0e b2 bc 70 b4 80 bb 66 86 cd bb
       -0.004752167 -0.021735545 -0.00392776 -0.006272125
0003b0 2b d5 46 39 1a 15 c7 3c 06 00 13 3c bc 1b b0 3c
       0.00018962163 0.024302054 0.008972174 0.0214976
0003c0 f5 e1 f3 3b 81 d7 76 bc 1f 68 49 3c 0b 1c d0 3c
       0.0074427077 -0.015066029 0.012292891 0.025403997
0003d0 84 fa e4 3b 92 72 03 3c 92 cd ca 3a fd 97 31 3c
       0.0069878716 0.008022921 0.0015472642 0.0108394595
0003e0 c3 0e 77 3b 1b a4 80 bc bf 25 30 bc 22 a9 7f bb
       0.0037698008 -0.015703252 -0.010751187 -0.0039010723
0003f0 e2 b8 8d bc 49 04 36 bc 10 cd 6f 3c c3 ba 05 bb
       -0.017300073 -0.01110942 0.014636293 -0.0020405508
