SPMLUA_outputs/coco3/Train_with_full_labels_L2loss/checkpoint_best_2.pth (torch, 691407 bytes, 7 tensors)

weight f4 [80, 240]
0	0x3ee74529	0.45169953
1	0x3cec6f91	0.028861793
2	0xbc3dce32	-0.011584805
3	0xbcc1b14d	-0.023644114
4	0xbd13a6aa	-0.036047615
5	0x3ca9c5a8	0.020724133
6	0x3d145e99	0.036223028
7	0xbd8b602a	-0.06805451
8	0xbc157cc2	-0.009123983
9	0xbdbca3ee	-0.092109546
10	0xbcd7102b	-0.026252827
11	0xbd8f0d9d	-0.069850184
12	0xbd637f5f	-0.055541392
13	0xbcc42a1e	-0.023945864
14	0xbd2b297d	-0.041787613
15	0xbd2d3c80	-0.042294025
16	0xbcb5cab0	-0.022191375
17	0xbd98125b	-0.07425376
18	0xbd9d8993	-0.07692256
19	0xbd85a589	-0.06525714
20	0xbd9a7f71	-0.07543839
21	0xbdae026e	-0.08496557
22	0xbd852ef0	-0.06503093
23	0xbd804ba8	-0.0626443
24	0x3df23e94	0.11828342
25	0xbcd0d87a	-0.02549385
26	0xba5f972f	-0.0008529303
27	0x3dd33094	0.10312
28	0xbc262d4e	-0.010142637
29	0x3cbf77e9	0.023372607
30	0x3bd7f985	0.0065910243
31	0xbc6a3f1f	-0.014297276
32	0xbd28c70e	-0.04120546
33	0x3d28ed3e	0.041241877
34	0x3da0022b	0.078129135
35	0xbd453c77	-0.048153367
36	0x3e9ad03c	0.30236995
37	0x3d4c9917	0.049950685
38	0xbbf7f0d0	-0.007566549
39	0xbc01ec54	-0.00792988
40	0xbd9b45e6	-0.075816914
41	0x3db5b160	0.08871722
42	0xbd45ed83	-0.048322212
43	0xbd5cf539	-0.0539448
44	0xbd9b8610	-0.0759393
45	0xbcb9491e	-0.022617873
46	0xbc97fe12	-0.018553767
47	0xbcbea188	-0.023270383
48	0xbc5a1b10	-0.013312116
49	0xbd5c94fb	-0.053853016
50	0xbd4b241d	-0.049594987
51	0xbc3a4866	-0.0113698
52	0x3cc54c98	0.024084374
53	0xbc2ae0e0	-0.010429591
54	0xbc7d3d34	-0.0154564865
55	0x3c20a602	0.009805204
56	0xbc80f507	-0.015741838
57	0xbc200740	-0.009767354
58	0xbd8242e8	-0.063604176
59	0xbd29a2f5	-0.041415174
60	0xbdef595c	-0.11686966
61	0xbd2993b7	-0.041400637
62	0xbd5982b9	-0.053103182
63	0xbcfb47d2	-0.030673895
64	0xbdb6e813	-0.089309834
65	0xbd1d2516	-0.038365446
66	0xbd6c3f7c	-0.05767773
67	0x3d3938cf	0.045220193
68	0xbb416ed7	-0.0029515529
69	0xbdb81ba6	-0.089896485
70	0xbd15f7d4	-0.0366133
71	0xbde15ceb	-0.11004051
72	0xbc892519	-0.016741322
73	0xbd9241ef	-0.07141482
74	0xbdf04c7d	-0.11733339
75	0xbd97a074	-0.07403651
76	0xbd037b57	-0.032100048
77	0xbd15ad4f	-0.036542233
78	0xbd89b23b	-0.06723448
79	0x3c2dc5b2	0.010606216
80	0xbb97f05d	-0.004636808
81	0x3ee91d36	0.455301
82	0xbcc4a2ab	-0.024003347
83	0xbe32eb13	-0.17472486
84	0xbb944017	-0.0045242417
85	0x3ef9de75	0.48802534
86	0x3e9b3d78	0.30320334
87	0xbf24c8db	-0.6436898
88	0x3ece1ff6	0.4025876
89	0xbe520614	-0.20510131
90	0x3e0cca74	0.13749105
91	0xbeb5f8f9	-0.35541514
92	0xbd2ccb1a	-0.04218588
93	0x3ddb9671	0.10722054
94	0xbe93ecda	-0.2889164
95	0x3ecbea2f	0.39827105
96	0xbd7c4e9b	-0.0615984
97	0xbb8cd6f2	-0.0042980844
98	0x3e4338b9	0.19064607
99	0xbe6743bc	-0.22584432
100	0x3e75e2cc	0.24012297
101	0x3eaa709a	0.33289033
102	0xbeb0a4a8	-0.34500623
103	0x3dfda791	0.123854764
104	0x3dfc9b5a	0.123343185
105	0xbdbdc460	-0.09265971
106	0xbe5b655e	-0.21425387
107	0xbebd39b4	-0.36958086
108	0x3df93448	0.12168175
109	0xbd11cf30	-0.03559798
110	0xbef6771f	-0.48137757
111	0x3bb48f58	0.005510252
112	0x3ebc6fe9	0.3680413
113	0xbeb02efa	-0.3441084
114	0xbeada2b6	-0.339132
115	0xbc28f206	-0.010311609
116	0xbe9c67f2	-0.30548054
117	0xbe9e4864	-0.30914605
118	0xbe7ffb6e	-0.24998257
119	0xbdbb16ab	-0.09135183
120	0xbeedfc4d	-0.46481553
121	0xbdd64386	-0.10462098
122	0x3e37d039	0.17950524
123	0x3f2fa431	0.6860991
124	0x3e74ba06	0.23899087
125	0xbe0f1909	-0.13974394
126	0x3e39a562	0.18129495
127	0xbd493293	-0.049120497
128	0xbd4fa9b7	-0.050698962
129	0x3e6ffad7	0.23435532
130	0x3e45159a	0.19246522
131	0x3d67375a	0.05644927
132	0x3df4a6ad	0.119458534
133	0xbe71ef17	-0.23626362
134	0xbd2d4547	-0.042302396
135	0x3e8282f3	0.2549053
136	0x3d8f00be	0.069825634
137	0xbe539e74	-0.20665914
138	0xbda788a2	-0.081803575
139	0x3e51eb58	0.20499933
140	0x3e847e60	0.25877666
141	0x3e959fc9	0.2922347
142	0x3daf8b33	0.08571472
143	0xbe311af7	-0.17295443
144	0xbdbbf67a	-0.09177871
145	0xbea9e1ca	-0.33180076
146	0xbd38dd76	-0.045133077
147	0xbc3b4ca3	-0.011431846
148	0x3dee2425	0.11627988
149	0x3c8bec18	0.017080352
150	0x3e39aefb	0.18133156
151	0xbd377938	-0.044793338
152	0xbd9f7891	-0.07786668
153	0xbdf13df6	-0.11779396
154	0x3e70af4d	0.23504372
155	0xbc2a0e0d	-0.0103793265
156	0x3ddf2cfc	0.10897252
157	0xbdfecbdb	-0.12441226
158	0xbd36d4c2	-0.044636495
159	0x3e9ff356	0.31240338
160	0x3cb99960	0.022656143
161	0xbb9b4b47	-0.0047391984
162	0x3d2bcc33	0.041942786
163	0x3c3b2cb6	0.011424234
164	0xbc6bafe6	-0.014385199
165	0xbcacd8e3	-0.021099513
166	0xbd31c152	-0.043397255
167	0x3b5b02f0	0.00334185
168	0x3c8aebe9	0.016958194
169	0x3d2944fe	0.04132556
170	0xbd267551	-0.040639225
171	0x3ccb81d6	0.024842184
172	0x3d228d3d	0.039685477
173	0xbc81160d	-0.015757585
174	0x3cddb83a	0.027065385
175	0xbd54081f	-0.051765557
176	0x3cbe6fd5	0.023246685
177	0x3c068cd0	0.008212283
178	0x3ca24a9f	0.019810973
179	0xbb9dd12c	-0.004816195
180	0x3ca98547	0.020693434
181	0xbcd5fcb5	-0.026121477
182	0xba5399a4	-0.00080719055
183	0x3d0f8b99	0.03504524
184	0x3d40f954	0.047112778
185	0x3d2fe5ec	0.04294388
186	0x3c819d29	0.01582201
187	0x3a50821d	0.00079539587
188	0xbc82875c	-0.015933685
189	0xbc261956	-0.0101378765
190	0xbc8138a6	-0.015774082
191	0x3d28dc92	0.041225977
192	0xbbf894b6	-0.007586087
193	0x3cef2d13	0.029196298
194	0xbca9c8a7	-0.020725561
195	0xbc7ade3d	-0.015311775
196	0xbbd00663	-0.0063484176
197	0x3d544aa6	0.051829003
198	0x3ceb37c6	0.028713118
199	0xbcdb26d9	-0.026751922
200	0x3d94991b	0.07255765
201	0xbad5ee37	-0.0016321604
202	0xbd1c9bc9	-0.038234506
203	0x3d124885	0.03571369
204	0x3ca0335e	0.019555744
205	0x3d65ce82	0.056105144
206	0x3aa64c4d	0.0012687534
207	0x3d66f9b4	0.05639048
208	0x3c8ccf2f	0.017188637
209	0x3d049d64	0.032376662
210	0x3c92e917	0.017933412
211	0x3d4a9cf4	0.04946609
212	0x3c8f04ca	0.017458338
213	0xbc781acc	-0.015143108
214	0x3c126d6f	0.008937224
215	0x3d169bba	0.036769606
216	0x3c797be6	0.015227294
217	0xbccd0500	-0.025026798
218	0x3bd5b099	0.006521296
219	0xbd15f38a	-0.03660921
220	0x3d5e03c1	0.0542028
221	0x3c234052	0.009964066
222	0x3c704577	0.014664999
223	0xbc8d2259	-0.017228292
224	0x3cc9686a	0.024585921
225	0xbc273c63	-0.010207268
226	0xbca7d355	-0.020486513
227	0x3cd77500	0.026300907
228	0x3c6fff65	0.014648293
229	0x3ca06764	0.01958055
230	0x3d386640	0.04501939
231	0x3ce9a316	0.028520148
232	0x3d4a0c86	0.04932835
233	0x3d149495	0.03627451
234	0x3d749809	0.059715305
235	0x3d26829b	0.0406519
236	0x3d09099f	0.03345644
237	0xbc053269	-0.0081296945
238	0x3d188dd5	0.037244637
239	0xbcbe461e	-0.023226794
240	0xbbfe97aa	-0.0077695446
241	0x3f1baedf	0.6081371
242	0x3c14d76a	0.009084562
243	0xbe4b4774	-0.19851476
244	0x3c316927	0.010828293
245	0xbd0eb4c4	-0.03484036
246	0x3c8b8c89	0.017034786
247	0x3af56239	0.0018721289
248	0x3b3adfb1	0.0028514678
249	0xbca3ca45	-0.01999391
250	0xbba1b291	-0.004934617
251	0xbcd542b4	-0.026032783
252	0xbd0c1b97	-0.034206
253	0xbcb8a4c6	-0.022539508
254	0x3861f0d9	5.3868487e-05
255	0xbbda7d2a	-0.0066677528

bias f4 [80]
0	0x3d81e480	0.06342411
1	0xbbb52513	-0.005528101
2	0x3caef707	0.021358026
3	0x3ccb4a97	0.02481584
4	0xbbf962e8	-0.0076106675
5	0xbceedb5e	-0.029157337
6	0xbd2986b0	-0.041388214
7	0xbc143c55	-0.009047587
8	0x3d59718a	0.053086795
9	0x3cba7cc9	0.02276458
10	0xbbbb8cdb	-0.0057235784
11	0x3d46ba54	0.04851754
12	0xbc8ef75d	-0.017451936
13	0xbb4538c0	-0.003009364
14	0x3ae8659e	0.001773048
15	0xbca80f43	-0.02051509
16	0xbd896c99	-0.067101665
17	0x3d801872	0.062546626
18	0x3b9997c1	0.00468728
19	0xbb163c63	-0.0022924177
20	0x3cda0ccc	0.02661743
21	0xbbd96a01	-0.006634951
22	0x3e14a797	0.14517055
23	0x3cdc68e7	0.02690549
24	0x3d2714a7	0.04079118
25	0x3d81a4f3	0.0633029
26	0x3e01f8b6	0.12692532
27	0x3d4a78e0	0.04943168
28	0xbc192004	-0.009346012
29	0x3b6e678f	0.0036377644
30	0xbc705ea6	-0.014671003
31	0x3d34e9b2	0.04416818
32	0x3d54a16e	0.051911764
33	0x3d9f14b0	0.07767618
34	0x3cd34e5f	0.025794206
35	0xbbbf82dd	-0.0058444575
36	0x3aa8b3b3	0.0012870937
37	0x3d43b9de	0.04778468
38	0xbcd58252	-0.026063118
39	0x3e0621e8	0.13098872
40	0x3d5b762d	0.053579498
41	0xbde15f58	-0.110045135
42	0x3cb5e4f5	0.022203902
43	0xbcdfd786	-0.02732445
44	0x3d157633	0.036489677
45	0xbd6eb4d8	-0.058277935
46	0x3c62a794	0.013833899
47	0xbc132ed9	-0.008983337
48	0x3d36bfbf	0.044616457
49	0x3cfc62a0	0.030808747
50	0x3d129d17	0.035794344
51	0x3d37c951	0.044869725
52	0xbd687d70	-0.05676025
53	0xbc0beb59	-0.008539998
54	0xbd258f41	-0.04041982
55	0xbd333070	-0.043747365
56	0xbd4ca952	-0.049966164
57	0xbc5283ed	-0.012848836
58	0x3d07e102	0.03317357
59	0x3d090e9d	0.033461202
60	0x3d378c67	0.044811632
61	0x3d4289a9	0.047494564
62	0xbb496146	-0.0030728146
63	0x3c447ad4	0.011992175
64	0xbc1064d5	-0.008813103
65	0x3d05197f	0.032495018
66	0x3d773632	0.06035442
67	0xbcb3908b	-0.02191951
68	0xbbf3656b	-0.0074278614
69	0x3d1c0fa0	0.03810084
70	0x3c79be92	0.015243189
71	0x3d193e6b	0.037413042
72	0x3bb128f5	0.005406494
73	0x3d252e15	0.04032715
74	0x3d45e425	0.04831328
75	0xbc06f681	-0.008237482
76	0xbd1979f0	-0.037469804
77	0x3d4db493	0.050221037
78	0x3cfc5c5e	0.030805763
79	0xbcf7b5cc	-0.030238055

linear1.weight f4 [256, 512]
0	0x3c14d12b	0.009083073
1	0x3c98e975	0.018666008
2	0x3d56f090	0.052475512
3	0xbe83d89e	-0.25751203
4	0xbe9c63a6	-0.30544776
5	0xbe247968	-0.16061938
6	0x3dad56e9	0.084638424
7	0x3d863ee8	0.06554967
8	0x3e0e5892	0.13900974
9	0xbe1b584c	-0.15170401
10	0x3d8605dd	0.06544087
11	0x3caafb12	0.020871673
12	0x3db3c042	0.08776905
13	0xbde8c6f3	-0.113660716
14	0xbe1fd87a	-0.15609923
15	0xbda349ee	-0.07973085
16	0x3e006979	0.12540235
17	0xbd5dd52d	-0.05415838
18	0xbc94c675	-0.018161038
19	0x3e46752d	0.19380637
20	0x3e29c464	0.16578823
21	0xbe9e9603	-0.30973825
22	0x3d54b5b2	0.05193109
23	0x3d808ba3	0.062766336
24	0x3e414872	0.18875292
25	0x3ddf3092	0.10897936
26	0xbc290e1d	-0.010318306
27	0xbe5324c9	-0.20619501
28	0x3ddc0786	0.107436225
29	0xbd5c6a6c	-0.05381243
30	0x3e515b8f	0.20445083
31	0xbd43f3b4	-0.047839835
32	0x3e1b7a46	0.15183362
33	0x3d73707e	0.059433453
34	0xbe0367fe	-0.12832639
35	0xbdbb1a6b	-0.09135898
36	0x3d294d7f	0.04133367
37	0xbe532ae1	-0.20621826
38	0x3db27e9a	0.087155536
39	0xbd72e484	-0.05929996
40	0xbe857546	-0.26066035
41	0x3ea841d4	0.32862723
42	0xbda91d94	-0.08257595
43	0x3e405c81	0.18785287
44	0xbed004f3	-0.40628776
45	0x3e090c9c	0.13383716
46	0x3ce6ba24	0.02816493
47	0x3e024a9c	0.12723774
48	0xbd974667	-0.07386475
49	0x3e81de11	0.25364736
50	0x3c863463	0.016382402
51	0xbbabd0fa	-0.005243418
52	0x3e2659f5	0.16245253
53	0x3d0a3def	0.03375047
54	0xbdf54777	-0.119765215
55	0xbd2628ca	-0.040566243
56	0x3c8a4252	0.016877327
57	0xbd99e526	-0.0751441
58	0x3ea77f91	0.32714513
59	0xbec31410	-0.38101244
60	0x3c3d393f	0.011549293
61	0xbb2b4a27	-0.0026136728
62	0xbd9cf56d	-0.07663999
63	0x3e13e8d1	0.14444281
64	0xbdd8230b	-0.10553559
65	0xbe6331f3	-0.22187023
66	0xbdb4173b	-0.08793493
67	0x3d96c7cf	0.07362329
68	0xbe641864	-0.2227493
69	0xbea1e611	-0.3162084
70	0x3d8c2aba	0.06844087
71	0xbe07c287	-0.132578
72	0x3d554f23	0.052077424
73	0x3ef0fdf3	0.47068748
74	0x3ef7773a	0.4833315
75	0x3cc65bf2	0.024213765
76	0x3e1719a6	0.14755878
77	0xbe9e50ec	-0.30921113
78	0x3ebf39f8	0.37348914
79	0xbe956217	-0.291764
80	0x3dcbe551	0.09955848
81	0xbe789ae2	-0.24277833
82	0xbddf7895	-0.10911671
83	0xbeaf951c	-0.3429345
84	0xbdfda644	-0.12385228
85	0xbe35355b	-0.17696135
86	0x3c17206f	0.009224041
87	0x3cec2a89	0.028828876
88	0x3d4940c1	0.04913402
89	0xbd8244c2	-0.06360771
90	0xbe9f4f0c	-0.31114995
91	0xbe0dd1e8	-0.13849604
92	0x3d40d4c5	0.047077913
93	0x3dab0ad6	0.08351676
94	0xbed1e6b6	-0.4099633
95	0x3defdbf5	0.11711875
96	0xbcd5f3c3	-0.026117211
97	0xbcc93462	-0.02456111
98	0x3dba39b5	0.09093038
99	0x3e517013	0.20452909
100	0xbdfcf142	-0.12350704
101	0x3e942ef7	0.2894208
102	0xbc87fc83	-0.0165999
103	0xbd8182fe	-0.06323813
104	0x39b15853	0.00033825877
105	0xbe156360	-0.1458869
106	0xbd8d019c	-0.068850726
107	0x3ce84a56	0.028355759
108	0x3dad94c1	0.08475638
109	0x3e44e65c	0.192285
110	0xbe0c3282	-0.13691142
111	0xbe005706	-0.12533197
112	0x3e3a46f6	0.18191132
113	0xbdc89669	-0.097943135
114	0xbd5fda2d	-0.054651428
115	0xbea3e789	-0.32012585
116	0x3d806e93	0.0627109
117	0xbb303419	-0.0026886521
118	0x3e5412fd	0.20710368
119	0xbd9e45cb	-0.07728156
120	0xbe014d00	-0.1262703
121	0x3e0e838b	0.13917367
122	0x3d8d0065	0.06884841
123	0x3e45b61d	0.19307752
124	0xbe847304	-0.25869
125	0x3d965151	0.073397286
126	0xbdd8cfd0	-0.10586512
127	0xbe65861a	-0.22414437
128	0xbc5516a3	-0.013005885
129	0xbd691a25	-0.0569097
130	0xbdc248a0	-0.09486508
131	0xbd8882f3	-0.066656016
132	0x3e315434	0.17317277
133	0x3ddabb21	0.10680223
134	0xbe5af909	-0.21384062
135	0x3d3eb03b	0.046554785
136	0xbeca04b4	-0.39456713
137	0x3db34dfa	0.08755107
138	0x3c93a7ee	0.018024411
139	0x3dfb0957	0.12257641
140	0x3e166158	0.14685571
141	0x3e161e75	0.14660056
142	0x3b9df77d	0.0048207627
143	0xbe1325d9	-0.14369906
144	0xbe093af3	-0.13401394
145	0xbde44106	-0.11145215
146	0x3e8382b9	0.2568567
147	0x3e13095a	0.14359036
148	0xbcd21fc3	-0.02564991
149	0xbe7d8792	-0.24758747
150	0x3d988d40	0.07448816
151	0x3e3a9184	0.18219572
152	0xbdd1b1ca	-0.10238989
153	0xbde9272b	-0.11384424
154	0xbe5cc310	-0.21558785
155	0x3e3a27a0	0.18179178
156	0x3e9810ca	0.2970031
157	0x3c95da49	0.018292563
158	0x3e4db567	0.20088731
159	0x3c79efe2	0.015254946
160	0x3e0c26a7	0.1368662
161	0x3d929e3f	0.07159089
162	0xbdd768a7	-0.10518008
163	0xbd797364	-0.06090106
164	0xbe6343cc	-0.22193831
165	0x3df837f4	0.12120047
166	0xbcd5df78	-0.026107535
167	0xbe00028b	-0.1250097
168	0x3da52699	0.080640025
169	0x3edf547b	0.4361914
170	0x3deaf863	0.11473157
171	0x3e561dd3	0.20909815
172	0xbf1ac03d	-0.6044958
173	0xbdb854a1	-0.09000517
174	0xbdd1597f	-0.10222148
175	0x3e80326c	0.2503847
176	0xba8ac93a	-0.0010588535
177	0xbc9690ab	-0.01837953
178	0xbdd9f8fd	-0.10643194
179	0x3ca7913c	0.020454995
180	0x3e9a53c2	0.30142027
181	0xbab35f02	-0.0013684931
182	0xbe52fede	-0.20605037
183	0xbe349701	-0.17635728
184	0xbe679690	-0.22616029
185	0xbd7d4221	-0.061830644
186	0x3e1209fd	0.14261623
187	0x3d475f41	0.048674826
188	0x3dd94e9b	0.10610696
189	0xbe288d6d	-0.164602
190	0x3ccc2977	0.024922116
191	0x3c90fe80	0.01769948
192	0x3ec59b54	0.38595068
193	0xbe4a59ad	-0.19760771
194	0xbe72b881	-0.23703195
195	0xbd185eb0	-0.037199676
196	0x3d5a4639	0.053289626
197	0x3e6e4c2b	0.23271243
198	0x3d15fbdc	0.036617145
199	0xbdba8bed	-0.0910872
200	0x3dbd903c	0.09256026
201	0x3e1c7793	0.15279989
202	0xbdbc4c5d	-0.09194253
203	0xbe579dce	-0.21056291
204	0x3ece6275	0.40309492
205	0x3dfe7604	0.124248534
206	0xbb1be40b	-0.0023787047
207	0x3e128142	0.1430712
208	0x3e6ba513	0.2301219
209	0x3e48bd4a	0.19603458
210	0xbd86aec2	-0.06576301
211	0xbe134ad7	-0.14384018
212	0xbd6dcb1f	-0.05805504
213	0xbe01c4fa	-0.12672797
214	0x3d3271ff	0.043565746
215	0xbd34cd5a	-0.04414115
216	0x3e10eaf3	0.14152126
217	0x3e62742e	0.22114632
218	0xbe46a563	-0.19399028
219	0x3c852439	0.016252624
220	0xbe245a4a	-0.16050068
221	0xbd9ff29d	-0.07809947
222	0x3e1e9764	0.15487438
223	0x3e239cbf	0.15977763
224	0x3e296037	0.1654061
225	0x3e8312a2	0.25600153
226	0x3e0e8a4f	0.13919948
227	0xbd440de0	-0.047864795
228	0x3e418517	0.18898426
229	0xbebfab0a	-0.3743518
230	0xbecdfd73	-0.4023243
231	0x3d874a76	0.06605999
232	0x3e954fc6	0.29162425
233	0xbdddd28a	-0.10831173
234	0x3df2af5f	0.11849856
235	0xbe528bf3	-0.20561199
236	0xbdb95029	-0.090484925
237	0x3d94367f	0.07236957
238	0x3e1346f4	0.14382535
239	0xbe82ec41	-0.25570872
240	0x3d4bb531	0.049733344
241	0xbda0473f	-0.07826089
242	0xbd786596	-0.060643755
243	0x3dbee0aa	0.09320195
244	0x3cdbf57b	0.026850453
245	0x3daf7bde	0.08568548
246	0xbee6a48b	-0.4504741
247	0xbf026689	-0.50937706
248	0xbe2bc44d	-0.16774102
249	0x3e1a184a	0.15048328
250	0x3d3dfd66	0.046384238
251	0x3e901fbb	0.28149208
252	0xbd3e1bb7	-0.04641315
253	0x3e9fbbf0	0.31198072
254	0xbea5efa9	-0.3240941
255	0x3c8a42f4	0.016877629

linear1.bias f4 [256]
0	0x3d163141	0.036668066
1	0xbce1e1ae	-0.027573433
2	0x3be24720	0.0069054514
3	0xbdace6e7	-0.084424786
4	0xbcb48e06	-0.022040378
5	0xbd92a116	-0.07159631
6	0xbd40e949	-0.047097478
7	0xbd740192	-0.05957181
8	0xbd7da541	-0.061925177
9	0xbd70e26c	-0.058809683
10	0xbd53d32e	-0.05171507
11	0xbd49d3f2	-0.049274392
12	0xbce9fa53	-0.028561747
13	0xbd6b469e	-0.057440393
14	0xbd1bc288	-0.038027316
15	0xbcee279c	-0.029071622
16	0xbd765f80	-0.06014967
17	0xbd8407c6	-0.06446795
18	0xbcc13b89	-0.023587959
19	0xbcba8c4d	-0.022771979
20	0xbd804567	-0.062632374
21	0xbd71cc25	-0.059032578
22	0xbd522c09	-0.051311526
23	0x3b54553f	0.0032399443
24	0xbdacd93c	-0.08439872
25	0xbc776749	-0.015100309
26	0xbd2a81f3	-0.041627835
27	0xbd733075	-0.059372384
28	0xbcd7eb9c	-0.026357464
29	0xbd46ad4f	-0.048505124
30	0xbd8a89a7	-0.06764536
31	0xbc972115	-0.018448392
32	0xbd76a267	-0.060213473
33	0xbda28a86	-0.079365775
34	0xbda0e261	-0.07855678
35	0xbd8fa4d2	-0.07013859
36	0xbe0702a3	-0.131846
37	0xbd27cc96	-0.040966593
38	0xbdb1e11e	-0.08685516
39	0xbd1255f5	-0.035726506
40	0xbd8db5a7	-0.06919413
41	0xbd3c8e53	-0.04603417
42	0xbcec2a46	-0.028828751
43	0xbd0ccaa2	-0.034372933
44	0xbcd8a367	-0.026445104
45	0xbdd7b000	-0.10531616
46	0xbd037ff7	-0.03210446
47	0xbd93e3ea	-0.072212055
48	0xbd7d5c55	-0.061855633
49	0xbd177155	-0.036973316
50	0xbce6ca66	-0.028172683
51	0xbd341a9c	-0.04397069
52	0xbdb5a882	-0.08870031
53	0xbd0bb16b	-0.034104746
54	0xbcf82d61	-0.030295076
55	0xbd8ac90b	-0.06776627
56	0xbc629f37	-0.013831905
57	0xbd46eb76	-0.048564397
58	0xbd38e2e3	-0.04513825
59	0xbd9a329c	-0.07529184
60	0xbd7efdef	-0.06225389
61	0xbd614102	-0.054993637
62	0xbd36dcdd	-0.044644225
63	0xbd214915	-0.039376337
64	0xbd191a77	-0.037378754
65	0xbd68f4af	-0.056873973
66	0xbcf828b2	-0.030292843
67	0xbdf493a3	-0.11942222
68	0xbcec9371	-0.0288789
69	0xbdcbcbd2	-0.09950985
70	0xbde350fe	-0.110994324
71	0xbc106ced	-0.008815032
72	0xbc96d1f8	-0.018410668
73	0xbd7676d5	-0.06017192
74	0xbd352979	-0.044229005
75	0xbd15e8fa	-0.036599137
76	0xbd2fdf7c	-0.04293774
77	0xbd004828	-0.031318814
78	0xbc5f53dd	-0.013630834
79	0xbd27e334	-0.040988162
80	0xbdb56e40	-0.08858919
81	0xbde4b4ac	-0.11167273
82	0xbd87f9ef	-0.06639468
83	0xbcc7d39d	-0.024392897
84	0xbd23c1ca	-0.039979734
85	0xbd573ff7	-0.052551236
86	0xbd681d4f	-0.056668576
87	0xbd3c9d88	-0.04604867
88	0xbc77c914	-0.015123624
89	0xbd966c8c	-0.073449224
90	0x3c8afa02	0.016964916
91	0xbd07a606	-0.033117317
92	0xbd98a944	-0.0745416
93	0xbd7abcb4	-0.061215118
94	0xbc973544	-0.018458016
95	0xbcdf5e19	-0.027266549
96	0xbd5758fb	-0.052575093
97	0xbd556cd1	-0.05210573
98	0xbd042ae7	-0.032267477
99	0xbd9e4ed7	-0.07729881
100	0xbd6b6a7e	-0.057474606
101	0xbd5f874b	-0.054572385
102	0xbe3941b1	-0.18091466
103	0xbd60c519	-0.054875467
104	0xbd9a9dcb	-0.07549628
105	0xbcfd4b95	-0.03091983
106	0xbda6b670	-0.08140266
107	0xbe2073e5	-0.1566921
108	0xbd4986c0	-0.049200773
109	0xbd88988c	-0.06669721
110	0xbd699ff1	-0.057037298
111	0xbda0f45f	-0.0785911
112	0xbda37099	-0.07980461
113	0xbdc7fb4b	-0.09764727
114	0xbda063a6	-0.078315064
115	0xbda8317e	-0.08212565
116	0xbd84c4a9	-0.064828224
117	0xbd826532	-0.06366958
118	0xbd0c5601	-0.034261707
119	0xbca3cf85	-0.019996414
120	0xbc849b05	-0.0161872
121	0xbca940e4	-0.020660825
122	0xbce13de2	-0.027495328
123	0xbd1c95c2	-0.038228758
124	0xbd889c24	-0.066704065
125	0xbd0c6333	-0.03427429
126	0xbd8f8465	-0.07007674
127	0xbd702ace	-0.05863457
128	0x3989efcf	0.00026309348
129	0xbd303929	-0.043023262
130	0xbd10d91b	-0.035363298
131	0xbc890fa6	-0.016731095
132	0xbd4b922f	-0.04969996
133	0xbdff4bcb	-0.12465628
134	0x3d1954d9	0.037434433
135	0xbd3068bb	-0.04306863
136	0xbd432532	-0.047642894
137	0xbd2580ff	-0.040406223
138	0xbbf2049f	-0.007385805
139	0xbcaa220d	-0.02076819
140	0xbd36a7b4	-0.044593528
141	0xbd4796d2	-0.048727818
142	0xbd7fe59a	-0.062474824
143	0xbd92b2ba	-0.07162996
144	0xbd41dc9b	-0.047329526
145	0xbd8343da	-0.06409426
146	0xbd8d3682	-0.06895162
147	0xbd8140bc	-0.06311175
148	0xbdc3025e	-0.09521936
149	0xbda524d6	-0.080636665
150	0xbd3136eb	-0.043265264
151	0xbde19a49	-0.11015756
152	0xbd416ca1	-0.047222737
153	0xbd83d880	-0.064377785
154	0xbd5c0b76	-0.053721868
155	0xbdb5e47d	-0.08881471
156	0xbd85dfe2	-0.06536843
157	0xbc5b818a	-0.013397584
158	0xbc2d314d	-0.010570836
159	0xbd8e1775	-0.06938068
160	0x3cb2f5fe	0.021845814
161	0xbce62bdf	-0.028097091
162	0xbc92d42a	-0.017923433
163	0xbc7e3509	-0.015515574
164	0xbda43f44	-0.080198795
165	0xbdd7bdab	-0.10534223
166	0xbd8dcbc2	-0.06923629
167	0xbd4f1ed9	-0.050566528
168	0xbd2b37b8	-0.041801184
169	0xbc428166	-0.011871671
170	0xbd694873	-0.05695386
171	0xbcf3a1b9	-0.029740201
172	0xbd6867a2	-0.056739457
173	0xbcbc1238	-0.022957906
174	0xbd25ff55	-0.040526707
175	0xbd305288	-0.043047458
176	0xbd90799e	-0.07054447
177	0xbd1e5461	-0.03865469
178	0xbc8e42cd	-0.017365837
179	0xbd416a6a	-0.047220625
180	0xbd6cf612	-0.05785186
181	0xbd8d0d91	-0.06887353
182	0xbd42d44c	-0.047565743
183	0xbd769169	-0.060197268
184	0xbd0a1f56	-0.03372129
185	0xbd191f07	-0.037383106
186	0xbd64d316	-0.05586537
187	0xbd9657ac	-0.07340941
188	0xbcd6fe0a	-0.026244182
189	0xbd2bf743	-0.041983854
190	0x3a2dd86e	0.0006631677
191	0xbd916d6c	-0.07100949
192	0xbd662693	-0.05618913
193	0xbd8fc582	-0.070200935
194	0xbd4f1a81	-0.050562385
195	0xbd03473b	-0.032050353
196	0xbbc1dc99	-0.00591619
197	0xbd988a1b	-0.074482165
198	0xbd593771	-0.05303139
199	0xbd8f056a	-0.069834545
200	0xbcbd7d85	-0.023131141
201	0xbd5b36af	-0.053518947
202	0xbd042f55	-0.0322717
203	0xbd9fece4	-0.07808855
204	0xbd90dcd6	-0.07073371
205	0xbd8c24f4	-0.06842986
206	0xbcb3d3f6	-0.021951657
207	0xbd988c67	-0.074486546
208	0xbc347402	-0.011013987
209	0xbd84c2d8	-0.06482476
210	0xbd417655	-0.04723199
211	0xbc5c9f00	-0.013465643
212	0xbdb7df6e	-0.08978163
213	0xbc27fe0c	-0.010253441
214	0xbccc499b	-0.024937442
215	0xbd3a7ea3	-0.045530926
216	0xbd0eb27b	-0.03483818
217	0xbd7ec943	-0.062203657
218	0xbda1a2dd	-0.07892392
219	0xbd5c8bcc	-0.05384426
220	0xbd4d3aa5	-0.050104756
221	0xbd8a3407	-0.06748205
222	0xbd2ae0f5	-0.041718442
223	0xbcb15892	-0.021648679
224	0xbc907142	-0.01763213
225	0xbcec3cc4	-0.028837569
226	0xba94de2c	-0.0011357716
227	0xbd13ffe2	-0.0361327
228	0xbbd9fc58	-0.006652396
229	0xbd8d130b	-0.06888398
230	0xbd3eb817	-0.04656228
231	0xbd2841c7	-0.041078355
232	0xbd362c2f	-0.04447573
233	0xbda8b6f6	-0.08238022
234	0xbd75f0a5	-0.06004395
235	0xbd205ed7	-0.039152946
236	0xbd8da5e8	-0.0691641
237	0xbd087eee	-0.033324175
238	0xbd65fb2c	-0.05614774
239	0xbdb230cf	-0.08700716
240	0xbda313df	-0.079627745
241	0xbd29cd13	-0.04145534
242	0xbd42c27f	-0.047548767
243	0xbd185a18	-0.037195295
244	0xbcd30be7	-0.025762511
245	0xbd991574	-0.07474795
246	0xbda6751d	-0.08127806
247	0xbd8b83a8	-0.06812221
248	0xbd829806	-0.063766524
249	0xbd9438c5	-0.072373904
250	0xbcb542d9	-0.022126602
251	0xbd66e3e2	-0.05636967
252	0xbd82660f	-0.063671224
253	0xbd631bad	-0.055446316
254	0xbdb0364e	-0.08604108
255	0xbd4135f0	-0.04717058

linear2.weight f4 [80, 256]
0	0xbcf136a6	-0.029445004
1	0xbc246472	-0.010033714
2	0x3ccb907e	0.024849173
3	0xbc8c8bf4	-0.017156579
4	0xbc51cfc9	-0.0128058875
5	0xbcbf8943	-0.023380881
6	0x3e2893ac	0.16462582
7	0xbd81977c	-0.063277215
8	0xbc946369	-0.018113809
9	0xbbeaf99f	-0.0071708704
10	0xbcee4dde	-0.029089864
11	0xbc1c3df9	-0.00953626
12	0xba290ed9	-0.0006449051
13	0xbc339527	-0.010960854
14	0x3d72b1a3	0.05925144
15	0xbb4e65c5	-0.0031493765
16	0x3e0b3aeb	0.13596694
17	0xbd934c4c	-0.07192287
18	0xbd30884c	-0.043098733
19	0x3cfdb489	0.030969875
20	0xbd69a89b	-0.05704556
21	0x3bb72360	0.005588934
22	0xbcc9c2af	-0.024628965
23	0xbc639f7e	-0.013893006
24	0x3e41ad07	0.18913661
25	0xbd3b8655	-0.045782406
26	0x3d84bff8	0.06481928
27	0xbc0c2e94	-0.008556027
28	0x3cabd188	0.020973936
29	0xbcee09ea	-0.029057462
30	0x3d80a5ca	0.06281622
31	0x3c3bcc00	0.011462212
32	0x3cd5cc91	0.026098521
33	0xbce3d948	-0.027813569
34	0xbd1174e4	-0.035511866
35	0xbdbee4ed	-0.09321008
36	0x3d815fdd	0.063171126
37	0x3d7bf9a8	0.061517388
38	0x3cae14cb	0.02125015
39	0x3c850223	0.01623637
40	0x3965560e	0.000218712
41	0x3d627fd3	0.055297684
42	0xbb42e74a	-0.002973991
43	0xbd27496f	-0.040841516
44	0x3c705d0f	0.014670624
45	0x3d3d42fe	0.046206467
46	0x3d90d247	0.07071357
47	0x3c98bf37	0.018645866
48	0xbdaee8b1	-0.08540476
49	0xbc8604e7	-0.01635976
50	0xbd282cf2	-0.04105849
51	0x3da51ad7	0.0806176
52	0x3da85062	0.08218457
53	0xbd4ed93e	-0.050500147
54	0x39e82cbc	0.00044283818
55	0xbc8ac0fc	-0.016937725
56	0xbd731c68	-0.059353262
57	0x3c8293f7	0.015939696
58	0xbd37365c	-0.044729576
59	0x3d849753	0.06474175
60	0xbdbd4445	-0.09241537
61	0xbb618901	-0.0034413936
62	0xbc27d32f	-0.010243221
63	0x3cb11092	0.021614347
64	0x3d1e2731	0.038611595
65	0x3d359682	0.04433299
66	0xbd0b9531	-0.034077827
67	0xbd7490b1	-0.0597083
68	0xbd9a8cee	-0.075464115
69	0x3d26b67f	0.040701386
70	0x3d68299c	0.056680307
71	0x3d2b1458	0.04176745
72	0xbb73b30d	-0.003718558
73	0x3bb3f4e2	0.005491839
74	0xbba46c93	-0.005017826
75	0xbc15d7ed	-0.009145719
76	0xbdbccb19	-0.09218425
77	0x3d09340b	0.033496898
78	0x3c81728e	0.015801694
79	0x3c9e6946	0.019337308
80	0x3c1741a0	0.009231955
81	0xbdb60cad	-0.088891365
82	0x3b5f3515	0.003405874
83	0x3d032ecf	0.032027062
84	0xbd2ee91c	-0.04270278
85	0x3d38ddbc	0.045133337
86	0xbaf4da40	-0.0018680766
87	0xbb39f038	-0.0028371941
88	0xb9d06e8c	-0.00039755215
89	0xbd38c784	-0.045112148
90	0x3d12d359	0.035846088
91	0x3da7e9ed	0.08198915
92	0xbd2a6c86	-0.041607402
93	0xbcf5891b	-0.029972604
94	0xbc7eac9b	-0.015544082
95	0x3c8b4976	0.017002802
96	0xbd2fa47d	-0.042881478
97	0xbd831731	-0.06400908
98	0xbd8638be	-0.065537915
99	0x3c6d6a8b	0.014490734
100	0xbc8d2065	-0.017227361
101	0xbc3b6169	-0.011436799
102	0x3d1bb195	0.038011152
103	0x3d85863b	0.06519743
104	0xbdbf29ab	-0.093341194
105	0x3bcbaeae	0.006215892
106	0xbd502662	-0.050817855
107	0x3ea1afa0	0.31579304
108	0x3ceead7c	0.029135458
109	0xbc421cee	-0.011847718
110	0xbd8d3cc6	-0.06896357
111	0xbda9010d	-0.082521535
112	0xbce745e4	-0.028231569
113	0x3e2e744d	0.17036553
114	0xbcb68f00	-0.022284985
115	0x3d7e8d25	0.062146325
116	0xbd1f03e8	-0.038822085
117	0xbc4092e2	-0.01175377
118	0x3c860789	0.016361015
119	0xbd5434b1	-0.051808063
120	0xbc244fd5	-0.010028799
121	0x3dab5a59	0.08366842
122	0xbcbb9197	-0.022896571
123	0x3c986291	0.018601688
124	0xbdab9d18	-0.08379573
125	0xbd8ba2ed	-0.06818185
126	0x3d0954e5	0.033528227
127	0xbd3f3556	-0.046681724
128	0xbca3c893	-0.019993102
129	0x3d6e02bc	0.058108076
130	0xbc6ce326	-0.014458453
131	0x3cc20fe4	0.023689218
132	0xbc8b5ae0	-0.017011106
133	0x3d4ed22b	0.0504934
134	0xbc7cc482	-0.0154277105
135	0x3d8c3f3d	0.06847999
136	0xbc2b788f	-0.010465755
137	0xbc34f3db	-0.011044468
138	0x3cdeede0	0.027213037
139	0x3d5accbf	0.053417917
140	0xbd95495f	-0.07289385
141	0x3ad79f2d	0.0016450636
142	0xbc2ab6a1	-0.010419519
143	0xbd847ef9	-0.064695306
144	0xbc98fbe3	-0.018674796
145	0x3ccafb3a	0.024777997
146	0x3c913cf7	0.017729266
147	0xbd7c6eb8	-0.061629027
148	0xbac572d3	-0.0015064128
149	0xbcf4d772	-0.029887889
150	0x3cbe6ad3	0.023244297
151	0xbdb501d6	-0.08838241
152	0x3d8eb396	0.06967847
153	0xbd97a6bd	-0.0740485
154	0x3c432f5b	0.011913146
155	0xbdbb6cb8	-0.09151596
156	0x3b6e7577	0.0036385932
157	0xbc77d63f	-0.015126764
158	0x3d30e968	0.043191344
159	0xbc21ffc9	-0.009887644
160	0xbd15d910	-0.03658396
161	0xbd90f68b	-0.07078274
162	0xbc035fa1	-0.008018405
163	0x3d4aea86	0.049540065
164	0x3d176bf0	0.03696817
165	0x3e1d3e96	0.15355906
166	0xbb96f3cb	-0.004606699
167	0x3ba18e0f	0.004930265
168	0x3c586d65	0.013209675
169	0x3bfd4583	0.0077292337
170	0xbc200e03	-0.009768966
171	0xbdf9bc21	-0.12194086
172	0xbd366436	-0.044529162
173	0x3c4cfd16	0.012511512
174	0xbd729639	-0.059225295
175	0xbd431c36	-0.047634326
176	0xbd00419a	-0.031312563
177	0x3aa36e80	0.0012468845
178	0x3d4f2b26	0.05057826
179	0xbd213c3a	-0.039364077
180	0x3cc9af08	0.024619594
181	0x3e0569ab	0.1302859
182	0x3d89d1c5	0.067294635
183	0xbc72a452	-0.014809685
184	0xbd2ee809	-0.042701755
185	0x3b86c7ff	0.004113197
186	0xbd06ec81	-0.03294039
187	0xba73e34e	-0.00093035854
188	0x3dd0bd2e	0.10192333
189	0xbd8709b7	-0.0659365
190	0x3c576ac7	0.013148016
191	0x3ca1f0d6	0.01976816
192	0xbaa726ba	-0.001275263
193	0x3da920a1	0.082581766
194	0x3bc5b735	0.006033803
195	0xbd7b6fe7	-0.061386015
196	0x3d034c01	0.032054905
197	0xbd3cf25c	-0.04612957
198	0x3c59c976	0.013292661
199	0xbd17353c	-0.036916003
200	0x39594d1f	0.00020723463
201	0xbb00f887	-0.0019679384
202	0x3ce6c61b	0.028170636
203	0xbd7d013f	-0.061768766
204	0x3d0d139e	0.034442537
205	0xba2e7370	-0.0006654775
206	0x3d2a7a04	0.04162027
207	0x3d976549	0.073923655
208	0x3beda2a8	0.007252056
209	0xbbb664a6	-0.0055661974
210	0x3caae999	0.020863341
211	0x3c21d7ad	0.009878081
212	0x3d3ad7e0	0.04561603
213	0xbd4e06ec	-0.05029957
214	0x3d054e6d	0.032545496
215	0x3cbde58b	0.023180744
216	0xbd97d7a9	-0.07414181
217	0xbca1e840	-0.019764066
218	0x3e5671e9	0.20941891
219	0x3ce013cb	0.027353188
220	0xbc8989aa	-0.016789276
221	0xbd0583b0	-0.03259629
222	0xbc84fbaf	-0.016233293
223	0xbe7aacb9	-0.24479951
224	0xbd3d7f05	-0.046263713
225	0x3d577625	0.052602906
226	0xbbb84360	-0.005623266
227	0xbda1211f	-0.078676455
228	0x3cdba135	0.026810268
229	0x3c806444	0.01567281
230	0x399d2768	0.00029974733
231	0xbdb95654	-0.09049669
232	0xbbee5253	-0.0072729974
233	0x3cd78e87	0.02631308
234	0xbd78b589	-0.06072
235	0xbbd08a3a	-0.006364134
236	0x3d480d37	0.048840728
237	0xbd6820ae	-0.05667179
238	0xba514585	-0.00079830765
239	0xbd5db39f	-0.05412638
240	0xbcc99335	-0.024606327
241	0xbd2870bc	-0.041123137
242	0xbdbff18b	-0.093722425
243	0xbb4ddcd4	-0.0031412141
244	0x3d30caf4	0.0431623
245	0xbcc68f37	-0.024238212
246	0xbd92e7cb	-0.07173117
247	0xbd9f272b	-0.077711426
248	0x3d2d7796	0.042350374
249	0xbd0164f8	-0.031590432
250	0xbcb504b1	-0.022096964
251	0xbd4eaf79	-0.050460313
252	0xbd6a11a1	-0.05714572
253	0x3d71baba	0.059015967
254	0xbbdc685d	-0.0067263083
255	0x3c53bd94	0.012923617

linear2.bias f4 [80]
0	0xbdb24ba8	-0.087058365
1	0x3c3d1ac6	0.011542028
2	0xbcd1a576	-0.025591593
3	0x3d247e50	0.040159523
4	0x3c026f3a	0.007961089
5	0xbdc5e21b	-0.09662267
6	0xbd0f06ce	-0.0349186
7	0x3db5d3d8	0.088782966
8	0xbd295034	-0.041336253
9	0xbdcce937	-0.1000542
10	0x3d0e8f20	0.034804463
11	0xbc9dc917	-0.019260926
12	0x3d1094a2	0.035297997
13	0x3d81a43b	0.063301526
14	0x3c054fdf	0.0081367185
15	0xbd067e3c	-0.03283523
16	0x3d2e819b	0.04260407
17	0x39d18e72	0.00039969716
18	0x3d13d42b	0.03609101
19	0xbd8eb2c8	-0.069676936
20	0xbd16f8c0	-0.03685832
21	0xbd44b53d	-0.048024405
22	0x3d1c3bac	0.038142845
23	0xbd22814a	-0.03967408
24	0xbdd2c769	-0.10291941
25	0xbc80b531	-0.015711399
26	0x3d1f9075	0.038956124
27	0x3dcc79b0	0.099841475
28	0xbd37b546	-0.04485061
29	0x3bf54657	0.007485192
30	0x3bcc5f5a	0.0062369527
31	0x3caa7cd5	0.020811478
32	0x3c84e744	0.016223557
33	0x3db54d8a	0.0885268
34	0xbbe8fc27	-0.007110137
35	0xbb28ff68	-0.0025787
36	0x3d542664	0.051794425
37	0x3c94eaf0	0.018178433
38	0x3c67e155	0.014152844
39	0x3c9b3815	0.01894764
40	0x3d398bd8	0.04529938
41	0x3d0945e3	0.033513915
42	0x3ba9a8fa	0.0051776143
43	0xbd077ebb	-0.033079844
44	0xbbac9487	-0.0052667293
45	0x3c9bb2a4	0.01900608
46	0x3a13e077	0.0005641053
47	0xbbe48837	-0.006974246
48	0xbbc4f43e	-0.0060105613
49	0xbc873c06	-0.016508114
50	0xbdaaa819	-0.08332843
51	0x3c8bf488	0.017084375
52	0x3c9137d2	0.017726813
53	0x3c9cbd70	0.0191333
54	0xbc36458c	-0.01112498
55	0xbd26158b	-0.04054789
56	0xbd62fea6	-0.055418633
57	0x3c3b2e6b	0.011424641
58	0x3c623620	0.01380685
59	0xbcaf0c5b	-0.021368196
60	0xbd9791de	-0.07400869
61	0xbd56cb33	-0.05243988
62	0xbb7b12a9	-0.0038310683
63	0xbaaac7bb	-0.0013029495
64	0x3cab486e	0.02090856
65	0x3d29c87d	0.041450966
66	0x3d4a1cfa	0.04934404
67	0x3b8c2951	0.0042773862
68	0xbcc699c7	-0.024243249
69	0xbca95214	-0.02066902
70	0xbbdc3212	-0.006719836
71	0x3cc6e1fc	0.02427768
72	0x3c50f410	0.012753502
73	0xbc7d3a31	-0.015455768
74	0xbc13761d	-0.009000328
75	0x3d00a3c2	0.03140617
76	0x3d11ea04	0.035623565
77	0x3d82a91d	0.06379912
78	0x3d957ca5	0.07299165
79	0xbd76fb16	-0.060298048

weight f4 [1, 768]
0	0x3caf4faf	0.0214003
1	0x3c5d1999	0.0134948725
2	0xbc645b1c	-0.013937738
3	0x3b368437	0.0027849802
4	0x3c40ec8b	0.011775146
5	0x3c0c0d27	0.008548058
6	0x3c36771f	0.011136799
7	0xbb97294d	-0.0046130777
8	0xbc8d2552	-0.01722971
9	0x3cc4506a	0.023964126
10	0xbcc2b749	-0.023769038
11	0x3c10d39a	0.008839512
12	0xbc2862b5	-0.01027744
13	0x3ba2bbd7	0.00496624
14	0x3c8848a2	0.016636197
15	0xbc902121	-0.017593922
16	0x3cb8d2ee	0.022561517
17	0x3cd1f185	0.02562786
18	0x3c0652a2	0.008198412
19	0x3b9185cd	0.004440999
20	0x3cbdaf0f	0.023154764
21	0xbcadbe48	-0.021208897
22	0xbbedb5b8	-0.0072543286
23	0x3c59c4c0	0.013291538
24	0xbb855d16	-0.0040699346
25	0x3c0fa07e	0.008766292
26	0x3c0d3dc3	0.008620682
27	0xbc9886fc	-0.018619053
28	0xbcbf8ecd	-0.023383522
29	0x3c3e70e7	0.011623598
30	0xbcbabfcd	-0.022796536
31	0xbd3b0c36	-0.045665942
32	0xbc9e676a	-0.019336421
33	0x3c074fb6	0.008258751
34	0xbca38219	-0.019959496
35	0xbc95e369	-0.018296914
36	0xbbf78d49	-0.0075546843
37	0xbc9de869	-0.01927586
38	0x3c966c05	0.018362055
39	0xbcd28b44	-0.025701173
40	0xbb9b2801	-0.0047349934
41	0x3c78a980	0.015177131
42	0xbb45a2b8	-0.0030156802
43	0xbc24a7e7	-0.010049797
44	0x3b0094c5	0.0019619924
45	0x3cddf87f	0.027096031
46	0x3cd0fad4	0.02551023
47	0x3bcf10fd	0.006319164
48	0x3cdebb49	0.027188914
49	0xbc28bc8f	-0.010298862
50	0x3ca45434	0.020059682
51	0x3b9c7321	0.0047744666
52	0x3c9718d8	0.018444464
53	0xbb4438da	-0.0029941113
54	0x3c6ac219	0.014328503
55	0xbca467aa	-0.020068962
56	0xbc1cfed5	-0.009582241
57	0xbccd0481	-0.025026562
58	0x3b036bd8	0.0020053294
59	0xba92862d	-0.0011178904
60	0xba99e7fa	-0.0011742108
61	0xbc829d2e	-0.01594409
62	0xbd33de68	-0.043913275
63	0xbcab9342	-0.020944241
64	0xbc9d0910	-0.01916936
65	0xbccff0be	-0.02538335
66	0xbbbd1590	-0.0057703927
67	0x3cc3e80e	0.023914363
68	0x3cd6197d	0.0261352
69	0x3c96b8e0	0.018398702
70	0x3bb482b0	0.005508743
71	0x3cbeafcc	0.023277186
72	0x3bd7ed1d	0.0065895454
73	0xbc927038	-0.017875776
74	0x3b88eeca	0.0041788565
75	0xbc3d947a	-0.011571044
76	0xbcbeacbd	-0.023275727
77	0xbb5495be	-0.0032437886
78	0xbc6e4631	-0.014543102
79	0x3c8a9f87	0.016921772
80	0xbcb1154f	-0.021616606
81	0x3c97be53	0.01852337
82	0x3ccb8624	0.024844237
83	0x3ba26ecc	0.0049570557
84	0xbcc13f66	-0.023589801
85	0xbc2c26b3	-0.0105072735
86	0x3cc43e03	0.02395535
87	0x3c80d57b	0.015726795
88	0x3c820687	0.015872253
89	0xbb79b31e	-0.0038101147
90	0x3c89769f	0.016780196
91	0xbb93b39c	-0.004507495
92	0xbc49477c	-0.01228511
93	0x3b8c1906	0.004275444
94	0xbc326079	-0.010887259
95	0x3c37fb29	0.011229315
96	0x3b64b851	0.00348999
97	0xbc2b1eea	-0.010444382
98	0x3b8f14e0	0.004366502
99	0xbc927561	-0.017878236
100	0xbce3b372	-0.027795527
101	0xbb108841	-0.002205387
102	0x3c95d49a	0.018289853
103	0xbc3a6597	-0.01137676
104	0x3c88c264	0.016694255
105	0xbba3184d	-0.004977262
106	0x3c56b02a	0.013103524
107	0xbcacca98	-0.021092698
108	0x3b7d6e8c	0.0038670627
109	0xbc2ad6c2	-0.010427179
110	0xbca8b65e	-0.020594772
111	0xbcbf1f5d	-0.023330385
112	0x3c93316a	0.017967898
113	0xbc294e57	-0.010333619
114	0xbb8361ff	-0.004009485
115	0x3c321e8d	0.010871542
116	0xbcd2045f	-0.02563685
117	0x3c531fa0	0.012885958
118	0x3c867a8c	0.016415857
119	0x3ccbd121	0.024879994
120	0x3b80e26b	0.003933241
121	0xbc8f1eb1	-0.01747069
122	0x3b896b4b	0.0041936985
123	0x3b33b1ef	0.002741929
124	0xbc6dc304	-0.014511827
125	0x3b9120b3	0.004428947
126	0xbc29fd4e	-0.010375334
127	0x3c80c000	0.015716553
128	0xbcb92e43	-0.022605067
129	0xbc93bc8b	-0.01803424
130	0x3ca5f8ab	0.020260176
131	0xbc3d02db	-0.011536325
132	0x3ce22f7b	0.027610531
133	0xbbcc41ec	-0.0062334444
134	0x3c87fd2a	0.01660021
135	0x3b0539eb	0.0020328711
136	0xbcb57fcc	-0.022155665
137	0xbc096d8a	-0.008387933
138	0x3cc2f045	0.02379621
139	0xbc630fb1	-0.013858722
140	0xbc56a5d2	-0.013101058
141	0x3c0768b8	0.008264713
142	0x3ce34122	0.027741019
143	0x39580de6	0.00020604543
144	0x3a9fe1a0	0.0012197979
145	0x3be390de	0.0069447597
146	0x3a387575	0.00070365454
147	0x3c87ee69	0.016593175
148	0x3c332a60	0.010935396
149	0xbcd048fb	-0.025425425
150	0x3b2bb5f0	0.0026200972
151	0x3c8fece3	0.017569011
152	0xbc9b283c	-0.018940084
153	0x3cbd4bc6	0.02310742
154	0xba9444fe	-0.0011312065
155	0xbc5496cf	-0.012975409
156	0xbb4c1428	-0.0031139944
157	0x3b7abb98	0.0038258787
158	0x3ced780e	0.02898791
159	0x3c8dbae0	0.017301023
160	0xbc6db0fa	-0.0145075265
161	0x3bd14793	0.006386706
162	0xbc415216	-0.011799356
163	0xbc4965b1	-0.0122923115
164	0xbcb13e84	-0.021636255
165	0x3b074246	0.0020638867
166	0x3ce43b52	0.027860317
167	0xbbd4be7a	-0.006492433
168	0x3c2f6a52	0.010706501
169	0x3c4348ae	0.011919184
170	0xbac44793	-0.0014974944
171	0x3c84132a	0.01612242
172	0xbc696fd9	-0.014247858
173	0x3ca5c301	0.020234587
174	0x3a777504	0.0009439739
175	0x3bea0a0f	0.0071423124
176	0x3c7da142	0.015480341
177	0x3afb0a0e	0.0019152777
178	0x3a5eff33	0.00085066556
179	0x3c342258	0.010994516
180	0xbbd26a42	-0.0064213583
181	0x3c03c4b1	0.0080425
182	0x3b958c3c	0.0045638364
183	0xbc4ea21d	-0.012611893
184	0xbca35cc1	-0.01994169
185	0x3cb0ff49	0.021606104
186	0x3cb4fe9f	0.022094069
187	0xbc6653d2	-0.01405807
188	0x3ce3b4b0	0.02779612
189	0x3c5a0323	0.013306412
190	0xbcbf4ac1	-0.023351075
191	0x3c85aee3	0.016318744
192	0xbccf1134	-0.025276758
193	0x3c78ce73	0.01518594
194	0xbb6cd1a3	-0.0036135695
195	0xbc1fd14a	-0.009754488
196	0xb8cebe8f	-9.85834e-05
197	0xbbbb9a15	-0.005725155
198	0x3c490df8	0.012271397
199	0x3c3bd739	0.011464887
200	0x3c508c75	0.0127288
201	0x3cacc813	0.021091497
202	0xbc0fb196	-0.008770367
203	0x3cd29477	0.02570556
204	0x3c68152d	0.014165205
205	0xbb3be1dd	-0.002866856
206	0xbb8ff210	-0.00439287
207	0xbca46780	-0.020068884
208	0x3c641a0f	0.0139222285
209	0x3b8fab54	0.0043844376
210	0xbc970ea9	-0.018439608
211	0x3cd324ee	0.025774445
212	0x3c681696	0.014165541
213	0x3c57b1f8	0.01316499
214	0xbc879325	-0.016549656
215	0xbb9d5056	-0.0048008366
216	0xbb0fcad4	-0.0021940963
217	0x3caa53a3	0.020791834
218	0x3c634168	0.0138705745
219	0x3c69b75a	0.014264906
220	0x3c9c2226	0.019059252
221	0x3cac8181	0.021057846
222	0xbc0a2c63	-0.008433434
223	0x3cdfaa2e	0.027302828
224	0x3c81e75e	0.015857395
225	0x3c7c28c6	0.0153905805
226	0xbc1e18e7	-0.009649492
227	0x3b41f079	0.0029592796
228	0x3cce336c	0.025171004
229	0xbbd2f1c5	-0.0064375126
230	0xb7c69165	-2.3671144e-05
231	0x3a882028	0.001038556
232	0xbc9e6022	-0.01933295
233	0xbc91267c	-0.017718546
234	0x3c0361e6	0.008018946
235	0xbc3af902	-0.011411907
236	0xbc31e7a7	-0.010858453
237	0x3cc013f9	0.023447024
238	0x3cbf469a	0.023349095
239	0xbc82ad8a	-0.01595189
240	0xbbd0e981	-0.006375492
241	0x3c8f3cc3	0.017485028
242	0x3c843914	0.016140498
243	0xbab3b6d8	-0.0013711108
244	0xbc0e652a	-0.008691112
245	0x3cfe0010	0.03100589
246	0xbca2c248	-0.019868031
247	0x3b900c49	0.0043959958
248	0xbc76deb7	-0.015067748
249	0x3c4cf6f2	0.012510048
250	0x3c380f5d	0.011234132
251	0x3bb0638a	0.0053829597
252	0xbcfb7ed2	-0.030700121
253	0x3c6a59fe	0.014303682
254	0x3cea63a5	0.028611967
255	0xbc9022f1	-0.017594786
