SPMLUA_outputs/coco3/Train_with_full_labels_L2loss/checkpoint_best.pth (torch, 636943 bytes, 7 tensors)

weight f4 [60, 180]
00000000: 3762 2d3f 4039 edbc d7f3 11bd f0d4 3dbd
00000010: 06b8 a3bc 62c4 2bbc 7abf 31bd 4b32 ddbb
00000020: 46bd 1abb 9ec9 dc3b 3785 0dbd 306a cb38
00000030: 8578 cfbd dcdc 63bc d9fb a6ba 5739 493a
00000040: 64a4 f43a 6904 64bc 0e94 7f3c 2ae2 b63c
00000050: c1ac 59bc e4b9 a53a 6c55 d6bc 1f87 a73c
00000060: 6fe7 063c 618b 6c3c 7ea9 72bc 1dcd 363b
00000070: 503c 403b 4d91 53bc 200b 9dbb a64d 22bb
00000080: aeb1 4e3a 5307 6b3c a2ec 1ebc 39c3 96bc
00000090: 4526 913a 2c34 21bc 4d63 19bd 8697 87bc
000000a0: f15f ff3b c5f8 51bb d84f 64bb 67a6 f23b
000000b0: db65 83bd 7542 b93c ebd8 d63b 5c64 fe39
000000c0: 0c9b f83b 36c8 84bc d5bd a13c 8d7c 37bc
000000d0: dc39 6b3b cfb1 f1bb 8160 03bd 3c7a 6ebc
000000e0: e76b bc3b 2f70 a0bc ec29 d9bc 48c6 8dbb
000000f0: bdcf 253c 6214 073d 36b1 20bd 7d02 f4bb
00000100: b83d 873b f41b fc3b 6bcd 4c3d f3d0 aabc
00000110: febd c9bc 958b 433d c2f2 43bc e171 51bb
00000120: 1588 2939 a8b8 01bd 15b9 26bc 59ec 9abb
00000130: d780 47bb cc9e 47bd 28eb 253d 6d67 75bd
00000140: 6a4a 663d af79 a8bc c3c9 093c 5e32 2dbd
00000150: 230a f13c 431c d23c 9757 7cbc e1db 2bbc
00000160: ec1b 77bc ef63 cabc e077 30bd 6f35 89bb
00000170: 9378 2a3c 9091 bcbc 4332 f63c 60c4 b5bc
00000180: 647f 843c e579 083c 5647 8dba 2daf 8c3b
00000190: ee5e 3bbc 6d1a 203c 27e7 ca3c fa79 86bc
000001a0: 562f 95bc 975b 8fbc 12b7 94bc 2748 7c3d
000001b0: 4f09 c93c 39f9 283b 2b24 1e3d 5ec0 993c
000001c0: 34ee fd3c 1fd4 db3b e065 2c3d 3801 8139
000001d0: c188 d2bc 4199 c4bc 340b 8cbb c1b9 a2bb
000001e0: 0d10 483c 62dd b83c 3f9e 8f3c 1428 e43c
000001f0: af54 1dbc 23ae a63c 4b3a 0a3d 5c96 a53c
00000200: a02e b73b 9fd4 1b3c 6683 fcbb fc9e 0c3d
00000210: db45 e53b 7e4d e1bc 1467 143c 8026 963b
00000220: 7d87 2cbd d267 82ba a46e 7b3c 9094 593c
00000230: 671d e03b 7959 003d d2e1 a73c 0d44 29bc
00000240: b9bf 47bb 2c52 073b aaab 80bb a077 093c
00000250: 85fd 53bc ed66 b43a 0e5b 27bc 1cf6 dfbc
00000260: 240a 5e3c 10b8 2b3b 2bfd aabb 28fc 403b
00000270: b025 e8bc 8d5a a0bc f2b0 f9b9 3bbb 7c3b
00000280: ad9a ebba b7a1 d13c 4700 a1bc 83bd 403c
00000290: 8f52 b1bc 339f 083c 0af8 b53c b30b 06bc
000002a0: f603 c6bb b53f 173d a95c 403c cf9c 8e3c
000002b0: 3e8c 483c eead 4c3d 7d9f 83bb 9538 94bc
000002c0: 6337 d33b b6f1 07bc 851f 98bb 09c9 00bd
000002d0: 383c 74ba 50cd 883e 6dff e7ba 225a a7bb
000002e0: 07ac d6ba 57b6 adb9 7a02 aabb 9bfc 273b
000002f0: 7645 2f3b bd6f 05bb 4e90 edbb e823 5cbb
00000300: 17aa b2bc 22f6 b33b d87f 45bc 53b1 a23b
00000310: ae7a 573b 358e c8b8 44af 353c 13a1 e139
00000320: 0340 dbbb c0cd bf3b 97ee a83b 36f7 a43b
00000330: 465f 18bc f861 4e3b ccb8 52ba d06c 3f3b
00000340: abce 87ba ab93 f9bb a320 94bb df3a 5fbb
00000350: c2f8 f5ba 995f 123c 041a 61bb a214 e4ba
00000360: 2720 2f3b 1196 36bb 6e0a 8fbb 0b06 a33a
00000370: a022 6fbb 68ea 353a 12e7 a9ba aa9d 2a3c
00000380: 1d92 bcbc 2cd3 103c 9343 df3b fca0 693b
00000390: d446 433b 1177 713b 5890 a93b dba2 853b
000003a0: 4572 8a3b 737a bc3a 27be 87bc 74b1 2bbb
000003b0: c02a cc3b de9d a3bd 68a0 b1bc 70b7 66bb
000003c0: 77a8 6cbe 19aa db3d 1636 2abe d0ef 8abd
000003d0: c97b fa3d d053 25bd 64aa 8dbd ec00 343e
000003e0: c629 debd 86c4 a1be 1035 8abe 77f0 f63d
000003f0: b875 48be e81d 6c3d bccc 4a3d 19f4 31be
0.6772799 -0.028957963 -0.035632934 -0.04634565 -0.01998521 -0.010483833 -0.043395497 -0.00675038
-0.002361135 0.006737902 -0.03455087 9.699573e-05 -0.10130409 -0.013907637 -0.0012739851 0.0007676086
0.0018664715 -0.013917067 0.015599264 0.02232464 -0.013285817 0.0012643901 -0.02616378 0.020450173
0.008233889 0.014437527 -0.014810918 0.0027893253 0.0029332824 -0.01291306 -0.004792586 -0.002476552
0.00078847527 0.014345008 -0.009699972 -0.018403636 0.0011074027 -0.009839099 -0.037448216 -0.016551744
0.0077934195 -0.0032039147 -0.003483763 0.0074050906 -0.06415912 0.022614697 0.0065566204 0.0004852143
0.0075868424 -0.01620875 0.01974384 -0.011199129 0.0035892641 -0.0073759328 -0.032074455 -0.01455551
0.0057501676 -0.019584743 -0.026509248 -0.0043266155 0.010120329 0.032978423 -0.0392315 -0.0074465857
0.0041272305 0.007693762 0.05000059 -0.020851588 -0.024626728 0.047740538 -0.011959733 -0.0031958746
0.0001616779 -0.031670243 -0.010175963 -0.004727882 -0.0030441785 -0.048735425 0.040507466 -0.059913088
0.05622331 -0.020565836 0.00840992 -0.042284362 0.029423779 0.025648242 -0.015401742 -0.010489435
-0.015082341 -0.024705855 -0.04308307 -0.004187278 0.010404724 -0.023018628 0.030053264 -0.022188365
0.016174026 0.008329843 -0.0010778706 0.0042933435 -0.011436207 0.009771925 0.024768425 -0.016415585
-0.018211048 -0.017499728 -0.018153701 0.061592247 0.024540571 0.0025783314 0.03860871 0.018768486
0.030997373 0.0067086364 0.042089343 0.00024605705 -0.025699975 -0.023998858 -0.0042737965 -0.0049659912
0.012210858 0.022566501 0.017531512 0.027851142 -0.00960271 0.020346707 0.033747 0.020213298
0.005590275 0.009511142 -0.0077060936 0.034331307 0.006996853 -0.027502771 0.009057779 0.0045822263
-0.0421214 -0.0009949154 0.015346203 0.013280049 0.0068394425 0.031335328 0.020493422 -0.010331166
-0.0030479266 0.0020648343 -0.003926714 0.008390337 -0.012938862 0.0013763584 -0.01021458 -0.027339034
0.013552222 0.002620224 -0.0052181683 0.0029447172 -0.028338283 -0.019574428 -0.00047624815 0.0038563746
-0.0017975174 0.025589807 -0.019653453 0.011763933 -0.021645812 0.008338737 0.022213 -0.0081815
-0.0060429526 0.03692599 0.011740842 0.017408757 0.012240468 0.04997056 -0.004016815 -0.018093387
0.0064458116 -0.0082973745 -0.0046424293 -0.031441722 -0.00093168346 0.2671914 -0.0017700024 -0.00510718
-0.0016378172 -0.00033132985 -0.0051882835 0.0025632742 0.0026744283 -0.002036079 -0.0072498685 -0.0033590738
-0.02180962 0.005491988 -0.012054406 0.0049649864 0.003287952 -9.563231e-05 0.01108915 0.00043035354
-0.0066909804 0.0058533847 0.0051553953 0.0050343527 -0.009300059 0.00314915 -0.0008038401 0.0029209144
-0.0010361274 -0.0076164803 -0.004520492 -0.003406219 -0.0018766152 0.008933925 -0.0034347782 -0.0017401169
0.0026722045 -0.0027860443 -0.004365257 0.0012437714 -0.0036489144 0.00069395313 -0.0012962541 0.010413567
-0.023018891 0.00883941 0.0068134754 0.0035648933 0.0029796856 0.003684465 0.005174678 0.004078252
0.004225048 0.0014379754 -0.016570164 -0.00261983 0.006230682 -0.07989095 -0.021682933 -0.0035204552
-0.23111139 0.10725803 -0.16622195 -0.06784022 0.122306414 -0.040363133 -0.06917265 0.17578477
-0.108478114 -0.31595248 -0.26993608 0.12057584 -0.19576156 0.05764571 0.049511656 -0.17378272

bias f4 [60]
00000000: 9770 213e 478c 493d 0a2d 593e a3f2 233e
00000010: 48f7 f83c f45f 243e 97f5 883e f88f 34bc
00000020: a49f 153d b8a0 fe3d bed4 113d 10cc ab3d
00000030: 18b1 803e 6b98 0d3e 5264 c73d 0191 6f3d
00000040: 661f 883c 914c ff3d 8c24 e63d bb71 ef3d
00000050: 47c2 4b3e fe7e 703d fdbb 673e c5f8 403d
00000060: 2078 303e d512 043e 71d1 dd3d 8c91 b0bd
00000070: 077d d43d 984e b33d ae6e 843e 11fb b33d
00000080: 1fdd 59bc e61e 2abe 5adc 893d c90f 483d
00000090: 8964 393d 8244 a23c 9620 133e e611 d03c
000000a0: c7ea 633e d5e4 253e d669 9b3b 9905 813d
000000b0: 1cec d93d 1ebd 0e3e a212 393e cfe1 a23d
000000c0: 1116 3b3d 82f9 463e eae5 1d3b 095d 5e3e
000000d0: 300c d83d 88fb 533e fb64 003e 74c3 1c3e
000000e0: aeb2 8dbd d242 213e 8921 d53d 4593 453d
0.15765606 0.049206045 0.21208587 0.16010527 0.03039135 0.16052228 0.2674987 -0.011020653
0.0365292 0.124329984 0.035603277 0.08388531 0.25135112 0.13827674 0.097359315 0.058487896
0.016616534 0.12465776 0.112374395 0.11691614 0.1989833 0.05871486 0.22630306 0.047112245
0.17233324 0.12897809 0.108309634 -0.08621511 0.103754096 0.08755225 0.25865692 0.087881215
-0.013297348 -0.1661335 0.06731482 0.04884318 0.045261893 0.019808058 0.143679 0.02539916
0.22257529 0.16200574 0.0047428412 0.06299896 0.106407374 0.1393933 0.18073514 0.07953226
0.04567534 0.19431117 0.0024093338 0.21715178 0.105491996 0.2070142 0.12538521 0.15308934
-0.06918846 0.15748146 0.10406787 0.04823615

linear1.weight f4 [256, 512]
00000000: 3a38 33be 74bc f33d e28b c53d 467d 953d
00000010: 115d 9f3e 71ae 7fbd 7347 85bd 5ec8 abbd
00000020: 9a8d b2bd d22a dcbd 06ef 37be 7c6e dab9
00000030: 20a5 1a3d 65a8 bcbc e107 7e3d ee89 11be
00000040: cd41 843d 14fd 673e 1cb3 903e c1d6 963e
00000050: 8288 8b3c 66cf d63d 1399 353e 1180 babb
00000060: 5f21 c6bd 7594 043e fcec 773d 6b93 e1bc
00000070: 1a8d 01bd a4f4 72bd 3529 9bbe 7819 82bd
00000080: 7c95 9c3d ff6c 323e 57d6 fa3d b6da 003e
00000090: 9b27 d9bd 786d 6b3d 073f 173d f9cc 1bbe
000000a0: aff5 e33b 5850 65bc ca0a d33d 173e 683c
000000b0: 4738 1bbe e537 0e3d 72a8 1cbd 23d6 803c
000000c0: 238b dfbd fbf5 d03d 0538 423e fe95 aabd
000000d0: 7bf1 52bd bd0c eb3a 1bdd 9c3d f71c 1c3e
000000e0: adb4 78be 3167 013e 3fa4 9ebd fa0a 3bbe
000000f0: f507 21be 121c 71bd 612d 08be 5ebf 613d
00000100: f639 72be 70f0 0bbe 06c7 fdbb 273f 383e
00000110: f648 94be 8f9c 79be 1cba 70bd f874 a2bd
00000120: cdc3 eb3a 9489 473d 3638 983c d0d9 48be
00000130: 9bb0 1bbe 7d7e b4bd 53ef 643d dce0 04bd
00000140: 4ef9 14be 19a2 55be 584c b53d 756d 25be
00000150: bf50 9e3c abbd 59be 98da 793c 6546 81bd
00000160: 795b 26be 7135 9a3d b499 aabc 3157 653d
00000170: a0bd 1cbd 126b f8bd ff5c abbd 3017 6abc
00000180: d85d 1cbe 324f 093e 7241 663b f2fd 223e
00000190: a33d 35bd 47d1 a93d 98b5 09be a0a6 1e3c
000001a0: d609 debd b763 873e f52f b3bd d87e 1cbe
000001b0: c2ae f93d 4853 f43c 3319 d5bd 71e6 0abd
000001c0: a4d9 b43d db55 fc3c a937 68bd f05d 0d3e
000001d0: af23 a8bc 08a3 523e 690a b0bd 9758 39be
000001e0: 8284 8d3e 741e 43bc 16f4 803d ff41 1c3c
000001f0: 0c4d 02bd 19bc f53c 2bcd 173d a12f fe3c
00000200: 9c09 02bd 7ac4 3d3e 05e7 15bd 25ed cfbd
00000210: 5a52 a83e c625 343d 5719 2abe d065 69bd
00000220: ae4f b4bd e044 0abe a479 3d3e 06fe 113e
00000230: cd07 9f3d 2c15 173e a1b1 843c c88b 23bb
00000240: 0c7d 02be dd80 433e 1c6c a2bd 139b 91bd
00000250: 8d99 d7bd fa26 7a3d c889 123e 73ae 193e
00000260: c8c2 1c3e d5db d83d e938 13be adab fdbc
00000270: 3726 b13c 670c b0bd d3fe babd efa5 293e
00000280: 5774 7f3e d4d3 5e3e a6cd fb3b 7a7c bb3b
00000290: 0d30 703e eb0a 11be 8b76 37be cb5e 5a3c
000002a0: 2a5b db3d 46c3 cebb 46f7 c63d 7f17 2f3e
000002b0: c65d fe3d 50e4 34bd f3c3 f2bb 3695 97bd
000002c0: a147 14bd 4079 1abd 4589 d1bd 5f50 213e
000002d0: 59e6 0dbe 0cbe d13c 857c 0bbe 72ef 5fbc
000002e0: de77 6ebd 3592 c0bd 6bb3 613e c847 a43d
000002f0: a0aa 083e 4313 483d d806 89bd c763 37be
00000300: 5b2c 6b3d e5f3 26bd 176c 603d e014 7e3c
00000310: 6ad9 0b3e 17f5 cdbd bc15 0abe 3a6d 8abd
00000320: 329e e03c 1c88 abbe 3b4f 0c3c a143 b63d
00000330: 073b 83be c755 9c3d b361 4a3e 09c1 d03d
00000340: a731 24bd 17c8 28bc 972b 2a3d 908b 27bd
00000350: 660b 9cba 3016 cfbd 8ca1 07bd a5cb 5a3d
00000360: 54c3 f3bd b7a9 d0bd 7a1e 9c3e f4a5 3f3e
00000370: 4e97 813c 2880 dd3d 2317 42be 90c6 aebd
00000380: 444b 743d 31e4 37bd e31b 43bd a28c cdbc
00000390: dd75 2a3b 4af2 f8bd f4bf 00be 1cac ccbd
000003a0: b1a5 01be a46c 2cbe 55f8 003c d90b 693d
000003b0: c6c6 1abc eb78 173d f2ec 9d3e e3d9 183e
000003c0: d7d8 4abe 7c2f a43d 79ba 9dba a2a7 4f3c
000003d0: eca5 0f3e 6038 c0bd 2c86 943c 65cd 7dbe
000003e0: 8aaf bdbd 516c ebbc 5a8a e5bd c610 173e
000003f0: 59ab 76bd 40f6 ca3d 36b3 583d 4933 83be
-0.17501917 0.11901179 0.09645821 0.07299285 0.31125692 -0.06242222 -0.065077685 -0.083878264
-0.087184146 -0.10750355 -0.17962274 -0.00041662517 0.03775513 -0.023029516 0.062019233 -0.14212772
0.06457863 0.22655135 0.2826165 0.2946072 0.017032865 0.10488777 0.17734174 -0.0056915362
-0.09674334 0.12947257 0.06052874 -0.027536115 -0.031628706 -0.05931534 -0.30304876 -0.06352514
0.076456994 0.17424391 0.12247913 0.12583432 -0.10603257 0.057477444 0.036925342 -0.1521491
0.006956778 -0.013996206 0.10304792 0.01417496 -0.15158187 0.034721274 -0.03824658 0.015727108
-0.1091521 0.10203167 0.18966682 -0.0832939 -0.051499825 0.0017932873 0.0765936 0.15245424
-0.24287672 0.1263702 -0.07746171 -0.18265906 -0.15725692 -0.05886466 -0.1329856 0.055114143
-0.23654923 -0.13665938 -0.0077446727 0.1799284 -0.28961915 -0.24376129 -0.058771238 -0.07932466
0.001798743 0.04871519 0.018581491 -0.19614339 -0.15204088 -0.08813188 0.0558923 -0.032441005
-0.14548227 -0.20862617 0.08852452 -0.16155036 0.019325612 -0.21263759 0.015249871 -0.06312255
-0.16245832 0.075297244 -0.020825244 0.055991355 -0.038266778 -0.12129797 -0.08367347 -0.014287755
-0.15270174 0.13409117 0.0035134223 0.15917185 -0.044248234 0.082918696 -0.13448179 0.009683281
-0.1084172 0.26443264 -0.087493815 -0.15282762 0.121915355 0.029824868 -0.10405197 -0.033911172
0.08830574 0.030802658 -0.056693707 0.13805366 -0.020524828 0.20570004 -0.085957356 -0.181002
0.27640158 -0.011909116 0.06296556 0.009537219 -0.03181176 0.029996919 0.037060898 0.03102857
-0.031747445 0.18531981 -0.03659727 -0.101526536 0.3287533 0.043981336 -0.16611229 -0.05698186
-0.0880426 -0.13502836 0.18503433 0.14257059 0.0776516 0.1475417 0.016197981 -0.0024955142
-0.12743014 0.19092126 -0.079307765 -0.07109656 -0.10527334 0.061072327 0.14310372 0.15007953
0.15308678 0.10588805 -0.14377178 -0.03096565 0.021624668 -0.085961156 -0.09130635 0.16567205
0.24946724 0.21760494 0.0076844273 0.005721626 0.2345583 -0.14164321 -0.17916314 0.0133282645
0.107107475 -0.0063098995 0.097151324 0.17098807 0.124202296 -0.04416305 -0.007408613 -0.074015066
-0.036201123 -0.03771329 -0.1023126 0.15753315 -0.13857402 0.025603317 -0.13621719 -0.013667928
-0.058219783 -0.09402887 0.22041099 0.08021504 0.13346338 0.048846494 -0.066907585 -0.17909156
0.057415348 -0.04075994 0.054790583 0.015507907 0.13657156 -0.10056513 -0.13484854 -0.067591146
0.027419183 -0.3350228 0.008563812 0.08899618 -0.25630972 0.07633548 0.19763832 0.101930685
-0.040086415 -0.010301611 0.041545477 -0.04090458 -0.0011905252 -0.10111654 -0.033113047 0.053416867
-0.1190249 -0.101886205 0.30492002 0.1871565 0.015819218 0.108154595 -0.18954138 -0.085339665
0.05964209 -0.044895355 -0.047634017 -0.025091473 0.0026010193 -0.12155588 -0.12573224 -0.09993765
-0.12660863 -0.16838318 0.007871707 0.056896064 -0.009446805 0.03698055 0.30844837 0.14926867
-0.1980928 0.080168694 -0.0012033723 0.012674244 0.14028138 -0.09385753 0.018130384 -0.24785383
-0.09261997 -0.028738173 -0.11208029 0.14752492 -0.060222004 0.0991025 0.052905284 -0.25625065

linear1.bias f4 [256]
00000000: 0891 05be 1757 5dbd 0f1a 08bd 1ec7 46bd
00000010: 1930 07bd beff 84bd c533 31bd 738f 10be
00000020: fd7b 05bd ff9f e3bd 7b14 10be 0b4c ddbd
00000030: e7eb 8ebd ad05 d0bd 67d9 0cbd 8d07 b1bd
00000040: 7711 56bd 7394 d8bd 3fb2 82bc 507d bbbc
00000050: ce07 6abd a92f 35be ac1a 2fbd f661 23bd
00000060: b107 a8bc 2554 2cbd b240 69bc d2f3 27bd
00000070: b80e 08bc ef5d 02bb a002 28bc 7bb5 60bc
00000080: 3a8f d7bc 03c0 01be b64c 9dbd 6a1f d3bd
00000090: 7320 0cbd e5d3 44bd c405 9dbc b07f dcbc
000000a0: 7911 b7bc 3072 9cbb 506b f2bd 9d42 d1bc
000000b0: 722e 07bd c067 1ebd fe96 9fbc 4244 6ebd
000000c0: 8282 09bd a53f 9fbd 31d8 20bd 6269 6dbd
000000d0: dcd1 25bd 70b3 ebbd 3b15 4abd 2294 c8bd
000000e0: 5fe7 fdbc beee 20bc 21b5 2bbd 41d4 2bbd
000000f0: d0bd e1bc 5d9e dabd 32a6 69bd 8f72 93bd
00000100: ec7b a8bc 110f 07be 7775 1bbd fba4 c8bc
00000110: 9703 ecbc 7160 40bd 6c84 44bd dd86 13be
00000120: 57a9 42bd 9c24 c2bc 4e61 01bd b97d 33bd
00000130: 3752 0cbd 4a6d 98bc 974c 48bc 67f2 04bd
00000140: e786 56bd 91a2 44be 8030 28bd 3e3b 9cbc
00000150: af84 a5bc 28d8 00be c96b 1e3c 6b2c bebd
00000160: b736 10bd 886d fbbc c5ae 8bbc 28cc b3bc
00000170: a728 85bc 8046 b1bd 5e21 19bd cfd0 1cbd
00000180: d174 62bd 26de 2bbe 1c8d 86bd d4c6 84bc
00000190: 52ab fcbb ced8 91bd 8a75 3dbd a196 6abc
000001a0: 9a77 cbbd fd7e 38bd 58d8 04be 7831 d7bc
000001b0: 8dba 17be 647c 8abd 7b71 21be 0906 aabc
000001c0: 4bb0 11bd 42d6 dfbd 6f6e a7bc e528 20bd
000001d0: 61b8 38be 2dd9 37bc b000 8fbc 3085 febd
000001e0: bac4 99bd 854d 72bd f147 28bd dce4 7bbc
000001f0: 09b5 15bd 2800 27bd c4c3 eebc 50f3 95bd
00000200: bf2b 30bd 3621 c7bd 9335 44bd 6b0b 1bbc
00000210: 7678 9ebc 5cbf 93bc dfee 04bd a683 abbc
00000220: 6f26 59bd 6fee c0bd dbb1 ecbc eded a0bc
00000230: c213 51bc e8d1 bbbc e7d5 1abd 9da9 f8bd
00000240: 7634 a1bd 055a 07bd 9efd 4ebd d4cd 7dbd
00000250: dfcb dabc f07f 9dbc afba 8bbd 6b47 83bc
00000260: 4fbe a0bc fc67 81bc 22f2 78bc 1944 aabc
00000270: 5b4e 1abd d2db fcbc 53ee 29bd 912c f4bc
00000280: 6a4e 07be 0305 fcbb 8c7b fdbb ffad ddbd
00000290: 71b8 86bd c76b 3fbd 8b9d 1dbd bf89 3ebd
000002a0: 5c6c 85bd 7711 2bbd f9b6 2fbd 33ea 61bd
000002b0: 2361 bfbd b606 ddbd dc08 87be 9bf7 c3bd
000002c0: 2cb5 3ebc 4727 a2bd e088 22bd 5019 e4bc
000002d0: 325c 08bd 515f 91bb 4868 88bc 37ba 10bc
000002e0: aefa e3bc 71ee 60bd e833 73bc 6499 b7bc
000002f0: 5510 1bbd 360a babc 34e8 e3bd 9599 dabd
00000300: 31d7 13bd 2733 15bc c609 3fbc 6594 1fbd
00000310: df4d 78bc 9ad9 09bd c4f5 d7bd f84d 9dbd
00000320: 4bd7 9abc 4838 10bd 1f0f 3ebd 572f 40be
00000330: ec42 36bd ebfc 0bbe e51b b1bc 79ab 1ebd
00000340: 1e8f 7abd 3cab c7bc 4dd3 c0bd 283d c8bd
00000350: 1339 f2bc 114e e7bd 8d2d c3bc 96ab bdbd
00000360: bb75 57bc 853c 44bd 4844 ffbc 79d3 4dbd
00000370: f056 10bd bfbd e6bc dd49 8dbd 861a 80bd
00000380: 9476 d6bd 05ab b7bc 5bc3 7abc 2da9 81bc
00000390: 870c fabc 82c3 23be 6a29 f7bc 6550 9cbd
000003a0: 952b 1bbc 8534 23bc 1a37 acbc aa31 d5bc
000003b0: 1351 ecbc abbc 30bc 9f38 35be 5c82 72bd
000003c0: c343 83bd 610c 2ebd 146e 3fbc 6cab d0bd
000003d0: 8664 38bd f357 a4bd 7d77 d6bc 564f d1bc
000003e0: cb49 2ebd 1114 54bd 01e9 efbd 74d0 d4bd
000003f0: a3a9 94bd b24b 9fbd c8e6 dcbc 774d bcbc
-0.13043606 -0.054038133 -0.033227976 -0.048529737 -0.033004854 -0.064940915 -0.043262262 -0.14117222
-0.032588948 -0.11114501 -0.14070313 -0.1080552 -0.069785886 -0.101573326 -0.03438702 -0.08644018
-0.05226275 -0.105751894 -0.015954135 -0.022886902 -0.05713635 -0.17693962 -0.042750046 -0.039888345
-0.02051148 -0.042072434 -0.014236616 -0.04100401 -0.0083042905 -0.0019892415 -0.010254532 -0.013715143
-0.026313413 -0.12670903 -0.07680647 -0.10308726 -0.034210633 -0.04805364 -0.019167788 -0.026916355
-0.022347199 -0.0047743544 -0.118368745 -0.025544459 -0.033003278 -0.038673162 -0.019481178 -0.058170564
-0.033571728 -0.07775811 -0.039268676 -0.05796183 -0.04048334 -0.11508834 -0.049336653 -0.09793879
-0.030994115 -0.009822546 -0.041920785 -0.041950468 -0.02755633 -0.10674737 -0.05704326 -0.07199585
-0.020566903 -0.13189341 -0.03795382 -0.024492731 -0.028810306 -0.046966974 -0.04797785 -0.14406915
-0.047524776 -0.023699097 -0.031586938 -0.04382107 -0.034258094 -0.0186068 -0.012225292 -0.032457735
-0.052374747 -0.19202639 -0.04106188 -0.019071218 -0.02020487 -0.12582457 0.009669253 -0.09285816
-0.03520843 -0.030691877 -0.01705111 -0.021947935 -0.016254736 -0.08656025 -0.037385337 -0.038285073
-0.055287186 -0.16783962 -0.06569883 -0.01620809 -0.0077108527 -0.0712143 -0.046254672 -0.014318139
-0.099349216 -0.04504298 -0.12973154 -0.026268706 -0.14817257 -0.06762007 -0.15765946 -0.02075483
-0.035568517 -0.10929538 -0.020438401 -0.0391015 -0.18039085 -0.011221212 -0.017456383 -0.12427747
-0.07508226 -0.05915596 -0.041084234 -0.015374389 -0.0365496 -0.040771633 -0.029146083 -0.07321799
-0.04301047 -0.09723131 -0.047902655 -0.0094631715 -0.01934455 -0.018035583 -0.032454368 -0.020936798
-0.05301517 -0.094204776 -0.028893402 -0.019644702 -0.012761058 -0.02292724 -0.03780165 -0.12141726
-0.07871334 -0.033044834 -0.050534837 -0.06196387 -0.026708541 -0.019226044 -0.068227164 -0.016025266
-0.019621996 -0.015796654 -0.015194448 -0.020784425 -0.03767238 -0.030866537 -0.04148705 -0.029806407
-0.13213506 -0.007691027 -0.007735675 -0.10824203 -0.06578148 -0.046733644 -0.038480323 -0.046518084
-0.065148085 -0.041764703 -0.042899106 -0.05515499 -0.09344699 -0.10792296 -0.26373947 -0.09568711
-0.011639874 -0.07917648 -0.039681315 -0.027844101 -0.03329105 -0.0044364114 -0.016651288 -0.00883346
-0.027829494 -0.054914895 -0.014843918 -0.02241201 -0.037857372 -0.022709947 -0.111282736 -0.10673825
-0.036093894 -0.009106434 -0.011660045 -0.03895988 -0.015155285 -0.033654787 -0.10544923 -0.07680887
-0.018901488 -0.035209924 -0.04640114 -0.18768059 -0.044497415 -0.136707 -0.021619746 -0.038737748
-0.061171643 -0.024373643 -0.094153024 -0.0977729 -0.02956823 -0.11294187 -0.023825431 -0.09261243
-0.013150628 -0.04790928 -0.031160489 -0.050250504 -0.03523916 -0.02816665 -0.06898854 -0.06255059
-0.10471836 -0.022420416 -0.015305365 -0.01582774 -0.030523552 -0.15992549 -0.030171115 -0.076325215
-0.00947084 -0.009961252 -0.021022368 -0.026024658 -0.028847253 -0.010787169 -0.1769738 -0.05920635
-0.06409409 -0.042492274 -0.0116839595 -0.10188946 -0.04501774 -0.080245875 -0.026180023 -0.025550526
-0.042550843 -0.05177695 -0.11714364 -0.10391322 -0.07258918 -0.077781096 -0.026965514 -0.022986157

linear2.weight f4 [60, 256]
00000000: 59c7 85bd fd71 3c3d 34fd 98bb e228 313e
00000010: 1f71 5a3d 7832 9dbd d83c 353b 964b 1bbd
00000020: e9a9 0abd 2108 d2bb c52b 43be 2a86 7fbd
00000030: 6118 99bd ec0c 9e3d 5b58 e03c e4e2 7b3d
00000040: 2887 bb3c 0611 f7bd a235 563c b6a9 0ebd
00000050: 350f f93c 39b5 a33d e047 c73b b7ff 4a3d
00000060: 06f4 923c feaf 2a3c 3428 0d3d 9927 f4bc
00000070: 3fbc cf3b d27f 26bd 082d da3b 71d3 42bd
00000080: c7c0 ebbc b497 283d b1b1 41bd cf25 f73d
00000090: fc98 0439 9421 063d bd15 413c ec7e ffbb
000000a0: bd9b d03a 450b 32bd 3b96 04be 7b4d 12bd
000000b0: 587a 143d c713 343d fe27 d53b ede6 81bd
000000c0: 0894 0d3d 2cc7 2a3c 1d17 253d 45f2 cf3c
000000d0: 3686 e6bc 4e35 97bc cb36 793b 8f08 e6bc
000000e0: cde2 a53c 67b4 c1bc 2723 30bd 9780 90bc
000000f0: 6272 2a3d 371d 423d ce21 7ebd abfb 9c3b
00000100: 064d b03c 4e00 22bc 5163 123d 71f1 a43c
00000110: 211a 3d3c 9760 10bc ef22 323d ff84 003e
00000120: 95ef 243d 07ac 1cbd adaf 4b3b 1cd6 533c
00000130: c9d6 0cbd 18a3 6cbc 3ae7 cf3c b72c f23b
00000140: 132d bf3d bd06 363d 917f 8b3c b9ec 923a
00000150: 682b 0dbc 3306 2cbc a09c 973d 766f 85bd
00000160: b4d2 123d db3a 15bc c436 803c 61bc 293b
00000170: 3149 0fbb f8e0 273e 4a35 5b3d 271a 2abd
00000180: 023b 9bbb 5864 d9bc a28b 893c e904 e83a
00000190: e0c5 313d 5a41 6fba f3d2 293d 1a74 8dbc
000001a0: 0665 223d 1eaf 213d 360b 75bd 0cad 2b3d
000001b0: b84c 8b3c d56e abbc e351 01be ac9b b2bb
000001c0: a727 bcbc 46d9 2cbe f5f7 48bd dfa5 4bbd
000001d0: bf9b 1abe 736f 1d3c 14ba 903c 68a3 ffbd
000001e0: d096 95bd 1834 79bb 2483 b7bd 07a2 85bb
000001f0: fee4 283d d9d8 f2b9 7bde d23c 324d 76bc
00000200: 5e86 58bc c71b 57be 41e6 3a3d 89db a33c
00000210: f838 d9bc 6dde 533d 6348 9e3c 0ccf e3bb
00000220: 2b00 b0bd 83ed 97bd e2c5 ffbc b8c6 ca3c
00000230: 0bce dbbc 9dc2 90ba de79 dbbb f1eb fe3c
00000240: e8fd 4a3c 18a6 4b3d c366 633c 3325 463d
00000250: 74e2 833c 6a2d bf3c 456e aa3b d9bb a5bc
00000260: 0420 673d a7ac dd3c 5261 913b dae0 4bbb
00000270: fa2d 4abd 58bb a8bc bd61 393d d9ee 183d
00000280: 60f1 50be 9a11 6abc f1be 88bc 4653 333e
00000290: c3c8 2f3d 417c a8bb a7ff dd3c b6c0 383c
000002a0: 0e1a 103e eced e3bc 7ba9 c33b 4c6c 14bd
000002b0: a9c8 293d 200f 83bd 39af c43e 1718 acbd
000002c0: 9181 9bbc bc61 203d 34e4 04bd 7b0c 173d
000002d0: 2ab8 bbbd 85d4 1fbe 65cf 233d b39f 633c
000002e0: a69a 383d eb16 7d3d ac8c 72bd b624 fb3b
000002f0: 5232 d83c d54f e23c e2ae 0a3e be01 a83d
00000300: 557a 88bd 22c4 843c 85ec 063d 3bb6 bfba
00000310: 222a 333d 22d4 dd39 bacc 35bd dcb9 7bbd
00000320: ac90 89ba 6ec3 b23c 72a1 c4bc 71bf 4a3d
00000330: b8db 18bc ea60 f83d 0d08 263c 0d9e 3fbd
00000340: 4fe4 c5bd 234e b73b f60e 08bd 0625 db3d
00000350: ddd4 6e3c 76aa 9abd 435d a6bc 3fce f33c
00000360: f9c1 6c3c 93f0 d43b 59bd 4a3c 9a72 103d
00000370: 29ef 3d3c 6c94 813c 08eb 14bc 226d 203d
00000380: 867b db3d 509e 99bb 0477 efbc 84b0 013d
00000390: bf88 813c e813 a13d a83f 6c3c faf5 34bd
000003a0: 468c 993b dc4b 633d 7ab2 ff3b 559c f23c
000003b0: c1fc 073b 4d18 edba 8d47 1bbd 24e4 903c
000003c0: e57b 16bc b486 83be a8f7 c63d a0da 26bc
000003d0: e6d1 323d 3117 383c ab4d 1a3d 25e2 31bc
000003e0: ab5a 6cbc fce6 073c a6ef e1bc cacf 713c
000003f0: fea6 a13d 917c efbc 9de6 be3c d513 5a3c
-0.06532163 0.046007145 -0.004668856 0.17300752 0.053330537 -0.07675642 0.0027654674 -0.03791388
-0.033853445 -0.0064096604 -0.19059666 -0.06238381 -0.07475353 0.077173084 0.027385881 0.061495677
0.022891596 -0.12063794 0.0130743105 -0.034829818 0.03040276 0.0799355 0.006081566 0.049560275
0.017938625 0.010417936 0.03446217 -0.029804038 0.0063395794 -0.040649243 0.0066582 -0.047564927
-0.028778447 0.0411603 -0.0472886 0.12067758 0.00012645492 0.032746866 0.011784968 -0.0077971127
0.0015915554 -0.04346778 -0.12947933 -0.035718422 0.03624949 0.043964174 0.0065050116 -0.06342874
0.034565 0.010423463 0.040305246 0.025384078 -0.028140169 -0.018458035 0.0038027044 -0.028080253
0.020249749 -0.023645593 -0.043002274 -0.017639441 0.04161299 0.047391143 -0.062043957 0.0047907433
0.021521103 -0.009887768 0.035739247 0.02013466 0.011541874 -0.008812091 0.043490347 0.12550734
0.040267546 -0.038249996 0.0031080053 0.012929466 -0.034384523 -0.014443181 0.025378812 0.0073905843
0.09334769 0.04444002 0.017028602 0.0011209465 -0.008616306 -0.010499525 0.07402921 -0.065154
0.035845473 -0.0091082705 0.015651114 0.0025899636 -0.0021863694 0.16394413 0.053517617 -0.041528847
-0.004737259 -0.026537105 0.016790215 0.0017701659 0.0434016 -0.00091268646 0.041460942 -0.017267276
0.039647125 0.039473645 -0.059825145 0.041913077 0.017004356 -0.020926872 -0.12628894 -0.0054506864
-0.022968126 -0.16879758 -0.049064595 -0.049718734 -0.15098475 0.009609091 0.017666854 -0.12482339
-0.07304156 -0.0038025435 -0.0896056 -0.004078153 0.04123401 -0.000463194 0.025740853 -0.015033053
-0.013215629 -0.2100669 0.045629743 0.020002143 -0.026516423 0.051725794 0.019321626 -0.006952172
-0.08593782 -0.07418349 -0.031222288 0.02475296 -0.026831647 -0.0011044327 -0.0066978773 0.031118365
0.0123896375 0.049718946 0.013879481 0.04837532 0.016099192 0.023337085 0.0052011334 -0.020231174
0.056427017 0.027059866 0.0044366503 -0.0031109364 -0.049360253 -0.020597145 0.045259226 0.037337158
-0.20404577 -0.014286423 -0.01669261 0.17512235 0.04291607 -0.0051417653 0.027099444 0.011276415
0.14072439 -0.02782341 0.0059711314 -0.036236092 0.04145113 -0.06399369 0.38414934 -0.08403032
-0.01898268 0.039155707 -0.032444194 0.036877137 -0.09165986 -0.15608414 0.03999271 0.013893056
0.04506936 0.061789434 -0.059216186 0.0076642884 0.026391182 0.027625958 0.13543275 0.08203457
-0.06663958 0.016206805 0.032940406 -0.0014626452 0.043741353 0.00042310456 -0.044384696 -0.061456546
-0.0010495386 0.021821704 -0.024002764 0.04949898 -0.009329729 0.1212786 0.010133755 -0.04678159
-0.09662687 0.0055940314 -0.033217393 0.10700421 0.014577118 -0.07552044 -0.020308143 0.029761432
0.014450544 0.0064984052 0.012374246 0.035265543 0.011592665 0.015817843 -0.009089239 0.039166577
0.107169196 -0.004688062 -0.029231556 0.03166248 0.015812276 0.07865125 0.014419474 -0.044179894
0.0046859113 0.055492267 0.0078032585 0.02961556 0.0020750018 -0.0018088907 -0.037910033 0.01768691
-0.009184812 -0.25688708 0.097152054 -0.01018396 0.043657206 0.011235998 0.037671726 -0.01085714
-0.014425914 0.008294817 -0.027580094 0.014759013 0.07893179 -0.029234203 0.023303324 0.013310392

linear2.bias f4 [60]
00000000: 3697 1abc 1a44 d93c 0fad ce3c 81f7 13bc
00000010: 4d0d 38bc 447e 9fbd 3f9e 3c3c 3ef7 b4bb
00000020: 3298 22bd ddbe 423d 3d24 a7bc 99ef e1bb
00000030: dc15 843d c7b0 48bd 2e2e 3c3d 7808 363c
00000040: 3b03 083d db0b f63c 780a 17bd aafe cabc
00000050: ec3b 2b3d 3080 ac3c 73b6 f33c 7256 253a
00000060: a49e d93b d3d2 fc3c 88c2 78bc 5af3 e03c
00000070: 8bd3 f83c 5205 23bd 96d8 cf3b 9075 fa3c
00000080: d505 f63c dd26 7fbc 7247 19bd a89c 16bd
00000090: 8b22 3c3d 58bf 49bc 47b9 a6bd 2f4c 013d
000000a0: 982d 1b3d 98c8 9d3c 8281 e53c 0f3d 893d
000000b0: bb81 e53c 4c9c 2e3c d052 843c 3ef2 df3c
000000c0: 25bd bd3c 6442 cabc 79f7 693d 787b f5bd
000000d0: 8ba8 89bc 5b92 8fbc bde2 733d d6db 033d
000000e0: ffb4 01bd 9216 3bbc e978 ec3d c144 223c
-0.009435466 0.026521731 0.025229005 -0.0090311775 -0.01123364 -0.07787755 0.011512338 -0.0055226376
-0.039695926 0.047545303 -0.020403022 -0.0068950173 0.06449482 -0.048996713 0.045942478 0.011110418
0.033206206 0.03003495 -0.03687522 -0.024779636 0.041805193 0.021057218 0.029750085 0.0006307132
0.006641226 0.030862248 -0.015183099 0.027459789 0.030374309 -0.039799996 0.0063429577 0.030573636
0.030032078 -0.015573231 -0.03742165 -0.036770493 0.04593138 -0.012313686 -0.081408076 0.031566795
0.03788528 0.01926069 0.028015856 0.06701099 0.028015962 0.010657381 0.01615277 0.02733719
0.02316148 -0.02468986 0.057120774 -0.119864404 -0.016804 -0.017525842 0.059542406 0.032192074
-0.031666752 -0.011418955 0.11546499 0.0099040875

weight f4 [1, 768]
00000000: 6b6f be3b 4a79 f53b 86f9 f6ba 6629 803a
00000010: 7d9d 6abb 5af4 00bc fc28 a83b ea98 08bc
00000020: 08c3 00ba 1cfe 80bc 03a3 b1bb c4f2 d83b
00000030: 6382 643b 78e4 d5bb 9728 02bc 6a1e d8bb
00000040: 884a d43b 8525 853c 23b4 1d3b defa d8bb
00000050: d6f4 393c e300 85bc c5eb d9bc c017 cd3a
00000060: dc98 a8ba 5e5f b53a 3974 e1bb 2ec7 b7bb
00000070: 29ad aabb 2954 6a3c d08f f73a 8d64 aa3c
00000080: 747e 35ba f7e5 0a3c 59f2 0abc 1383 613c
00000090: c1af 58bc 6207 983a 7ba4 d1bb 171e ee37
000000a0: 317c b13b 7dd6 81bc aac0 b7bb b408 a13c
000000b0: 167f 2b3c 193e 17bb 291e 50bc b7e6 a8bb
000000c0: f592 173b 2e19 b1bb 0023 2f3c 731d b53b
000000d0: 4704 6bbb 2405 a03a 8900 533c d75b 84bc
000000e0: bc75 5cbc c6f0 843c c9b8 bb3a ce3e ed3a
000000f0: 9772 483c a5a8 313c 7111 8fbb 402a 35ba
00000100: e6cd 1ebb 07ed 6e3c e25b aebb 42ca 433b
00000110: 35fa 3abc 5f07 743c 6cd8 363c 3d2d 48bc
00000120: afbf 8fbc 4bb0 163b 19c9 6dbc 6ad2 9eba
00000130: 77ae 153b 7a33 6cbc a624 e73a 3ffb 383c
00000140: c25c 11bb c0c8 263c 7aee 74bc 2a5b 163c
00000150: 0137 51bc e4de 213c 49b1 bb3c 9458 6dbc
00000160: 5ce1 053b c052 4f3c 1d96 5439 0b27 033a
00000170: d289 87bc 35ec 4fbc d59f f8bb 5502 c73b
00000180: 0895 53bc 9b10 4fbc af09 513a 9cb6 95bb
00000190: ab1c 16bc bafa 543b c314 733c ba71 06bc
000001a0: 1d87 a33b 2eba f33b 9d58 33bc 4c2f ddb9
000001b0: a8d2 aa3a 60ee ac3b f999 bb3b b847 743c
000001c0: b5c2 2d3c 84ef 2e3c 4767 0c3c 39f5 76bc
000001d0: 0e36 e73b 3b8e e3bb cd7c 87bc 310e c63c
000001e0: b1c6 febb 6c32 3fba f002 b9bb 7e27 853b
000001f0: 9646 453c 5756 ccb9 fca2 8abc d5a4 36bb
00000200: b418 ee38 81ed 3b3c 0b8b 0a3c 5063 8dbc
00000210: b42f 093c 12de 843c b622 713c 850d 66bb
00000220: afe9 68bc d130 c9bb 2aa0 d7bb d166 ab3c
00000230: 38ec f93b a58d e1ba e9ce 9a3b c874 de3a
00000240: 17c6 60bb 3484 38bc db41 0dbc 8f49 d1b9
00000250: 6e72 713b 469e 133c 6dad b6bb 6f92 c83c
00000260: d4f8 76bc 8f3a 4e3b 5649 133b ca8c 013c
00000270: 5b63 aa3b d1f2 233c 570d 743b d4a4 17bb
00000280: 9f31 2fba 761e 4ebc 002e d0bb 9341 09bc
00000290: 0132 83bc de3c aabb 1a00 8f3b 3061 573c
000002a0: e841 2cbc 7455 053b 6ac0 9abc bcf6 06ba
000002b0: 4eb7 233b f927 9abb e982 5b3c 77c3 80bc
000002c0: 0bd7 20ba 8c7e 493a 0efc 333c f96f 803c
000002d0: a92e 7a3c 6bd6 4a3c c290 96bc e774 483c
000002e0: 0be0 3abc 3f8a 113c ca70 6cbb 14bb 12bc
000002f0: c712 a93b 7d5e b13b 4f5c 943b ebd3 2abb
00000300: ad3c 3b3c 8927 7a3b 74f4 163c 4fe3 423c
00000310: 7230 fe3b 38a1 ae3b 9a09 923c f790 c23c
00000320: edbc 5e3b 3efb 83bc ca70 053c 5db5 1a3c
00000330: 2a5c 0dba af44 4ebc ac94 cfbb 0ea5 9dbc
00000340: 0665 06bb bf81 1e39 a9ec 093c dda4 453c
00000350: 1271 30bb 3305 6a3c 7aa9 313b 9a05 5abb
00000360: c925 923c f2d9 d4bb 5f57 c53b ba46 37bc
00000370: 0557 383b f5b9 e2bb 46f0 12bc 88a9 fcbb
00000380: b090 0b3a 9545 95bc 86b2 2fbb d56c 21bb
00000390: 6411 843c 1d6f 713c 88de 39ba a850 19bb
000003a0: b625 ff3b b807 b2bb f5c1 ec3b a338 853b
000003b0: 243a 673c ebb5 5abc 5d25 383b 5fc3 2dbc
000003c0: e1ff 8b3a 53e9 ebbb 5445 a83b da7d 1ebc
000003d0: ee6c 5f3b d867 9b3a 6ffa 403c 9ce5 b2b9
000003e0: 58e7 92bc 61bf 143c 6fa4 a9bb e3fb 60bb
000003f0: 5399 ca3b ba70 37bc 4bc0 903c 2358 5c3b
0.005811622 0.0074912654 -0.0018842674 0.0009777963 -0.0035799437 -0.007870758 0.005131839 -0.008337239
-0.00049118744 -0.015746169 -0.005421044 0.006620737 0.0034867756 -0.0065274797 -0.007944248 -0.0065954225
0.0064786114 0.016253242 0.0024063669 -0.0066217026 0.011349877 -0.016235774 -0.026601681 0.0015647337
-0.0012862938 0.0013837626 -0.00688031 -0.005608461 -0.0052086306 0.014302292 0.0018887464 0.0207999
-0.0006923445 0.008477679 -0.008480632 0.013764161 -0.013225497 0.001159888 -0.0063977814 2.8385823e-05
0.005416416 -0.015849346 -0.005607684 0.01965747 0.010467311 -0.0023077785 -0.012702503 -0.0051544565
0.0023128365 -0.005404613 0.010689497 0.0055271923 -0.0035860704 0.0012208563 0.012878546 -0.016157074
-0.013455804 0.016228091 0.0014322038 0.0018100382 0.012234352 0.010843431 -0.004366093 -0.0006910898
-0.0024231612 0.014582879 -0.005321012 0.0029875194 -0.011412193 0.0148943355 0.011159997 -0.012217817
-0.017547457 0.0022993262 -0.014513277 -0.0012117152 0.0022839585 -0.01441657 0.0017634823 0.0112903705
-0.0022180532 0.0101796985 -0.014949435 0.009177009 -0.012769462 0.009879801 0.022911685 -0.014486451
0.0020428514 0.0126540065 0.00020273817 0.0005003071 -0.01654521 -0.0126905935 -0.007587413 0.006073276
-0.01291395 -0.012638236 0.000797416 -0.004568888 -0.009162108 0.0032498077 0.014836493 -0.008205825
0.004990472 0.007437966 -0.01094642 -0.00042187644 0.0013032751 0.00527744 0.005725142 0.014909677
0.010605504 0.010677222 0.008569545 -0.015073114 0.0070560044 -0.0069444454 -0.016539002 0.024176689
-0.0077751507 -0.0007293585 -0.005646102 0.0040635457 0.012040755 -0.0003897424 -0.01692342 -0.0027869244
0.00011353326 0.0114702 0.008456002 -0.01725927 0.00837319 0.016219173 0.014717748 -0.0035103273
-0.014215871 -0.0061398526 -0.0065803723 0.02092305 0.0076270364 -0.0017208351 0.0047243726 0.0016972059
-0.0034297758 -0.011261988 -0.008621658 -0.00039918392 0.0036841887 0.009009903 -0.005574873 0.024483887
-0.015073974 0.003146801 0.0022474132 0.007907102 0.0051998324 0.010006622 0.0037239396 -0.0023139017
-0.00066831143 -0.012580505 -0.00635314 -0.0083774505 -0.016015055 -0.005195244 0.004364026 0.01314573
-0.01051376 0.0020345123 -0.018890578 -0.00051484606 0.0024981084 -0.004704472 0.013397911 -0.015718205
-0.00061355595 0.00076863985 0.0109853875 0.015678393 0.015269914 0.012380223 -0.018379573 0.012234903
-0.011405955 0.008883058 -0.003607797 -0.008955736 0.005159709 0.005412875 0.0045276056 -0.0026066254
0.01142804 0.0038170537 0.009213556 0.011895015 0.00775724 0.0053292774 0.017826844 0.023750765
0.003398712 -0.016111013 0.008144567 0.009442654 -0.00053924567 -0.012589618 -0.0063348617 -0.019243743
-0.0020506992 0.00015116388 0.008418241 0.012063232 -0.0026922864 0.014283466 0.0027109073 -0.00332675
0.017840283 -0.0064957077 0.0060223783 -0.011186296 0.002812804 -0.0069191405 -0.008968418 -0.0077106394
0.00053239893 -0.018221656 -0.002680929 -0.002463152 0.016121574 0.014735964 -0.00070903497 -0.0023394022
0.007786478 -0.005433049 0.00722527 0.0040655895 0.014112983 -0.013349037 0.0028098442 -0.010605662
0.0010681116 -0.0071994453 0.0051352177 -0.00967356 0.0034092027 0.0011856509 0.011778458 -0.00034121878
-0.017932579 0.009078831 -0.0051770727 -0.0034329824 0.0061828285 -0.01119631 0.017669817 0.003362187
