SPMLUA_outputs/动态阈值+label20_40/Train_with_full_labels_L2loss/checkpoint_best.pth (torch, 691407 bytes, 7 tensors)

weight f4 [80, 240]
0.48704743 -0.0025164466 -0.0032020726 -0.006649596 -0.04671349 0.00047427873 -0.004002126 -0.053504527
-0.06369957 -0.024849026 -0.041774675 -0.08164995 -0.1144306 -0.010203744 2.302261e-05 -0.017639168
-0.024598684 -0.023639318 -0.05065256 -0.02465964 -0.045079004 -0.0530821 -0.071747445 -0.06444133
0.21365657 -0.0044263545 0.00775953 0.12436525 0.0022627106 -0.0088870665 0.06735431 0.011290946
-0.020471418 0.037852712 0.003045722 0.01847853 0.13480449 0.02542081 -0.011899894 -0.059738215
-0.025552694 0.1076351 -0.05806591 -0.035833213 -0.02243765 -0.0033991102 -0.00881035 -0.028818823
-0.028456433 -0.008410323 -0.061446134 -0.0057048043 -0.0024098728 0.018489711 -0.012138447 0.007813696
0.017179487 -0.014694883 -0.061007917 -0.049096186 -0.05868608 -0.0422551 0.02040492 -0.054317936
-0.05058967 -0.044846702 -0.043743365 0.031882063 -0.0073534437 -0.0834088 -0.07178086 -0.084551215
-0.03164408 -0.037042137 -0.100824066 -0.062754415 -0.018371794 -0.046083946 -0.010629175 -0.07352356
0.29405746 -0.067377456 0.12920238 0.15491968 -0.22748673 -0.08505919 0.121722095 0.25882512
-0.26396263 -0.042326838 0.0096686715 -0.17699386 -0.0914459 -0.16796555 -0.31548855 -0.27147174
0.048843823 0.18624794 -0.04893079 0.30065864 0.3113424 -0.4026531 -0.23515451 0.011031022
0.10111203 -0.2159406 0.03472273 0.018909005 0.24822584 0.14342621 -0.5516272 -0.024113808
0.089387946 -0.32503688 0.19140698 -0.31303373 -0.2042215 -0.11580365 0.05599049 -0.015974984
0.11972945 0.12653722 0.21713938 0.35992157 0.19314232 0.14900514 0.2517208 0.063947566
0.11256724 0.17624396 -0.28655046 0.37594798 0.0026385044 -0.27877662 0.09405047 0.33939543
-0.22432023 -0.21614876 0.05476108 0.08025233 0.42449337 0.24987614 0.12858638 -0.14680254
0.052093368 0.051827677 -0.15034969 -0.024447711 -0.16327444 -0.22952376 -0.18214092 -0.27292502
0.20782684 0.012119184 -0.041592274 0.010411937 0.1581486 -0.43563 -0.14227054 0.46083406
-0.04611009 0.035655547 -0.024233729 0.024523785 -0.013509248 0.03083422 0.022448974 0.016659869
0.007962374 0.05652334 0.030379495 0.04183887 0.018155647 0.043382466 -0.0123132905 -0.023344496
0.011852562 -0.0066037965 -2.7373738e-07 -0.02788489 -0.06757899 -0.05861264 -0.027826697 -0.025705637
0.010056828 -0.006181413 -0.07241986 -0.048793 -0.025905 0.005007347 -0.0053065824 0.068463676
-0.026006415 0.059539862 0.061218176 0.03163583 0.07966891 0.027258754 -0.067058854 0.0018178559
-0.0150979385 0.025393054 0.03190062 0.006278005 -0.047787253 -0.039101787 0.02825393 0.031545486
0.002982813 0.07253368 0.031517792 0.02775373 0.027850255 0.0045166155 0.034931354 0.0077718454
-0.042807054 0.016012806 0.0122978855 -0.029214203 -0.027446054 -0.045840114 0.035184152 -0.05811029
-0.0073068053 -0.016629308 -0.06323815 -0.019343764 -0.05960369 -0.04220127 -0.018471174 0.060529504
-0.052927125 0.06433983 0.021894136 -0.032490626 -0.032516826 -0.043609463 -0.033130273 -0.0025257654
0.0046880324 0.8713598 -0.002335102 -0.15244384 0.005404492 -0.033327088 -0.031773333 -0.038500365
-0.018207107 -0.06213098 -0.015395275 -0.022280414 -0.033581458 -0.0026809121 -0.003963109 -0.0029672154
00000000: 485e f93e f8ea 24bb ddd9 51bb dbe4 d9bb
00000010: a556 3fbd 9da8 f839 4424 83bb 9027 5bbd
00000020: ec74 82bd 2f90 cbbc ec1b 2bbd 1738 a7bd
00000030: 975a eabd 9b2d 27bc ae20 c137 0480 90bc
00000040: 2e83 c9bc 3ea7 c1bc 0f79 4fbd 0303 cabc
00000050: c3a4 38bd 9e6c 59bd 53f0 92bd d1f9 83bd
00000060: cac8 5a3e f40a 91bb a843 fe3b 35b3 fe3d
00000070: fc49 143b 0f9b 11bc 0ef1 893d a9fd 383c
00000080: adb3 a7bc 720b 1b3d bc9a 473b 4960 973c
00000090: 300a 0a3e 4d3f d03c c6f7 42bc 0fb0 74bd
000000a0: e253 d1bc cb6f dc3d 85d6 6dbd d9c5 12bd
000000b0: 2acf b7bc 9bc3 5ebb 4959 10bc 7415 ecbc
000000c0: 771d e9bc 74cb 09bc f1ae 7bbd 5eef babb
000000d0: f5ee 1dbb bc77 973c 56e0 46bc 0405 003c
000000e0: ffbb 8c3c cec2 70bc 70e3 79bd 1519 49bd
000000f0: d160 70bd af13 2dbd 3828 a73c 7c7c 5ebd
00000100: 1d37 4fbd 2db1 37bd 3e2c 33bd c496 023d
00000110: 28f5 f0bb 3cd2 aabd d801 93bd 3029 adbd
00000120: 399d 01bd 7fb9 17bd d97c cebd 6385 80bd
00000130: 7280 96bc 85c2 3cbd fe25 2ebc 8593 96bd
00000140: b38e 963e 31fd 89bd a14d 043e 44a3 1e3e
00000150: 48f2 68be 8333 aebd 6f49 f93d ba84 843e
00000160: 1c26 87be e85e 2dbd 5969 1e3c e13d 35be
00000170: fd47 bbbd 29ff 2bbe b787 a1be 58fe 8abe
00000180: 7610 483d c8b7 3e3e a76b 48bd eeef 993e
00000190: 4568 9f3e 8c28 cebe 58cc 70be 76bb 343c
000001a0: d313 cf3d 881f 5dbe 6c39 0e3d 0fe7 9a3c
000001b0: ea2e 7e3e 52de 123e 7137 0dbf 528a c5bc
000001c0: 0711 b73d 3c6b a6be 3100 443e f545 a0be
000001d0: 711f 51be 772a edbd 4956 653d f8dd 82bc
000001e0: b734 f53d f992 013e c959 5e3e a447 b83e
000001f0: 1ac7 453e ce94 183e 8ce1 803e f1f6 823d
00000200: a789 e63d 4c79 343e beb6 92be 417c c03e
00000210: c2ea 2c3b cfbb 8ebe 889d c03d 3dc5 ad3e
00000220: 34b4 65be 1a56 5dbe 274d 603d 555b a43d
00000230: 3257 d93e 88df 7f3e 26ac 033e 6853 16be
00000240: db5f 553d 4249 543d 45f5 19be 9146 c8bc
00000250: 6a31 27be 4708 6bbe 2683 3abe d4bc 8bbe
00000260: 8fd0 543e 8b8f 463c a95c 2abd d496 2a3c
00000270: b5f1 213e e50a dfbe 5eaf 11be 71f2 eb3e
00000280: efdd 3cbd 8d0b 123d d085 c6bc 1be6 c83c
00000290: e555 5dbc 0c98 fc3c e9e6 b73c 477a 883c
000002a0: 9e74 023c 0585 673d 6bde f83c 3c5f 2b3d
000002b0: 27bb 943c d0b1 313d afbd 49bc f53c bfbc
000002c0: 4031 423c a964 d8bb 2ef6 92b4 da6e e4bc
000002d0: da66 8abd cf13 70bd d0f4 e3bc a194 d2bc
000002e0: 65c5 243c 738d cabb dd50 94bd 2bdb 47bd
000002f0: b936 d4bc ac14 a43b d7e2 adbb af36 8c3d
00000300: 680b d5bc 12e0 733d e9bf 7a3d 9294 013d
00000310: 7429 a33d c04d df3c 2756 89bd 1f45 ee3a
00000320: 585d 77bc 1805 d03c 39aa 023d b9b7 cd3b
00000330: 91bc 43bd 3229 20bd c974 e73c d735 013d
00000340: 4c7b 433b 8a8c 943d cd18 013d ca5b e33c
00000350: 3826 e43c 1e00 943b 2e14 0f3d f7aa fe3b
00000360: 7356 2fbd 4a2d 833c 127d 493c a052 efbc
00000370: 8cd6 e0bc d8c2 3bbd 421d 103d 0e05 6ebd
00000380: ed6d efbb 303a 88bc 0183 81bd d076 9ebc
00000390: 0023 74bd 3ddb 2cbd dc50 97bc c9ed 773d
000003a0: 1dca 58bd 9ac4 833d 555b b33c e414 05bd
000003b0: 5d30 05bd d69f 32bd 9cb3 07bd 5087 25bb
000003c0: 119e 993b 7011 5f3f 8308 19bb 3d1a 1cbe
000003d0: 2a18 b13b fc81 08bd c124 02bd 8fb2 1dbd
000003e0: 1227 95bc 0e7d 7ebd 773c 7cbc 6a85 b6bc
000003f0: b68c 09bd 3eb2 2fbb f8dc 81bb 9d75 42bb

bias f4 [80]
0.084433794 0.08263325 0.015247801 0.019619504 0.016138067 0.026079277 -0.061407488 0.014056758
0.075412646 0.04420473 0.0310171 0.016067045 0.0440602 0.0085647525 0.0051829144 0.02925376
-0.0068317954 0.07436341 0.06404068 -0.0039134757 -0.00051564176 0.013897956 0.1433627 0.06653641
-0.009880144 0.075057656 0.10294989 0.029393954 -0.003409923 0.038666725 0.05137246 -0.0013461581
0.019451102 0.08054771 0.04654676 0.01808112 -0.003772705 0.03049142 0.038286176 0.090197034
0.040022522 -0.03433232 0.117556326 0.024988735 0.06681962 0.0071439953 0.05654212 -0.0011589166
9.574453e-05 0.085808754 0.055426553 0.045041904 -0.03237837 0.02170603 0.031922404 0.00050960644
-0.0055841166 0.011964863 -0.0016257934 0.045819044 0.065104716 0.067326166 0.056664646 0.04628311
0.0025499547 0.011932014 0.05588552 -0.0014482221 0.05151211 0.031154538 0.005287601 0.0298384
0.0640697 0.009383466 0.033642653 0.02597171 -0.016831644 0.031008981 0.030222546 0.051742036
00000000: a0eb ac3d 9f3b a93d ead1 793c 15b9 a03c
00000010: fb33 843c 35a4 d53c 6b86 7bbd 514e 663c
00000020: f271 9a3d 0510 353d 9317 fe3c 099f 833c
00000030: 7878 343d 2d53 0c3c 70d5 a93b 95a5 ef3c
00000040: 41dd dfbb d84b 983d c327 833d 9d3c 80bb
00000050: 222c 07ba 41b4 633c accd 123e 3e44 883d
00000060: 54e0 21bc d4b7 993d 64d7 d23d 97cb f03c
00000070: 0479 5fbb 0061 1e3d ee6b 523d 9271 b0ba
00000080: eb57 9f3c 33f6 a43d d1a7 3e3d db1e 943c
00000090: 7d3f 77bb 24c9 f93c f7d1 1c3d 39b9 b83d
000000a0: a8ee 233d 0ca0 0cbd 5fc1 f03d 2db5 cc3c
000000b0: bad8 883d 2d18 ea3b b698 673d cae6 97ba
000000c0: 74ca c838 80bc af3d f406 633d dc7d 383d
000000d0: 2f9f 04bd d8d0 b13c 11c1 023d 1c97 053a
000000e0: f7fa b6bb 4608 443c 9318 d5ba c0ac 3b3d
000000f0: 9f55 853d 4de2 893d 3019 683d 5c93 3d3d
00000100: 241d 273b 7e7e 433c 37e8 643d 45d2 bdba
00000110: 5dfe 523d cd37 ff3c 9d43 ad3b a96f f43c
00000120: fa36 833d 1cbd 193c e1cc 093d a0c2 d43c
00000130: 84e2 89bc 8c06 fe3c 4695 f73c 75ef 533d

linear1.weight f4 [256, 512]
-0.0013971957 0.042846147 -0.0508545 -0.07805345 0.11116336 -0.07828763 -0.20314896 -0.009496818
-0.12869696 0.11381388 0.12841964 -0.085505776 0.048607644 0.28265727 0.07877906 -0.21604608
-0.12602255 0.22133072 0.06472606 -0.15245155 -0.05760639 -0.04673484 0.12713587 0.050341617
0.030341862 -0.17866887 -0.33314157 0.066502 -0.03551361 -0.0953109 -0.16783167 0.4299084
0.34540778 0.08957621 -0.10803284 -0.06886459 0.022097148 -0.13203087 -0.059862874 -0.093838446
-0.0956726 -0.09134467 -0.09585644 0.07797725 -0.012366702 -0.04652711 -0.25256962 0.118584275
-0.13122253 -0.074322335 -0.05002614 0.2119188 0.042355485 -0.03576274 0.15130974 0.344195
0.12752993 -0.006726602 0.05438694 -0.15466101 -0.03312699 -0.19891125 0.005105808 -0.13178486
0.20622334 0.16384038 0.14274181 0.18569766 -0.30604964 0.19716552 -0.1124151 0.03201892
0.08379668 0.016138941 0.038564496 -0.07604299 0.1312974 0.07564597 0.0062395837 0.0521052
-0.22200213 -0.16699436 -0.11109835 -0.12608923 0.04890566 -0.09839938 0.28801367 0.069823906
-0.1346976 0.2153341 -0.05281739 -0.028381994 -0.11659786 0.11438893 0.26443213 -0.06752955
0.11189776 0.25976428 0.1277673 0.22847149 0.19403233 0.023973584 0.06534527 0.15092844
0.1879099 -0.06360243 0.09518625 -0.34920707 0.10464751 0.038594503 0.08368972 0.22126321
0.15302044 -0.28211185 0.047591638 0.27772966 -0.07392046 0.20486031 0.049592175 -0.10495104
-0.04975789 0.024022736 0.14452541 0.0051894183 -0.029565856 0.23832454 -0.04026111 0.14199427
-0.022172753 0.0032164182 0.035614435 -0.10090918 -0.052478056 0.12391718 -0.09780508 -0.1556651
0.16206339 0.21419883 -0.0144338 -0.28934923 -0.08416166 -0.008602137 0.040072173 -0.04078462
-0.026600279 -0.0568419 0.02376809 -0.17501034 -0.0877912 -0.06567255 -0.18437728 0.22162259
-0.09364006 0.029955735 -0.061844554 0.04145456 -0.11656682 -0.14140686 -0.23043713 0.020120842
0.1280853 0.08025406 -0.026224392 -0.015344784 0.10516995 0.095685266 -0.022590455 -0.028094342
0.035362348 0.16929743 -0.008051655 0.12522314 0.19170703 0.024421457 0.13955736 -0.0008913253
-0.019504927 0.2068084 0.040064618 0.23825005 0.13869901 -0.044558562 -0.26515812 -0.13788095
-0.09742034 0.12385205 -0.0040625636 0.2937062 -0.2416992 0.17406549 0.011242066 0.23103829
0.27339172 -0.15055577 -0.1672214 -0.034099948 0.21566017 -0.054760337 0.15862747 0.15669343
-0.044118047 0.0031571337 -0.022656512 -0.1682139 -0.2676798 -0.29775378 0.31194773 0.09311807
-0.056214433 -0.23241438 0.25655836 -0.09166511 -0.055896483 -0.07437679 0.15235905 -0.027753096
0.2864103 0.15974198 0.007245488 0.11705856 0.21557118 -0.02621705 -0.1833155 -0.05597836
0.20115855 0.00543843 0.0073488215 0.06659611 0.11149182 0.22358337 -0.063234255 0.09867497
-0.0008048497 -0.26165086 -0.09526773 -0.11842086 -0.18280329 -0.05170978 -0.22034472 -0.09937279
0.21709116 -0.10659573 -0.1248665 -0.18319853 0.0023877514 0.06303395 -0.025075639 0.23436335
-0.12394419 0.48547137 -0.25225642 0.1477098 0.07051817 -0.01920407 0.030211687 0.07596848
00000000: 1c22 b7ba 717f 2f3d cf4c 50bd 7dda 9fbd
00000010: 9ea9 e33d 4455 a0bd 4806 50be 8b98 1bbc
00000020: 23c9 03be 4017 e93d 7080 033e a71d afbd
00000030: cf18 473d 74b8 903e ea56 a13d 2f3b 5dbe
00000040: 0e0c 01be 85a4 623e 198f 843d 421c 1cbe
00000050: aef4 6bbd 086d 3fbd e82f 023e 0333 4e3d
00000060: 7f8f f83c f9f4 36be 8891 aabe 3332 883d
00000070: b876 11bd 5c32 c3bd 11dc 2bbe f41c dc3e
00000080: 4ad9 b03e bb73 b73d 5240 ddbd e108 8dbd
00000090: 1405 b53c 1a33 07be c632 75bd 5f2e c0bd
000000a0: ffef c3bd ea12 bbbd 6250 c4bd 89b2 9f3d
000000b0: b59d 4abc 3693 3ebd ce50 81be 50dc f23d
000000c0: 335f 06be 4f36 98bd 36e8 4cbd 3e01 593e
000000d0: f27c 2d3d f37b 12bd f1f0 1a3e 543a b03e
000000e0: 3597 023e d46a dcbb d7c4 5e3d 755f 1ebe
000000f0: 2bb0 07bd 64af 4bbe 9f4e a73b 9cf2 06be
00000100: 362c 533e c6c5 273e e92a 123e 8727 3e3e
00000110: 8ab2 9cbe c2e5 493e e339 e6bd 4526 033d
00000120: 989d ab3d d035 843c cef5 1d3d 6dbc 9bbd
00000130: d372 063e 46ec 9a3d 6c75 cc3b 436c 553d
00000140: 8754 63be 9200 2bbe 8887 e3bd 891d 01be
00000150: 4d51 483d 9d85 c9bd 8776 933e d6ff 8e3d
00000160: 2bee 09be 8b80 5c3e 0c57 58bd 5b81 e8bc
00000170: dcca eebd be44 ea3d a663 873e ef4c 8abd
00000180: a72a e53d d3ff 843e 6ed5 023e 6ef4 693e
00000190: 69b0 463e 4064 c43c bed3 853d fc8c 1a3e
000001a0: 746b 403e fe41 82bd 02f1 c23d 45cb b2be
000001b0: 6f51 d63d 4515 1e3d 8465 ab3d d392 623e
000001c0: 64b1 1c3e f770 90be 73ef 423d 9532 8e3e
000001d0: 9c63 97bd e7c6 513e 2a21 4b3d 92f0 d6bd
000001e0: eece 4bbd 54cb c43c 78fe 133e ff0b aa3b
000001f0: 1834 f2bc 590b 743e d5e8 24bd f266 113e
00000200: a2a3 b5bc 8bca 523b 71e0 113d 79a9 cebd
00000210: 3bf3 56bd 4ac8 fd3d 084e c8bd ac66 1fbe
00000220: f2f3 253e f056 5b3e bf7b 6cbc 9525 94be
00000230: f35c acbd faef 0cbc b822 243d c60d 27bd
00000240: d4e8 d9bc 0dd3 68bd 4cb5 c23c e935 33be
00000250: dfcb b3bd 547f 86bd 66cd 3cbe 08f1 623e
00000260: 5cc6 bfbd bb65 f53c b750 7dbd 42cc 293d
00000270: 96ba eebd f6cc 10be b6f7 6bbe 77d4 a43c
00000280: cb28 033e 3e5c a43d 89d4 d6bc b068 7bbc
00000290: 5863 d73d a3f6 c33d 9e0f b9bc 1b26 e6bc
000002a0: 1cd8 103d 4e5c 2d3e 17eb 03bc 7f3a 003e
000002b0: d94e 443e 820f c83c 20e8 0e3e d4a7 69ba
000002c0: ccc8 9fbc 95c5 533e cc1a 243d d2f7 733e
000002d0: 1d07 0e3e 0a83 36bd cec2 87be aa30 0dbe
000002e0: 5184 c7bd 25a6 fd3d 411f 85bb a960 963e
000002f0: ff7f 77be 393e 323e a430 383c 4d95 6c3e
00000300: 00fa 8b3e 4b2b 1abe 163c 2bbe 63ac 0bbd
00000310: 05d6 5c3e 604c 60bd 3d6f 223e 3e74 203e
00000320: 20b5 34bd eae7 4e3b 269a b9bc 4440 2cbe
00000330: 540d 89be 2f73 98be 9db7 9f3e b0b4 be3d
00000340: 1b41 66bd 09fe 6dbe 9e5b 833e ebba bbbd
00000350: b6f3 64bd dc52 98bd 0304 1c3e 765a e3bc
00000360: 5fa4 923e 6793 233e 8f6b ed3b 66bc ef3d
00000370: b1be 5c3e 24c5 d6bc 0fb7 3bbe 9149 65bd
00000380: 82fc 4d3e db34 b23b 62ce f03b 8b63 883d
00000390: d355 e43d 0af3 643e f680 81bd 1a16 ca3d
000003a0: 8dfc 52ba 1af7 85be ba1b c3bd a386 f2bd
000003b0: c930 3bbe a2cd 53bd 0ca2 61be f683 cbbd
000003c0: 254d 5e3e dd4e dabd 02ba ffbd 6598 3bbe
000003d0: d27b 1c3b f217 813d 6d6b cdbc f2fc 6f3e
000003e0: 74d6 fdbd b48f f83e c127 81be 3d41 173e
000003f0: d56b 903d db51 9dbc 807e f73c 5d95 9b3d

linear1.bias f4 [256]
-0.095658004 -0.0203617 -0.028189773 -0.038705517 -0.07794587 -0.018090898 -0.040056925 -0.08568443
-0.021186799 -0.0462182 -0.16158326 -0.07387957 -0.059739277 -0.075198255 -0.07065322 -0.074575804
-0.031101497 -0.034062672 -0.027969714 -0.06515097 -0.043827575 -0.010137745 -0.059558116 -0.0067211366
-0.07809425 -0.02900409 -0.021725284 -0.06261403 -0.07244782 -0.04718464 -0.00051046576 -0.06873708
-0.066579305 -0.029039301 -0.03644485 -0.05179186 -0.03796411 -0.07842688 -0.03275022 -0.06666324
-0.0019868198 -0.03787603 -0.068577126 -0.06987353 -0.051198974 -0.06980403 -0.06403674 -0.032090798
-0.011737544 -0.012007098 -0.04773653 -0.09362433 -0.010798651 -0.023751335 -0.049781185 -0.07932194
-0.029621964 -0.045720167 -0.03698613 -0.077184774 -0.03450203 -0.05168785 -0.09285706 -0.02424329
-0.07688533 -0.057840902 -0.05448374 -0.05046331 -0.024356486 -0.032475103 0.0077218344 0.007209293
-0.090510614 -0.008515151 -0.0512568 -0.057687733 -0.045039035 -0.028941127 -0.080398 -0.06186631
-0.069157094 -0.0036741134 -0.01690692 -0.062615484 -0.044810668 -0.05551251 -0.034117658 -0.045588363
-0.0642047 -0.05209257 -0.046350926 -0.0021052503 -0.05036214 -0.1425037 -0.064191535 -0.05506329
-0.014998653 -0.07617423 -0.02840325 -0.064549685 -0.043621197 -0.075620644 -0.041988384 -0.015332317
-0.10881942 -0.06697989 -0.085229464 0.042055428 -0.054080423 0.0007580512 -0.0063186325 -0.07298539
-0.01302594 -0.09263151 -0.074216716 -0.112799354 -0.06431371 -0.064770825 -0.0625772 -0.076724164
-0.061961304 -0.043754783 -0.089299284 -0.08200848 -0.08295118 -0.08577907 -0.07533303 -0.045990035
-0.07794964 -0.051087487 -0.043068204 -0.055244673 -0.04019899 -0.056480523 -0.014743073 -0.04651286
-0.07063254 -0.061858304 0.0034135578 -0.06131204 -0.036852796 -0.04278533 -0.06932519 -0.049921013
-0.04621625 -0.023311945 0.017496595 -0.06295974 -0.052156985 -0.06684191 -0.07853896 -0.008253764
-0.069033906 -0.052492853 -0.074298404 -0.06457079 -0.09503857 -0.015726112 -0.044509556 -0.038457207
-0.01708415 -0.030392192 -0.06858663 -0.03743186 -0.023081837 -0.028105693 -0.034707602 -0.069597475
-0.12694184 -0.07658784 -0.03792861 -0.07350546 -0.05937955 -0.03526046 -0.024594933 -0.027261253
-0.072260395 -0.06486388 -0.067533985 -0.122148976 -0.031564824 -0.05482327 -0.088542104 -0.05259739
-0.013983859 -0.019270454 -0.047691047 -0.019582694 -0.032006945 -0.030013874 -0.062003538 -0.040385984
-0.04517 -0.02997216 -0.06950843 -0.041760348 -0.068172455 -0.049797818 -0.012751263 -0.0785135
-0.057365853 -0.064461276 -0.052718952 -0.03139785 -0.03849898 -0.04807558 -0.035454173 -0.05481598
-0.09314011 -0.054862402 -0.060047984 -0.054912057 -0.07008836 -0.08182169 -0.03870069 -0.05573657
-0.0026529462 -0.07980276 -0.050698664 -0.037242815 -0.028835597 -0.0391162 -0.039221514 -0.043215886
-0.070554174 -0.0203494 -0.0006581164 -0.06998794 -0.03009947 -0.013191402 -0.045222674 -0.051884808
0.00020699776 -0.11964112 -0.051916204 -0.023105726 -0.018666308 -0.006058109 -0.022387348 -0.071143575
-0.040902402 -0.054590635 -0.03394078 -0.0800398 -0.05184079 -0.097834855 -0.063866064 -0.03921176
-0.03917724 -0.05081952 -0.087644346 -0.012534829 -0.046879604 -0.051514044 -0.05069533 -0.041167144
00000000: 58e8 c3bd 94cd a6bc 3dee e6bc ad89 1ebd
00000010: 16a2 9fbd 5d33 94bc bb12 24bd 527b afbd
00000020: f08f adbc 4c4f 3dbd 1576 25be 2c4e 97bd
00000030: 2cb1 74bd 8b01 9abd a3b2 90bd 33bb 98bd
00000040: 91c8 febc 4d85 0bbd be20 e5bc df6d 85bd
00000050: 8b84 33bd c918 26bc 36f3 73bd fb3c dcbb
00000060: e1ef 9fbd fc99 edbc 39f9 b1bc c93b 80bd
00000070: 865f 94bd ae44 41bd c7d0 05ba 07c6 8cbd
00000080: bb5a 88bd d4e3 edbc 3247 15bd b423 54bd
00000090: 4180 1bbd 469e a0bd 1825 06bd bd86 88bd
000000a0: 4e35 02bb e523 1bbd 2a72 8cbd da19 8fbd
000000b0: 04b6 51bd 6af5 8ebd b225 83bd a471 03bd
000000c0: d44e 40bc 6bb9 44bc 6187 43bd 1dbe bfbd
000000d0: d3ec 30bc 2992 c2bc 5be7 4bbd 8b73 a2bd
000000e0: c3a9 f2bc 1245 3bbd c57e 17bd 0d13 9ebd
000000f0: 0052 0dbd a4b6 53bd d82b bebd dd99 c6bc
00000100: 0e76 9dbd 95ea 6cbd 582a 5fbd 9eb2 4ebd
00000110: 4187 c7bc 9d04 05bd 7107 fd3b ef3b ec3b
00000120: a15d b9bd 2283 0bbc a6f2 51bd f949 6cbd
00000130: da7a 38bd f115 edbc b5a7 a4bd 8767 7dbd
00000140: 3ca2 8dbd 65c9 70bb 6280 8abc 8c3c 80bd
00000150: 648b 37bd 1661 63bd f5be 0bbd ddba 3abd
00000160: c17d 83bd 055f 55bd 78da 3dbd 3df8 09bb
00000170: 8848 4ebd 7dec 11be da76 83bd 0b8a 61bd
00000180: e9bc 75bc 3c01 9cbd efad e8bc a032 84bd
00000190: 24ac 32bd ffde 9abd 03fc 2bbd 6634 7bbc
000001a0: b7dc debd c12c 89bd c98c aebd 5042 2c3d
000001b0: 6f83 5dbd f4b7 463a 880c cfbb 5d79 95bd
000001c0: c16a 55bc 97b5 bdbd effe 97bd 5903 e7bd
000001d0: e8b6 83bd 91a6 84bd 7a28 80bd 8f21 9dbd
000001e0: 23cb 7dbd 3738 33bd 8be2 b6bd 10f4 a7bd
000001f0: 4fe2 a9bd f0ac afbd 3448 9abd 0c60 3cbd
00000200: 10a4 9fbd 1d41 51bd 4968 30bd 3d48 62bd
00000210: b2a7 24bd 1f58 67bd ee8c 71bc 4584 3ebd
00000220: cba7 90bd 225f 7dbd ffb5 5f3b 5522 7bbd
00000230: f5f2 16bd ac3f 2fbd 5dfa 8dbd fa79 4cbd
00000240: 404d 3dbd b1f8 bebc 0555 8f3c 09f1 80bd
00000250: 90a2 55bd 69e4 88bd 09d9 a0bd cc3a 07bc
00000260: a661 8dbd bf02 57bd c329 98bd b13d 84bd
00000270: 95a3 c2bd 0cd4 80bc a74f 36bd 4e85 1dbd
00000280: 0ff4 8bbc 0cf9 f8bc 2677 8cbd 2652 19bd
00000290: 1f16 bdbc e93d e6bc 8f29 0ebd 1f89 8ebd
000002a0: 0bfd 01be 16da 9cbd 085b 1bbd 088a 96bd
000002b0: f937 73bd 466d 10bd 507b c9bc fe52 dfbc
000002c0: 42fd 93bd 5bd7 84bd 424f 8abd 3e29 fabd
000002d0: 1e4a 01bd 5d8e 60bd 9055 b5bd 5c70 57bd
000002e0: 8e1c 65bc 12dd 9dbc b057 43bd e36b a0bc
000002f0: b719 03bd a8df f5bc 6cf7 7dbd c66b 25bd
00000300: 2e04 39bd 2d88 f5bc 705a 8ebd e60c 2bbd
00000310: 009e 8bbd ccf8 4bbd acea 50bc b0cb a0bd
00000320: 75f8 6abd 4604 84bd d4ef 57bd 089b 00bd
00000330: 1bb1 1dbd e6ea 44bd 6538 11bd b986 60bd
00000340: 3ec0 bebd 66b7 60bd e0f4 75bd 77eb 60bd
00000350: 7c8a 8fbd 2192 a7bd 9d84 1ebd 084c 64bd
00000360: 0ddd 2dbb a16f a3bd 67a9 4fbd ec8b 18bd
00000370: a138 ecbc 4f38 20bd bda6 20bd 2403 31bd
00000380: b57e 90bd c9b3 a6bc 7285 2cba d655 8fbd
00000390: 2a93 f6bc c020 58bc 693b 39bd 2a85 54bd
000003a0: 8a0d 5939 6706 f5bd 16a6 54bd 3848 bdbc
000003b0: 16ea 98bc 1a83 c6bb ac65 b7bc b9b3 91bd
000003c0: 4789 27bd 6e9a 5fbd 7d05 0bbd e8eb a3bd
000003d0: 0257 54bd a45d c8bd 36cc 82bd 839c 20bd
000003e0: 5078 20bd 2128 50bd e17e b3bd e25e 4dbc
000003f0: d404 40bd 6400 53bd e8a5 4fbd e19e 28bd

linear2.weight f4 [80, 256]
-0.03543701 -0.045329988 -0.050471745 -0.032102812 0.07960233 0.06588097 -0.07773126 0.075150214
0.020238198 0.029038658 -0.0021148673 0.014958145 -0.047502052 0.011683194 0.0013486425 -0.049630266
0.035601128 0.12127695 -0.017706566 0.026477575 0.011422945 0.03541501 0.059058215 -0.09005573
-0.009751769 -0.034814514 0.08862673 0.034411773 -0.02924907 0.021125086 -0.020852584 0.03505735
0.02115524 0.088441744 0.02377719 -0.025437912 0.022990486 -0.066196635 0.037056338 0.09233496
0.096739784 -0.03722221 0.038229976 -0.047375772 0.023131328 0.038833518 -0.0019529791 0.027418466
0.0323057 -0.05880577 0.075417854 0.07956418 0.028350603 0.0006665125 0.0100898575 0.038397525
-0.022046868 0.017250607 -0.0069719334 0.035012793 0.0060509206 -0.024723776 0.051983804 -0.067940004
-0.010386236 -0.0018841553 0.08394899 0.07269761 0.014025141 0.022533175 -0.039547317 0.0061389464
-0.080826096 0.013543189 0.04504218 -0.03168581 -0.034929562 0.037794415 -0.13891211 0.0074691596
0.0007099428 0.23190671 -0.0076260357 0.009782316 -0.021552123 -0.06388026 0.0517577 -0.012278964
0.033285256 0.0056091542 0.058584362 -0.020153927 0.006346663 -0.10714791 -0.010752846 -0.008197705
-0.024943363 -0.080249585 0.042412803 -0.0043094973 0.022714516 0.058646373 0.056216918 0.012304108
-0.04989345 -0.027162576 0.03803756 -0.05850921 -0.06476125 0.0481282 0.010553813 -0.06733156
-0.0072911824 -0.03388451 -0.05152216 -0.05365035 -0.02093034 0.0145803215 -0.07546055 0.0014998765
0.011639194 0.062353805 0.082079045 0.051185172 0.022234477 0.013974038 -0.07900409 -0.039731763
0.01843972 -0.06721387 -0.014232248 0.07136091 0.09027843 0.057331007 0.06290468 0.08901125
0.007747176 -0.00047821875 0.03043408 0.0059960843 0.010744783 0.06500663 -0.014372936 0.07526824
-0.019095222 0.043492053 0.08885158 -0.0011683956 -0.014994246 0.014922956 0.00574925 -0.06389119
0.052678194 0.0071075107 -0.063908964 0.039775327 0.06866644 -0.09320505 0.035980877 -0.03999847
-0.012340318 0.017304646 0.02738632 -0.040397972 0.09369291 0.02201698 -0.06761628 0.010295429
-0.038533412 0.11703929 -0.051363155 0.05360839 0.012580902 0.011644082 0.044942923 -0.0099284705
-0.06326514 -0.048203852 -0.021090789 0.13451482 0.046194557 -0.056282666 -0.065210864 0.073211916
0.053960755 0.064984955 -0.018493678 0.059255037 0.16492417 0.040330473 0.03229212 0.037843645
0.027830454 0.17455275 0.030193435 -0.042381033 0.003611607 0.07563884 0.056950454 -0.2643076
0.08807743 0.04865987 -0.021885157 0.08084632 -0.029760046 -0.08032426 -0.031972386 0.112392284
-0.020627681 -0.012711011 0.06678908 0.04089975 0.06564668 -0.06127394 0.066092566 0.023565227
0.04983126 -0.0045619244 -0.052765824 0.011336004 -0.0009611571 0.046813082 -0.083817095 -0.078785695
-0.057523876 0.03952583 -0.015369834 -0.0036877182 0.034234177 -0.053191416 0.047966488 0.0030259432
0.041766923 -0.13215907 -0.04643056 0.014855528 0.024040345 0.06730988 0.016390383 0.038551327
0.16612928 -0.0026618168 -0.049436778 0.06772442 0.043829706 -4.057589e-05 0.056370478 0.009093881
0.07204928 -0.036426123 -0.056808006 -0.02046639 -0.008550056 0.04075722 0.018600672 0.06518106
00000000: 6626 11bd f0ab 39bd 76bb 4ebd 3d7e 03bd
00000010: 8c06 a33d 9aec 863d 9131 9fbd 5be8 993d
00000020: 94ca a53c 7be2 ed3c 9699 0abb 0213 753c
00000030: 8391 42bd de6a 3f3c efc4 b03a 1b49 4bbd
00000040: 7dd2 113d 0d60 f83d 5c0d 91bc 80e7 d83c
00000050: 4e27 3b3c 540f 113d 07e7 713d 236f b8bd
00000060: e2c5 1fbc aa99 0ebd ee81 b53d 5cf3 0c3d
00000070: bf9b efbc 840e ad3c 0ad3 aabc 4c98 0f3d
00000080: c14d ad3c f220 b53d 62c8 c23c 2b63 d0bc
00000090: 8b56 bc3c 1a92 87bd 63c8 173d 1d1a bd3d
000000a0: 821f c63d 5176 18bd 0997 1c3d 190d 42bd
000000b0: e97d bd3c e50f 1f3d 1bfb ffba b19c e03c
000000c0: fb52 043d 52de 70bd ad74 9a3d 8bf2 a23d
000000d0: 863f e83c e6b8 2e3a ee4f 253c b946 1d3d
000000e0: a29b b4bc 2551 8d3c d174 e4bb 9369 0f3d
000000f0: cd46 c63b 8489 cabc f8ec 543d 2124 8bbd
00000100: 082b 2abc c3f5 f6ba 73ed ab3d 7ce2 943d
00000110: b4c9 653c 7e97 b83c 5efc 21bd 3729 c93b
00000120: 2788 a5bd 40e4 5d3c 267e 383d fbc8 01bd
00000130: 4d12 0fbd 51ce 1a3d fa3e 0ebe dabf f43b
00000140: 741b 3a3a f478 6d3e d3e3 f9bb 0246 203c
00000150: 148e b0bc a7d3 82bd e2ff 533d b52d 49bc
00000160: 1f56 083d ffcc b73b 28f6 6f3d d919 a5bc
00000170: abf7 cf3b 5d70 dbbd b42c 30bc ab4f 06bc
00000180: 0656 ccbc e559 a4bd 0cb9 2d3d af36 8dbb
00000190: cb13 ba3c 2e37 703d b643 663d 2b97 493c
000001a0: 135d 4cbd 0d84 debc 46cd 1b3d 5aa7 6fbd
000001b0: 8ca1 84bd 1322 453d e6e9 2c3c 21e5 89bd
000001c0: dfea eebb 7cca 0abd e708 53bd 78c0 5bbd
000001d0: 1b76 abbc 4de2 6e3c 108b 9abd 8197 c43a
000001e0: 51b2 3e3c b466 7f3d 0f19 a83d 8ba7 513d
000001f0: 1425 b63c 5df3 643c e5cc a1bd c6bd 22bd
00000200: e50e 973c 6da7 89bd 602e 69bc ab25 923d
00000210: e6e3 b83d ebd3 6a3d 2bd4 803d 884b b63d
00000220: 06dc fd3b 6fb9 fab9 e450 f93c cd7a c43b
00000230: e30a 303c 3222 853d 777c 6bbc 3c26 9a3d
00000240: 956d 9cbc b924 323d d1f7 b53d da24 99ba
00000250: 6daa 75bc 6a7f 743c 3464 bc3b 62d9 82bd
00000260: 17c5 573d 1fe6 e83b b4e2 82bd 74eb 223d
00000270: fea0 8c3d 4ae2 bebd af60 133d 70d5 23bd
00000280: 0c2f 4abc 79c2 8d3c 4759 e03c 5878 25bd
00000290: 12e2 bf3d f45c b43c 677a 8abd 29ae 283c
000002a0: 36d5 1dbd 4cb2 ef3d 2c62 52bd 7994 5b3d
000002b0: 2120 4e3c d2c6 3e3c 1216 383d 06ab 22bc
000002c0: 2791 81bd 6771 45bd 97c6 acbc 41be 093e
000002d0: 8136 3d3d a788 66bd 468d 85bd 21f0 953d
000002e0: f405 5d3d d516 853d 0e80 97bc 69b5 723d
000002f0: e2e1 283e 9131 253d be44 043d f001 1b3d
00000300: b1fc e33c f5bd 323e 3958 f73c bc97 2dbd
00000310: b6b0 6c3b 89e8 9a3d e144 693d 5353 87be
00000320: f161 b43d 924f 473d 8048 b3bc c192 a53d
00000330: 57cb f3bc 0c81 a4bd 7af5 02bd ed2d e63d
00000340: 62fb a8bc d841 50bc b7c8 883d 7f86 273d
00000350: c471 863d 62fa 7abd 8a5b 873d dd0b c13c
00000360: dd1b 4c3d 327c 95bb fa20 58bd a6ba 393c
00000370: 29f6 7bba 13bf 3f3d 4ca8 abbd 655a a1bd
00000380: 289e 6bbd d6e5 213d c2d1 7bbc a5ad 71bb
00000390: 2339 0c3d 3edf 59bd 8278 443d e74e 463b
000003a0: cb13 2b3d b554 07be f92d 3ebd 9a64 733c
000003b0: 42f0 c43c c3d9 893d 2045 863c ffe7 1d3d
000003c0: cb1d 2a3e e071 2ebb 387e 4abd 1ab3 8a3d
000003d0: c786 333d 0830 2ab8 bbe4 663d 80fe 143c
000003e0: 938e 933d 8f33 15bd 83af 68bd 21a9 a7bc
000003f0: 8915 0cbc 0bf1 263d 7060 983c a67d 853d

linear2.bias f4 [80]
0.0063612047 0.101711094 0.04114074 -0.013131242 0.020347191 0.07767495 -0.0067873206 -0.056815255
0.053854108 0.00069407426 -0.015156899 0.015730284 0.022447161 0.014882339 0.0044793314 0.036263738
-0.06781839 0.007328446 0.022375707 -0.01025404 -0.07789108 0.046469133 0.021843871 0.025885813
-0.0706962 0.13059777 0.023137799 -0.031319547 0.018758534 -0.021758055 0.036545698 0.025297208
-0.04213849 -0.026406432 -0.068443865 0.0038510382 0.0038234673 0.07500719 -0.024840275 0.008584379
-0.039972156 -0.011617723 -0.022691093 -0.07425462 -0.124684684 -0.015664117 -0.015468742 -0.0055075614
0.015683962 -0.06396401 0.019511104 -0.104464576 -0.042622454 0.055165358 0.029611338 -0.014955511
-0.017718706 0.027279273 0.027015498 -0.060088243 0.014954097 -0.041698277 -0.01359244 -0.05010484
0.02391363 -0.059217304 -0.035606965 0.036778957 -0.017075082 0.0012474667 0.051148042 0.066694014
-0.024965186 -0.04901646 0.02455583 0.063762546 -0.06158254 0.068769835 0.053729385 -0.03693748
00000000: a771 d03b e84d d03d 3183 283d 6c24 57bc
00000010: 27af a63c 0b14 9f3d 2c68 debb 1db7 68bd
00000020: 2096 5c3d 89f2 353a a454 78bc ccdc 803c
00000030: 1ce3 b73c 0ed5 733c 5bc7 923b 4989 143d
00000040: 5ee4 8abd 7623 f03b 424d b73c 9000 28bc
00000050: 5c85 9fbd 6b56 3e3d ebf1 b23c 7c0e d43c
00000060: 2bc9 90bd 6cbb 053e 7b8b bd3c ed48 00bd
00000070: 7fab 993c f33d b2bc f1b0 153d 173c cf3c
00000080: 6999 2cbd 4d52 d8bc 4c2c 8cbd b361 7c3b
00000090: 2393 7a3b 5f9d 993d d57d cbbc 7fa5 0c3c
000000a0: d8b9 23bd 4358 3ebc ace2 b9bc ce12 98bd
000000b0: af5a ffbd 0952 80bc 9b70 7dbc c678 b4bb
000000c0: a77b 803c 90ff 82bd c0d5 9f3c 86f1 d5bd
000000d0: e294 2ebd 12f5 613d 7a93 f23c f607 75bc
000000e0: d226 91bc c878 df3c 9b4f dd3c 171f 76bd
000000f0: 0702 753c d0cb 2abd d3b2 5ebc bc3a 4dbd
00000100: 84e6 c33c d88d 72bd 9cd8 11bd 88a5 163d
00000110: 0be1 8bbc 0982 a33a 9c80 513d df96 883d
00000120: ca83 ccbc 7cc5 48bd 4f29 c93c f095 823d
00000130: f93d 7cbd 33d7 8c3d 5813 5c3d c14b 17bd

weight f4 [1, 768]
0.0022830658 -0.047476485 0.02579087 -0.020609967 0.0011350084 -0.007878719 0.00375246 0.011593419
-0.023703419 -0.020581596 -0.0056258766 0.012965043 0.003356404 0.008277204 -0.010078826 0.008133809
-0.010073923 0.017150389 0.0046314555 0.011855337 0.0033578784 0.010468024 -0.02018627 -0.010971141
-0.0014537728 -0.0112329265 -0.0055694003 0.023998668 -0.010686268 -0.0058136103 0.0024936143 0.013571389
0.005440207 0.01437272 0.020096937 -0.017688332 0.003250272 -0.011229313 -0.018661698 0.0214859
-0.01175967 0.0061866925 -0.016370827 -0.004064416 -0.025041543 -0.027018508 0.011928027 -0.019998876
0.02820641 0.027021632 -0.0026279103 0.028131166 0.01417683 -0.014534498 0.026873106 0.023127863
0.021299826 -0.011849345 0.02497244 -0.02697882 -0.000728035 0.030084008 0.03974346 -0.014579684
-0.00018430148 -0.03497313 -0.008442249 -0.0051246462 0.014173169 -0.030726094 -0.012410068 0.015370482
0.02354697 0.030169839 -0.009885599 -0.02198889 0.010416753 -0.02872494 -0.0025194609 -0.015723936
-0.006899067 0.0027284601 0.020954208 -0.013580846 -0.014264929 -0.005568952 0.00048338767 0.020522008
-0.018569862 0.021859845 0.015306258 0.005733071 0.0010920205 8.622499e-05 -0.0044600065 0.01453756
0.008389987 -0.033331268 0.021683093 0.009223508 -0.012394024 -0.020126937 -0.0018391272 0.01791513
-0.012622952 0.03322785 0.0040531 -0.01031911 -0.0050603743 0.038062505 0.027738288 0.016906077
0.0036667073 0.01517804 0.007071167 0.004002963 -0.019160148 -0.004768297 -0.014905178 -0.0085253455
0.0027483741 -0.021438653 -0.026121954 -0.024092287 -0.005259334 0.0057573784 -0.017657453 0.004243941
-0.022929573 0.004211141 0.019038582 0.0016207835 -0.021110324 0.002580161 -0.015178698 0.027242087
0.005198961 0.014027689 -0.0023095042 -0.021872204 0.015295168 -0.019041775 -0.019796625 -0.0228236
-0.0067462577 0.020715663 0.024327988 -0.030495405 -0.024004828 5.728478e-05 -0.005757222 -0.015406825
0.004104324 -0.014606175 0.03229539 0.0059132157 -0.012093927 0.012200708 -0.012667933 0.030463407
-0.022785764 0.018856019 0.012521683 -0.016027097 0.03358549 -0.022533145 -0.010433699 -0.02524715
0.015826548 0.0065743434 0.025976805 0.0051438157 0.017540677 0.012054638 0.023955101 0.012307082
-0.015856877 0.03324037 0.0098760715 -0.020930547 0.0042583565 0.020954028 0.020026023 0.023906428
-0.026652314 -0.006835433 0.014494075 -0.023200406 -0.012097646 0.016631277 0.022241984 0.034573235
0.017427864 -0.0028943033 0.0119682 -0.010171493 -0.0021745437 -0.013092966 -0.025372945 0.020178104
0.011182981 0.00012993439 0.004715125 -0.024240045 0.0043175016 0.022679973 0.0005925371 -0.00838488
0.009478187 -0.011725793 -0.029484196 0.016865749 0.018211663 0.015633157 -0.005127911 0.025632028
-0.014501689 -0.019130697 0.004596507 -0.014455962 0.0058958507 0.020465 -0.026968217 0.020120189
0.021980092 -0.0008892994 -0.02494984 -0.004197909 0.019250868 -0.010792067 -0.03295324 -0.017283546
-0.010734888 -0.032803 -0.014786164 -0.00677615 0.00014481085 0.02985206 0.010187997 0.026368598
0.015231133 -0.020154161 0.014672551 0.014706422 0.008982255 0.012405411 0.007790236 0.000824478
0.0012669866 -0.01807572 -0.013819644 -0.0034875292 -0.018071808 -0.016882986 0.017209647 -0.016141247
00000000: 7d9f 153b b476 42bd 6047 d33c 3cd6 a8bc
00000010: 90c4 943a be15 01bc d5eb 753b 53f2 3d3c
00000020: ac2d c2bc bc9a a8bc 4659 b8bb 556b 543c
00000030: 1df7 5b3b 1c9d 073c a921 25bc ab43 053c
00000040: 180d 25bc f97e 8c3c 77c3 973b e33c 423c
00000050: da0f 5c3b 1382 2b3c ad5d a5bc 4dc0 33bc
00000060: 858c beba 4f0a 38bc 847f b6bb db98 c43c
00000070: 7515 2fbc 1980 bebb e86b 233b 885a 5e3c
00000080: c443 b23b 8f7b 6b3c 55a2 a43c 1fe7 90bc
00000090: 8402 553b 27fb 37bc 6be0 98bc 3303 b03c
000000a0: a2ab 40bc bdb9 ca3b 1d1c 86bc cb2e 85bb
000000b0: ec23 cdbc eb55 ddbc c56d 433c afd4 a3bc
000000c0: 2111 e73c 785c dd3c 0539 2cbb 5573 e63c
000000d0: ef45 683c 1a22 6ebc fd24 dc3c a576 bd3c
000000e0: f97c ae3c c123 42bc 0193 cc3c b002 ddbc
000000f0: 9ad9 3eba bd72 f63c 0aca 223d a0df 6ebc
00000100: 0d41 41b9 fc3f 0fbd 5c51 0abc a6ec a7bb
00000110: 9436 683c 4ab5 fbbc 9953 4bbc 79d4 7b3c
00000120: 93e5 c03c bd26 f73c 35f7 21bc 0b22 b4bc
00000130: 07ab 2a3c 9150 ebbc 8a1d 25bb 7ccf 80bc
00000140: 9211 e2bb f7cf 323b 29a8 ab3c 3282 5ebc
00000150: 73b7 69bc c17b b6bb 326f fd39 c51d a83c
00000160: d31f 98bc 6b13 b33c 19c7 7a3c 7cdc bb3b
00000170: 2122 8f3a b0d3 b438 3f25 92bb f22e 6e3c
00000180: 2876 093c 5e86 08bd bea0 b13c 321e 173c
00000190: 4e10 4bbc 3fe1 a4bc de0e f1ba c0c2 923c
000001a0: 80d0 4ebc ed19 083d decf 843b 7c11 29bc
000001b0: 7fd1 a5bb 6ee7 1b3d 683b e33c 9d7e 8a3c
000001c0: 244d 703b 50ad 783c 40b5 e73b 4a2b 833b
000001d0: bef5 9cbc 603f 9cbb d934 74bc e4ad 0bbc
000001e0: 111e 343b 1da0 afbc b5fd d5bc 305d c5bc
000001f0: 7e56 acbb 64a8 bc3b 5da6 90bc c210 8b3b
00000200: cdd6 bbbc 9cfd 893b cdf6 9b3c 7870 d43a
00000210: 8fef acbc eb17 293b 13b0 78bc cc2a df3c
00000220: 0c5c aa3b 64d4 653c 0d5b 17bb 562d b3bc
00000230: 9698 7a3c 7ffd 9bbc 882c a2bc 8ff8 babc
00000240: b60f ddbb e5b3 a93c 7d4b c73c 80d1 f9bc
00000250: c6a5 c4bc 1045 7038 14a7 bcbb e86c 7cbc
00000260: 917d 863b bd4e 6fbc 2c48 043d a6c3 c13b
00000270: 9b25 46bc 7ae5 473c 298d 4fbc 658e f93c
00000280: 36a9 babc f077 9a3c bf27 4d3c 424b 83bc
00000290: f090 093d 6e97 b8bc 1bf2 2abc 1cd3 cebc
000002a0: ada6 813c 976d d73b 4fcd d43c 748d a83b
000002b0: 77b1 8f3c d180 453c 7d3d c43c a5a3 493c
000002c0: 48e6 81bc 0e27 083d 3fcf 213c 8a76 abbc
000002d0: af89 8b3b c8a7 ab3c 9d0d a43c 6ad7 c33c
000002e0: f455 dabc c5fb dfbb 8f78 6d3c c70e bebc
000002f0: 3435 46bc 513e 883c d234 b63c aa9c 0d3d
00000300: e1c4 8e3c 5aae 3dbb 4516 443c 55a6 26bc
00000310: ca82 0ebb e183 56bc ecda cfbc 8d4c a53c
00000320: d238 373c ff3e 0839 5681 9a3b 0f93 c6bc
00000330: d479 8d3b 5acb b93c 7e54 1b3a bc60 09bc
00000340: 664a 1b3c 8a1d 40bc d788 f1bc 0a2a 8a3c
00000350: a030 953c 1b11 803c 0908 a8bb 42fa d13c
00000360: 7e98 6dbc fbb7 9cbc 4c9e 963b b3d8 6cbc
00000370: fb31 c13b 37a6 a73c 73ec dcbc 18d3 a43c
00000380: 980f b43c df1f 69ba 9b63 ccbc 9d8e 89bb
00000390: ffb3 9d3c 36d1 30bc faf9 06bd 3996 8dbc
000003a0: 62e1 2fbc 705c 06bd ab41 72bc 770a debb
000003b0: 5ed8 1739 4f8c f43c 8eeb 263c f502 d83c
000003c0: 018c 793c 571a a5bc 2465 703c 34f3 703c
000003d0: 4f2a 133c 1140 4b3c 3c45 ff3b c821 583a
000003e0: 0411 a63a 8813 94bc ca6b 62bc 088f 64bb
000003f0: 540b 94bc 304e 8abc 3ffb 8c3c a63a 84bc
