SPMLUA_outputs/20_60/Train_with_full_labels_L2loss/checkpoint_best.pth (torch, 691407 bytes, 7 tensors)

weight f4 [80, 240]
00000000: 9f38 fd3e 1aa5 643d c30b 643d 6281 e1bc
00000010: 9083 70bd 5542 413d e32b 323d 899a 9cbd
00000020: dde1 86bd 33cf d8bc 7129 45bd a15c adbd
00000030: 3c12 0dbe cdf2 0fbc 3caf 07bd e906 c4bc
00000040: 1ee2 23bd fd1f 4ebd bd9c 90bd e5dc d6bc
00000050: f7f7 afbd 5de7 e1bd 695a e3bd 8828 b5bd
00000060: 768d 3e3e c145 1d3d e274 a5bb 0be7 663e
00000070: 47dc b2bc 59cb b5bc 3c4c 5a3d 5364 f6bb
00000080: 13ca 08bd 6e8a 073d 0a17 a33c b675 883c
00000090: 453d 773e edc9 4b3c 3663 2ebc 0bef 91bd
000000a0: 978e 34bd d466 073e ec17 cabd c5f3 7dbd
000000b0: b36d 38bd aaca a93b 2d76 07bd 728b 01bd
000000c0: 5b2c 8fbd 410a 6dbd 819e b8bd 2032 78bc
000000d0: 7158 193c e70d aabc bb1f d1ba 7c70 49bc
000000e0: 70f0 e3bc 3dfd 2cbc b366 d4bd 25bf 6ebd
000000f0: 79f6 f9bd e089 77bd 89c8 c63c a4bc cfbc
00000100: 367d c2bd 9428 93bd b877 e1bd f208 963d
00000110: dc70 5ebb 6f83 f2bd 2718 c3bd 92f7 02be
00000120: 5fc5 26bd 6300 b9bd fa48 12be 4210 cbbd
00000130: 09ad 13bd 1265 5ebd 6d7f 9ebc d7a3 0bbd
00000140: ace4 7b3e 4c2c a23d db47 853e 424b da3d
00000150: 968e 6fbe 3f75 86bd e57c 383d 64a1 523e
00000160: 41de 85be 3fd1 1abc ae79 99bd 8905 27be
00000170: 90d2 08be 8981 35be 37a0 a6be aa70 81be
00000180: cb8c fc3d cbed 133f 1486 113d 426d 993e
00000190: cf46 143e 921a c6be 8231 79be 8287 ddbc
000001a0: ef8f 493d 131a 48be 61ee a0bc 3bc3 083d
000001b0: 7091 943e a676 553e 45e8 10bf 3fe2 81bc
000001c0: 22d6 343d e0a7 5dbe f731 693d bfaf 8cbe
000001d0: 9ae7 51be 4be8 16be 5164 08be 1be1 b0bc
000001e0: 06f3 93bd e84b f93d c04d 4a3e 2541 6a3e
000001f0: b318 473e fc54 2a3e e57b 823e 9f8e b43c
00000200: 8740 523e d5f5 133e bb75 e8be 1100 db3e
00000210: 122e 2bbe 14b8 5cbe 29ff 363e 844a 5c3e
00000220: da7d 7fbe 0ed7 0bbe ccc4 d73c 0047 863d
00000230: dc5a 103e 38be 803e 0a44 f73d 7928 ecbd
00000240: 0d6c 36bc 818f 9e3d 497c 5abd c9d6 41bd
00000250: 28f5 2abe ef46 2cbe 6074 0fbd 6027 86be
00000260: 44ae 963e bbfd 2abd 6764 1e3d 0c06 e9bb
00000270: 6758 f83d 74c8 97be f40a 8bbe 6530 a63e
00000280: af79 3cbd 8527 1a3d 3689 bfbc 4f1e fe3c
00000290: 1cc9 25bc e1fc 233d 3039 fa3c 8e4f e93c
000002a0: c60a 4d3c 0e97 9a3d a4bb df3c da36 703d
000002b0: c0f4 a53c 2664 613d 31a2 3dbb 7c19 39bc
000002c0: 2c80 693c 1677 3e3b 73ef 3c3c a843 b9bc
000002d0: 2695 8dbd 2b3b 57bd 53dd 63bc e4c1 4ebc
000002e0: 0f01 403c 77a8 2d3b b443 9abd a001 4bbd
000002f0: e3bc d6bc 7a31 583b 060d beba f0ab af3d
00000300: ee91 8ebc 28c0 ba3d 21c1 a83d c923 173d
00000310: 64ee d13d 519a 1b3d 1cf9 93bd a5e7 4d3c
00000320: 608e cf39 d45e f03c 2af8 393d 0527 373c
00000330: 47f7 35bd 58ac 02bd 3325 123d f33b 303d
00000340: de85 cf3b eeb1 bb3d 701c 223d 40d7 2a3d
00000350: c7d8 223d e439 353c 12ec 453d f929 283c
00000360: 4048 3cbd 490a a93c 2647 9c3c b513 efbc
00000370: eee6 a7bc 51de 3fbd 766d 243d 8c45 77bd
00000380: f6bd 0dbc 6d97 46bc 5f3a 81bd 3eb5 9ebc
00000390: 9970 76bd b7be 2cbd 2106 30bc 0fa2 953d
000003a0: fda0 42bd 41ef c73d 6b75 be3c 069e c0bc
000003b0: e621 f3bc 579e 36bd 47c5 d6bc f9e6 4f3c
000003c0: da48 19bc 957e 593f 1e66 123c 454a 11be
000003d0: d180 f43c c9b8 06bd 30d7 6fbd 186c 1dbd
000003e0: 5c34 b7bb 57bd ffbc 763c 2abd 4ec4 9abc
000003f0: fe90 70bc 0420 1e3c 248f febb 4e31 d03b
0.4945726 0.055821516 0.05567528 -0.027527515 -0.058719218 0.0471824 0.043498885 -0.07646663
-0.06586049 -0.026465988 -0.048135225 -0.08464933 -0.13776487 -0.008785916 -0.0331261 -0.023929076
-0.040010564 -0.050323475 -0.070611455 -0.026228378 -0.085922174 -0.11030457 -0.11101229 -0.08845621
0.1860865 0.0383966 -0.005049334 0.22549073 -0.021833552 -0.02219169 0.05329536 -0.007519284
-0.033395838 0.033091 0.019908447 0.016657691 0.24144466 0.01243828 -0.010643771 -0.07125672
-0.044081297 0.1322282 -0.09867844 -0.062000055 -0.045026492 0.00518163 -0.033071686 -0.031627126
-0.06990882 -0.057871107 -0.09014607 -0.0151486695 0.009359465 -0.020758582 -0.0015954891 -0.012294885
-0.02782461 -0.010558424 -0.10371151 -0.05828776 -0.12205214 -0.060434222 0.024265544 -0.025358506
-0.09496538 -0.07185474 -0.11009163 0.07325925 -0.003394178 -0.11841475 -0.09526091 -0.12789753
-0.04071557 -0.09033277 -0.14285651 -0.0991521 -0.03605369 -0.054295607 -0.01934787 -0.034091797
0.2459895 0.07918605 0.26031384 0.106588855 -0.23394236 -0.06565332 0.045040984 0.20569378
-0.2614613 -0.009449302 -0.07493912 -0.16310705 -0.13361573 -0.17725195 -0.3254411 -0.25281268
0.12331542 0.5778472 0.035528257 0.2996617 0.14480136 -0.38692147 -0.24335292 -0.027042154
0.04920953 -0.19541197 -0.019644918 0.03338931 0.2901721 0.20846042 -0.56604415 -0.015854953
0.044149525 -0.2164607 0.056932416 -0.27477834 -0.20498505 -0.1473705 -0.13319518 -0.021591714
-0.072240874 0.12172681 0.19756222 0.22876413 0.19443016 0.16633981 0.2548515 0.022040663
0.20532428 0.14449246 -0.4540232 0.42773488 -0.16716793 -0.21554595 0.17870773 0.215128
-0.24950352 -0.13656256 0.026338957 0.06556511 0.1409716 0.25145125 0.12073524 -0.11531157
-0.01113416 0.07742215 -0.053341184 -0.047323976 -0.16695082 -0.16823934 -0.035023093 -0.26201916
0.2942983 -0.041745882 0.03866997 -0.0071113165 0.121262364 -0.2964512 -0.27156794 0.32458797
-0.046014484 0.037635345 -0.023380857 0.031020312 -0.010118749 0.040036086 0.030544847 0.028480317
0.012514776 0.07548343 0.027311154 0.05864606 0.020258307 0.05502715 -0.0028935785 -0.01129758
0.01425175 0.002906268 0.0115316985 -0.022615269 -0.069132134 -0.05254666 -0.013907748 -0.012619469
0.011719002 0.0026498118 -0.075324446 -0.049562097 -0.026213115 0.0032988475 -0.0014499731 0.08577716
-0.01740357 0.09118682 0.082399614 0.03689936 0.102505475 0.037988964 -0.07225248 0.012567435
0.00039588194 0.029342093 0.045402683 0.011178737 -0.044425275 -0.03190264 0.035680007 0.043025922
0.006333097 0.09164797 0.0395779 0.041709185 0.039757516 0.0110611655 0.048320837 0.010263913
-0.04596734 0.020634787 0.019076895 -0.029184202 -0.020495858 -0.046842877 0.040143453 -0.06036906
-0.008651247 -0.012121064 -0.063099615 -0.019373532 -0.060165975 -0.042174067 -0.010743649 0.07306301
-0.04751681 0.09762431 0.023249349 -0.023512851 -0.02967925 -0.0445846 -0.026217116 0.0126893455
-0.009355748 0.84958774 0.008935479 -0.14188488 0.02984658 -0.03289107 -0.05855483 -0.038433164
-0.0055909585 -0.031218214 -0.041561566 -0.018892433 -0.014683006 0.009651188 -0.0077685285 0.006353534

bias f4 [80]
00000000: 25be ef3d 32e4 bd3d 8be8 e73d 3e9e 173d
00000010: edc5 4fba b50d f43b b190 a5bd aba1 293d
00000020: 2237 493d 5faf ca3c b996 0f3d bb7f 933c
00000030: 3246 1d3d fc82 eabc f8cf 053c 7245 13bb
00000040: 27fa 3bbb e094 913d bb15 3f3d c1ca e6ba
00000050: 294b 0b3c bf7c ac3c 1166 103e 20c6 7e3d
00000060: 3cc0 90bc 370a a53d d8a3 c83d fe00 e73c
00000070: c7b8 463c 89e6 3a3d 8c93 5c3d 0abb 8d3b
00000080: 43a3 b33c 8cec a43d e064 723d 558e da3c
00000090: 8ffb 53bc 7bd6 eb3c b748 1a3d b8d7 5f3d
000000a0: 23b0 1c3d bb4b b93c 3e9b e83d eb08 833d
000000b0: 46cf 9a3d 0111 bf3d 8007 9a3d 3317 e1ba
000000c0: 9df7 8a3c 7e22 8f3d ea48 7e3d dc59 063d
000000d0: c664 21bd 2bc7 4cbc dfbf 343d d250 823c
000000e0: 4770 1c3c df75 6fbc d98a 3b3d ccbe cc3c
000000f0: 8b12 d13d 3d2e 803d b5e1 ca3c e670 393d
00000100: 5a09 babb 7ce9 893c b6bb 7a3d 0284 723c
00000110: 233a 403c 70c7 983d cd34 c5bb e2db e53c
00000120: c05e bf3d d464 6f3d 02cb a63d c27f 163d
00000130: e548 fcbc 8053 c63d c6aa 703d bde1 6e3d
0.11706189 0.092720404 0.11323651 0.037016146 -0.00079259166 0.007447923 -0.08084238 0.041413944
0.049124844 0.024741827 0.03505585 0.018005243 0.03839702 -0.028626911 0.008167259 -0.0022471813
-0.0028683038 0.07108474 0.046651583 -0.0017608033 0.008501806 0.021055577 0.14101435 0.062200665
-0.01766979 0.08058589 0.09796876 0.028198715 0.012129015 0.04563001 0.05385165 0.0043252753
0.021928435 0.0805293 0.059178233 0.026679197 -0.012938394 0.028788796 0.037667003 0.054649085
0.038253915 0.022619119 0.11357735 0.06398185 0.075590655 0.09329415 0.07520962 -0.0017173052
0.016963774 0.06989001 0.062081255 0.03280054 -0.039402746 -0.012498657 0.044128295 0.015907679
0.009548253 -0.014615505 0.045786712 0.024993323 0.10208615 0.06258819 0.024765829 0.045273684
-0.0056773843 0.016834967 0.06121417 0.014801981 0.011732611 0.07459915 -0.0060182572 0.02805895
0.09344244 0.058445767 0.081441894 0.036742933 -0.030796478 0.09683895 0.058756612 0.05832075

linear1.weight f4 [256, 512]
00000000: e90a 81bd 58c0 573d 6630 233d e94f babd
00000010: 3604 30bd 157b 813d eb25 f7bc 781c d3bd
00000020: e761 98bd 1d16 1e3d 589f 053d 8167 30be
00000030: c24d e73c 888f f43d 1740 453d d5cd 6bbe
00000040: 9a5c cc3d 4824 513e 7803 f73d 5872 3a3d
00000050: 4620 43bd f067 b03d a370 2e3e ba59 00bd
00000060: e543 003e 31be 29be 9695 77be 7a0e abbd
00000070: 1f54 883c c5dc 01bc 63ba 18be 6c62 bc3d
00000080: 30b8 313d 12d5 c5bc 689c 083d b8ef d23c
00000090: f34f 84bc 2ffb 6bbd d4f7 b6bc 698d efbd
000000a0: e99d 12bc a029 d83d 4f90 5f3c 3f11 e93d
000000b0: 5771 a4bd 01e0 ce3c 6e1a 53be d9e2 f03c
000000c0: 79c0 43bd afc3 34bd d75c 423a d505 61bc
000000d0: 8339 92bb 8885 28be bd69 e93d 7a90 6b3e
000000e0: 68a3 1dbc 97e1 9abb 4ffc cebd 947c 44bd
000000f0: 7915 b4bd bfae b0bd a862 c3bc 479d 1dbd
00000100: 3af5 013d 7fda 613d aee7 ad3d 866c 6f3e
00000110: 9a77 99bc b606 23bd 331f 84be bc3d 1a3d
00000120: 26af d9bd d544 05be 01a9 4d3c be2e 4c3c
00000130: 682f 3dbc 883b 7d3d 0c96 de3d 41a8 3b3c
00000140: 1a4b 26be ae83 fabd 93ed 33ba c76c 01be
00000150: 989c f83b dd39 86bd 4881 723d b3f5 ba3d
00000160: cc85 19bd 5c6b 673b 3cc8 b3bd c440 44be
00000170: 31f8 02be 239a e93d 0eae 9fbc 11d3 9cbd
00000180: 46eb 013e 33a5 1c3e 5e10 b33d 2674 263e
00000190: 9b68 a4bb 37b0 39bc 2944 4cba dc99 9e3d
000001a0: 793a 78bc 5dfb 08bd 7f98 793d 5b73 0fbe
000001b0: 61ee 7d3a 53d6 b73d 4295 033d d31c 103e
000001c0: 7afb 97bc ee56 64be 31aa 4bbd 515f 783d
000001d0: 7fef 1bbe d755 5a3d bc4f 083d dc80 213d
000001e0: 69f1 833a 487b ec3d 9daa 333e a376 143a
000001f0: b0df dd3d 2b22 293e 95b3 fabd f6f3 203d
00000200: ef2e 9abd 5083 28bd c008 7f3d 8bc1 01bc
00000210: 44f3 3ebd f878 103e 198b 1cbe 54b0 b6bd
00000220: c0ae 163e d973 833d f3a6 9b3d e79f fdbd
00000230: 4c52 4bbe e315 d13d 70a5 7ebc d254 7e3b
00000240: a778 c9bd 0148 083e 5d7a 7d3d 3d74 8abd
00000250: 0924 923d cd52 cbbd 96c9 b0bc 2a13 b43d
00000260: 224f 9abd a863 3fbd 87ed 55bd c73b abbb
00000270: dafd 4cbc 45cc eebd 0ef3 92bd 9c10 b83c
00000280: 4e04 41bd 5f68 6a3c d948 4e3d 6f0c 363e
00000290: c65c 8f3d f995 b1bd 44bf a83c 6fa5 973c
000002a0: 88b5 833c 7067 303e 53df 573d a80a d2ba
000002b0: 24b2 083e d6f4 bb3c 2120 953d 4b00 3abe
000002c0: d21c a13d a3da 4d3d 9634 eb3d 2812 a6bc
000002d0: af90 973c 7767 02be 89c1 05be 6e6e d23c
000002e0: 1ca8 c23d 86c6 47bd 6bdd cbba 479e 643e
000002f0: d6ec 18be 5e4f 183e 3ceb edbd c2d1 cf3c
00000300: b94b 4a3e e8ce 9ebc 23d0 8cbd 0c0c b6bc
00000310: 4fe1 163e 6c77 cfbd a4dc f83d 7cee 363e
00000320: 811b 2b3e 2d40 edbb 89e5 e13c af49 11be
00000330: d51f 55bb c936 ebbd 5b07 213e ffba ed3c
00000340: e581 ac3c 9391 e6bd b91b 863d f9ed 0ebe
00000350: 8ff1 a8bd 3ffe aebd a576 56bd 4157 373d
00000360: ac53 093e 650e 493d 3ba4 3a3d 84c3 4d3e
00000370: 84b0 d23d 8d0b 54bc b1eb b0bd 8765 1c3d
00000380: 71f4 ec3d 0ec2 9e3d 1557 75bd 9f6b fe3b
00000390: 487e 08bd d744 b93c 9945 24bd 2753 493e
000003a0: 427d 8ebd 1329 1abe b671 30bd a02e a7bd
000003b0: c9a4 3abd 241d 06be 2880 133d 7b71 403d
000003c0: 7ef3 6a3e 2fca 1dbd 821b 91bc 4a03 d43d
000003d0: 03aa 153d cfea ccbd 4374 1b3d bf96 54bd
000003e0: 38a8 cebd 6f9d 993e 48f6 12be a82a df3d
000003f0: 1620 e5bc 4024 9f3c c612 f93d b1a5 093d
-0.06300909 0.052673668 0.03984108 -0.09097273 -0.042972766 0.06322304 -0.030169448 -0.10308164
-0.074405484 0.038595308 0.032622665 -0.17226984 0.02823532 0.11941439 0.048156824 -0.23027737
0.099786 0.20423996 0.120612085 0.045519203 -0.0476382 0.086135745 0.17035155 -0.03133557
0.125259 -0.16576459 -0.24178156 -0.083523706 0.016641675 -0.007926171 -0.14914851 0.0919846
0.043388546 -0.024149451 0.033352286 0.025749072 -0.016151404 -0.057612594 -0.02233497 -0.11696894
-0.0089487815 0.10554814 0.013645246 0.113802426 -0.0802943 0.025253298 -0.20615551 0.029405044
-0.047790978 -0.04413193 0.0007414347 -0.013734301 -0.0044624223 -0.16457188 0.11397121 0.23004332
-0.009621479 -0.0047265994 -0.10106718 -0.04797037 -0.08793158 -0.0862708 -0.023850754 -0.03848007
0.031728007 0.055140015 0.08491455 0.23381242 -0.018733788 -0.039801322 -0.25805053 0.03765653
-0.1062911 -0.13014539 0.012552501 0.012462316 -0.011546947 0.06182435 0.10868463 0.011453689
-0.16239586 -0.12232147 -0.00068637094 -0.12639152 0.007587027 -0.06554005 0.059205323 0.09128895
-0.037481114 0.0035311794 -0.08778426 -0.19165331 -0.1278999 0.11406352 -0.019492175 -0.07657445
0.12687406 0.15297394 0.08743356 0.16255245 -0.0050173528 -0.011333517 -0.0007792139 0.0774419
-0.01515066 -0.033442844 0.060936447 -0.14008848 0.00096867053 0.08976426 0.032124765 0.14073496
-0.01855253 -0.22298786 -0.049722854 0.060637776 -0.1522808 0.05330452 0.033279166 0.03942953
0.0010066453 0.115469515 0.17545553 0.000566343 0.10833681 0.1651694 -0.12241284 0.03929516
-0.07528483 -0.041140854 0.062264204 -0.007919679 -0.046618715 0.14108646 -0.15287437 -0.08920351
0.147151 0.064185806 0.076002024 -0.123840146 -0.19855613 0.10209253 -0.015542373 0.003880788
-0.09837466 0.13308717 0.061884273 -0.06760452 0.071357794 -0.09927902 -0.021580499 0.08792718
-0.07534625 -0.0467259 -0.052228477 -0.005225632 -0.012511695 -0.11660055 -0.07175265 0.022468857
-0.047123246 0.014307111 0.05036244 0.1777818 0.07000117 -0.08671183 0.020599015 0.018511502
0.016077772 0.17226958 0.052703213 -0.0016024904 0.13349205 0.022943895 0.07281519 -0.18164174
0.07866825 0.050257336 0.11484639 -0.02027233 0.018501608 -0.12734781 -0.13062109 0.025687423
0.095047206 -0.04877331 -0.0015553659 0.22326003 -0.14934096 0.14874026 -0.11617133 0.025368575
0.19755448 -0.01938577 -0.068756364 -0.022222541 0.14734386 -0.101302 0.12151459 0.17864412
0.1670971 -0.0072403164 0.027575271 -0.14188264 -0.0032520194 -0.11485059 0.15725462 0.02901983
0.021058032 -0.11258235 0.065482564 -0.13957967 -0.08249199 -0.08544587 -0.052359242 0.044760946
0.13410825 0.049085993 0.04556678 0.20094115 0.10287574 -0.012942207 -0.086387046 0.03818276
0.11570061 0.07751857 -0.0598975 0.0077642943 -0.033323556 0.022615833 -0.040105436 0.19660626
-0.06957485 -0.15054731 -0.043077193 -0.0816319 -0.045567308 -0.13097054 0.03601089 0.046983223
0.22944447 -0.038522895 -0.017713312 0.1035219 0.03653909 -0.10005724 0.037952673 -0.051901575
-0.10090679 0.30002925 -0.14351761 0.10896808 -0.027969401 0.019426465 0.12161784 0.03360528

linear1.bias f4 [256]
00000000: 73f3 ddbd cd04 a5bc b13a cfbc e9d0 e6bc
00000010: 5b8a 9fbd cc4a 94bc f2a1 9cbd 45fb a0bd
00000020: 04ae 13bd d0b1 3abd b73c 0cbe e7d8 92bd
00000030: 3635 89bd 1931 c3bd 85f4 91bd 87f2 8fbd
00000040: b4f8 febc fa35 f9bc 587a 4bbd 8c4d 1ebd
00000050: 2587 33bd c048 2cbd 0818 74bd bc57 c5bc
00000060: 7fb1 94bd 3d2c abbd e8fd b1bc b951 70bd
00000070: 2849 8abd dad7 37bd d275 b63a 2822 bdbd
00000080: 9fbd 8bbd b7a4 edbc 0140 15bd d187 5dbd
00000090: a708 0fbd defa b8bd 0755 43bd 828b 88bd
000000a0: 8be1 79bb b837 1bbd d66f 8cbd 60a6 89bd
000000b0: 9750 7abd 5a13 8fbd 94b1 87bd 626e f3bc
000000c0: ca55 3bbc 507f 85bc 918a 43bd 0335 0cbe
000000d0: b6f6 36bc fc92 c2bc 3489 2cbd de3a d2bd
000000e0: a85c 9bbd 96c2 42bd c732 09bd 6ab7 aebd
000000f0: c219 45bd e129 a6bd 49d6 86bd fa7e 6fbd
00000100: 0e74 a2bd 3758 3fbd f52d 5fbd 1eed 12bd
00000110: c9e9 dfbc 9072 88bb 8876 523b 08fe 77bb
00000120: 59ae 74bd 4569 96bb acf6 51bd 01b8 dfbd
00000130: 7093 c0bd 7ec6 d8bd b97e 86bd ac3f 7cbd
00000140: 8c9f 8dbd 1871 70bb b7a6 85bc f7be ddbd
00000150: b11c 32bd 6230 3dbd 45c6 0bbd ed39 31bd
00000160: b77d 83bd 8785 58bd a64e 41bd c5ac 1cbc
00000170: 7674 5bbd cd7a 85bd 51c4 0dbe 6fc3 3abd
00000180: 5908 a6bc 91f6 9bbd 25b5 e8bc ba72 94bd
00000190: c92b a2bd a0ab 97bd 45c5 2bbd e87f bbbc
000001a0: d0a9 62bd ef9c 88bd da70 adbd 07e7 20bd
000001b0: ec90 5dbd d71d eebc 1ac0 cebc 012d 96bd
000001c0: 2aac 4fbc 51c3 d2bd 4073 8abd 2ac8 aebd
000001d0: 73bc 48bd 090c 6fbd 4383 83bd 5426 9dbd
000001e0: 6df4 f9bc 45ec 40bd 4327 c9bd b071 aebd
000001f0: 828d c2bc bf6b b7bd 9e4f 9abd a9a5 3dbd
00000200: dcc6 9cbd 3550 51bd df8a 03bd fb47 62bd
00000210: 77f4 f7bc 7145 67bd fb6d 84bc d9d2 cbbc
00000220: 1b43 91bd ea62 7dbd c953 073c 18e7 78bd
00000230: 5ad8 96bd 6d33 d2bc 51c7 84bd 89df fa3c
00000240: d4d0 b2bd c890 05bd 1206 e5bc 3299 84bd
00000250: 7a78 89bd 5d5d 06be 0030 e9bd 8e84 8abc
00000260: f383 b7bd 324b 62bd f590 97bd 04fd 84bd
00000270: 78b9 90bd 99d3 66bd 0dbc d8bc ea8e 1ebd
00000280: 865a d0bc bbce 0bbd 4c25 8bbd fa91 19bd
00000290: 82db adbc 6c1f b7bc c829 0cbd 2789 8ebd
000002a0: 99d6 ccbd c3bb b3bd ca77 1bbd 2d9d 85bd
000002b0: 986e 68bd bb23 8dbd 34a7 b2bc 9a3b dfbc
000002c0: d300 07bd fa9f d9bd 8183 90bd a823 98bd
000002d0: c949 01bd 7cda 08bd 6ec4 55bd 8049 80bd
000002e0: 6606 3cbc d423 a0bc f462 49bd 8263 a0bc
000002f0: 9b4a 3abd 62c1 05bd 5588 8cbd 2d1e 30bd
00000300: ea8e 39bd 2a45 02bd f57e 95bd 4319 6cbd
00000310: f470 bdbd c30c 4abd 3607 08bd fefa 30bd
00000320: f2d7 75bd f83c b9bd 009a a3bd 83c6 a5bd
00000330: b0b9 4abd 7f6a 7abd c0ad 0ebd f539 70bd
00000340: a94c 9bbd ece8 60bd 0e3b 8abd 2df2 60bd
00000350: 489e 8fbd 4e32 a7bd 1fa1 03bd 5b33 64bd
00000360: d509 b2bb 2ee4 a0bd 1078 50bd 8a82 18bd
00000370: 1242 e5bc 1acd 1abd 4d49 25bd 29ed 4cbd
00000380: 8228 e2bd 6dbb a6bc 65f2 74bd 7d49 8fbd
00000390: 3802 2cbd 5b13 81bd 38fa 5bbd 1220 31bd
000003a0: f31e ea3b 4057 b1bd b1b6 54bd 7e97 81bc
000003b0: 7b19 97bc 61b0 f2bc 369e 11bd b72a 01bd
000003c0: 9346 11bc 18e0 b0bd 87d8 24bd 6de6 4cbd
000003d0: 6703 43bd b25e 92bd 3e09 ab3b fe45 46bd
000003e0: e9f1 14bd 1c0b 53bd bac7 99bd 568a 23bd
000003f0: da6c 48bd 8cf9 49bd e76f 81bd 5d9e 32bd
-0.1083745 -0.02014389 -0.02529654 -0.028175788 -0.07790061 -0.018102072 -0.07648076 -0.07860426
-0.036054626 -0.04557973 -0.13695036 -0.07170277 -0.06699602 -0.09530849 -0.071267165 -0.0702868
-0.03112445 -0.030421246 -0.049677223 -0.038648173 -0.043830056 -0.042061567 -0.05959323 -0.024089687
-0.07260417 -0.08358047 -0.021727517 -0.058671687 -0.06752235 -0.044883586 0.0013920611 -0.092350304
-0.06823277 -0.029009206 -0.036437992 -0.054084603 -0.03492036 -0.09032224 -0.04768851 -0.06667234
-0.003812882 -0.037894934 -0.068572685 -0.06721187 -0.061112013 -0.06986113 -0.06625667 -0.02971572
-0.011434028 -0.016296059 -0.04773957 -0.13692097 -0.011167219 -0.023751728 -0.042123035 -0.10265134
-0.07586032 -0.047548853 -0.03349569 -0.08531077 -0.048120268 -0.081134565 -0.065838404 -0.058470704
-0.07932292 -0.046714988 -0.054487187 -0.035870664 -0.027333157 -0.0041640475 0.0032114107 -0.0037840623
-0.059736583 -0.004590186 -0.051260635 -0.10923768 -0.094031215 -0.105847344 -0.06567139 -0.06158416
-0.06915197 -0.0036688503 -0.016314847 -0.10827439 -0.043484394 -0.04618872 -0.03412463 -0.043268133
-0.064204626 -0.052861717 -0.047194146 -0.009562676 -0.053577863 -0.06517563 -0.1384442 -0.045596536
-0.020267652 -0.07615388 -0.028406689 -0.07248445 -0.079185076 -0.07405782 -0.041936178 -0.022888139
-0.055337727 -0.06670558 -0.0846879 -0.039282825 -0.054093286 -0.029066963 -0.025238086 -0.073328026
-0.012675324 -0.1029116 -0.067602634 -0.08534272 -0.049007844 -0.058361087 -0.064215206 -0.07673326
-0.03051206 -0.047100324 -0.09821942 -0.08517778 -0.023749117 -0.08956098 -0.07534717 -0.046300564
-0.07655117 -0.051101882 -0.03211486 -0.055244427 -0.030267937 -0.05646271 -0.016165724 -0.024880813
-0.070928775 -0.06186191 0.008259722 -0.060767263 -0.073654845 -0.025659287 -0.06483329 0.030624168
-0.08731237 -0.032608777 -0.027956996 -0.06474532 -0.06712432 -0.13121553 -0.113861084 -0.01690891
-0.08960714 -0.055247493 -0.07400695 -0.064935714 -0.07066625 -0.05635414 -0.026456857 -0.038710512
-0.02543379 -0.0341327 -0.06794223 -0.03749273 -0.021222834 -0.02235385 -0.034219533 -0.069597535
-0.10001869 -0.08776047 -0.037956037 -0.065241195 -0.056746095 -0.06891581 -0.021808244 -0.0272501
-0.03295977 -0.10626216 -0.070563324 -0.07428676 -0.031564508 -0.033411488 -0.052189283 -0.06264019
-0.011476135 -0.019548334 -0.049166635 -0.019578699 -0.045481306 -0.032655127 -0.06861941 -0.042997528
-0.04530231 -0.03180424 -0.07299606 -0.05764128 -0.0925006 -0.049328577 -0.033210002 -0.043208115
-0.060020395 -0.09044832 -0.079883575 -0.08094504 -0.04949349 -0.06113672 -0.03483367 -0.058649022
-0.07582981 -0.05490963 -0.06749545 -0.054918457 -0.07012612 -0.08163892 -0.03213608 -0.05571304
-0.005433301 -0.07856022 -0.05089575 -0.037233867 -0.027985606 -0.037793256 -0.04035311 -0.05003086
-0.110428825 -0.020353043 -0.059801478 -0.06996439 -0.041994303 -0.0630252 -0.053705424 -0.043243475
0.0071448027 -0.0865922 -0.05193204 -0.015819307 -0.018444767 -0.02962512 -0.035551272 -0.031534877
-0.008866924 -0.086364925 -0.04024556 -0.05002444 -0.047610667 -0.07146968 0.0052196076 -0.048406594
-0.036363516 -0.051524267 -0.07508798 -0.03992685 -0.048931934 -0.049310252 -0.06320172 -0.04360806

linear2.weight f4 [80, 256]
00000000: dc96 2dbc 197b 35bd 910b 5cbd a86d 95bc
00000010: fa96 55bc 1466 863d d1be 06be bb8d 9cbc
00000020: e854 623d 1773 7ebd 4206 39bc aeb7 583c
00000030: c8b2 cd3c ff18 033d e823 1a3a 0b8b 1cbd
00000040: ef73 7bbd 37f5 e53d 751d 5fbd 64a3 a53d
00000050: f7b1 a7bd 7b2c ab3c 2502 06bd cd64 ec3d
00000060: 14e9 bd3d 6cf0 3ebe 6388 22bb 1200 253d
00000070: 526d f2bb 791c 4e3d a00c 603c ab43 033d
00000080: c74c ac3c 8f02 b53d b1f5 c13c 17c7 4dbd
00000090: 7e1a 2c3d 496b 9abd 7379 83bd 9513 bd3d
000000a0: 0015 84bc e719 1bbd bd85 1cbd 43ee 9ebc
000000b0: 6efd 5c3d ffd4 c6bb 81fa cdbc e4b0 da3c
000000c0: d237 65bd 299f 08bd 0075 933d 9836 98be
000000d0: 0f69 173c 3804 b23d fd56 3d3c 0946 9e3c
000000e0: dab8 0fbd 7442 443c 6524 813d a45f 1c3d
000000f0: 0b6c 7dbc 4b3f 1c3d 11ca 7d3d 7dd5 22bd
00000100: d797 823a 1858 d13b 94bc 56bb 8173 88bd
00000110: e968 2b3c d8da 52bd 53da 0c3b 2c8a 8dbc
00000120: ef45 cc3b fd91 d73c fd2e 2d3d bb19 29be
00000130: 8202 0ebe fa98 3b3d 33cd 9bbd 735b 8f3c
00000140: c23c e5bb 20d7 2c3e fde7 2abb 7a91 893c
00000150: a16a 873c b200 38bc cbbd edbc ad39 a23c
00000160: f026 68bd 82c6 923d 3e19 2f3b 8f1a 033d
00000170: 01b7 a53c d38d 9ebc 622a df3c 9095 0fbb
00000180: 7ba2 913b 3cd7 a4bd 230e 3f3d 2859 f0bb
00000190: 9b36 bf3d 3a12 b23c 99fe 663d 07ad 973c
000001a0: 6fed 5dbd 8261 e2bc 62e8 1a3c e793 f93d
000001b0: a715 87bd 0c89 013d eba9 933a 78ec 1a3c
000001c0: c8f6 913d 9b2c 79bb f205 8fbd 7b15 91be
000001d0: bece 07bd 99fc 66bc 3f7f 9bbd c637 bc3a
000001e0: 6439 a33d 0658 983d 5d3c 2e3d 5fd8 6d3d
000001f0: d212 cebd a5a2 e23c 3b8d a1bd 3b27 a639
00000200: b447 b0bc ffbb 4c3c 704d 39bd 91db aebc
00000210: 2079 b83d 058e 10bd 03ac 093c 66c5 b7bd
00000220: 7b22 f83b f1b5 bfbd f779 3d3d 897e 583c
00000230: 1b75 a13d 591f 903d 7694 a23c 1f7b 15bd
00000240: 57ad 0abe 90d1 713d 4185 993d 961e 1f3b
00000250: 1c88 7f3c 475b bebd c30c 85bd e4ff 823b
00000260: 7fe3 2f3e 3ca7 203d f012 85bc 6eb8 293d
00000270: 74fb a13a f218 09be e86d 283d d323 6fbc
00000280: 1772 b4bc 99ce 3d3d 135b 8ebd 1a30 28bd
00000290: 041a ef3b 8e19 65bd 832d 89bd 0d61 243c
000002a0: 0aab f4bd 6eff 083d 4f57 51bd 27ba 963d
000002b0: 0b8c bb3c d493 893d c67e 4e3d b2fa 20bc
000002c0: 2e6c b4bc 1f0b d4bd f13a 573c 7a73 a63d
000002d0: a3f6 3ebd ee38 3dbd 90ed afbd 77ea a03d
000002e0: eb93 053d 02d3 853d a8d9 debb 30af 723d
000002f0: 2614 fb3d 2d5b 3f3d 48ec 29bc 45ef 683d
00000300: a3fd db3c 3bad 303e 5ef8 ec3d 92cd eb3b
00000310: cda6 78bc eb93 9b3d 2a50 e33b 8e55 983b
00000320: eb71 a63d d4d8 eb3d a529 6cbd 9266 28be
00000330: 9b96 3c3b c04d 1bbd 6e63 20bc bc7e 4b3e
00000340: ca8c c73d bbe4 50bc bd93 b03c 9d91 4ebd
00000350: eb30 bdbc f694 7cbd 06f1 11bc c286 c13c
00000360: 9a39 b13d 446f af3c c871 19bc a3d2 383c
00000370: 69e6 e73c 6b37 17bb f88a faba fafb 9fbd
00000380: 514d 15be 561c 223d 9054 273d 5c64 94bb
00000390: 00e5 5a3d 8cce 373d ef20 47bd 8298 f0bb
000003a0: 11ff 873d 866b 5abd 43a9 40bd b28f 003d
000003b0: 77fc ca3c fddf a73d b84e e83c 4c78 a63c
000003c0: ab45 9a3d ddbd 0abc 72c8 11bd d921 e6bb
000003d0: 3ea1 983d da92 19bd 9fad c33c 26ea 22bc
000003e0: ada0 bf3d d3e2 13bd 4f22 e8bb 452c 2abc
000003f0: 6300 1ebc f8db 613c 4806 1e3d 23d3 023c
-0.01059505 -0.04430685 -0.053721968 -0.018240765 -0.013036484 0.065624386 -0.13158728 -0.019110551
0.055256754 -0.062121477 -0.011292996 0.013227386 0.025109664 0.03200626 0.0005879984 -0.03821854
-0.06138986 0.11228412 -0.05447145 0.08087805 -0.08188241 0.020895233 -0.03271689 0.11542664
0.09272972 -0.18646401 -0.002480053 0.04028327 -0.007398286 0.050320122 0.013674885 0.032046955
0.021032704 0.08838379 0.023676725 -0.050238695 0.042017452 -0.07539994 -0.06419649 0.092322506
-0.016123295 -0.0378665 -0.03821348 -0.019400721 0.053952627 -0.0060678716 -0.025143864 0.026695676
-0.055961438 -0.033354912 0.0720005 -0.29729152 0.0092413565 0.08692211 0.011556384 0.019320505
-0.035088398 0.011978734 0.0630577 0.038177148 -0.015467654 0.0381463 0.061960284 -0.03975438
0.0009963465 0.0063886754 -0.003276621 -0.066626556 0.010462024 -0.051478237 0.0021492436 -0.0172778
0.0062339227 0.02631473 0.04228114 -0.16513722 -0.13868144 0.045800187 -0.07607498 0.017499661
-0.0069957683 0.16878939 -0.0026078217 0.016793001 0.016530337 -0.0112306345 -0.029021164 0.019802893
-0.05667776 0.071667686 0.0026717926 0.03200775 0.020228865 -0.019354736 0.02724189 -0.0021909215
0.004444418 -0.08048865 0.04664434 -0.007334847 0.09336587 0.021737207 0.056395147 0.018515123
-0.054181512 -0.027634386 0.009454818 0.12186413 -0.06595927 0.03162484 0.001126585 0.009455793
0.07127148 -0.0038020972 -0.06983556 -0.283367 -0.03315615 -0.01409831 -0.0759263 0.0014359883
0.07969931 0.07438664 0.042538036 0.058067676 -0.100621834 0.027665446 -0.07888266 0.00031691216
-0.021518566 0.012495994 -0.045239866 -0.021344932 0.09007478 -0.03529169 0.008402827 -0.08973198
0.00757247 -0.093608744 0.046258893 0.013213762 0.07883664 0.07037229 0.019846182 -0.03649437
-0.13542686 0.059037745 0.07496119 0.0024279705 0.015596416 -0.092947535 -0.06496575 0.0039977897
0.17176627 0.039221987 -0.016244382 0.04143565 0.0012358264 -0.13388422 0.04112044 -0.0145959435
-0.022027059 0.046339605 -0.06950965 -0.0410615 0.0072968025 -0.055932574 -0.06698134 0.010032904
-0.119466856 0.03344672 -0.051108655 0.073597245 0.022893926 0.06717649 0.05041387 -0.009825395
-0.02202424 -0.10353684 0.013136611 0.08127494 -0.04662193 -0.04619687 -0.08590233 0.078572206
0.03261177 0.06534387 -0.006800849 0.059249103 0.122597024 0.04671781 -0.010371275 0.05686881
0.026854342 0.17253582 0.1157081 0.0071961368 -0.015176487 0.075965725 0.0069370465 0.004648871
0.08127197 0.11515966 -0.057656903 -0.16445377 0.0028776291 -0.037915945 -0.009789331 0.19872564
0.0974365 -0.012749846 0.021554822 -0.050431836 -0.023094615 -0.061665498 -0.008907562 0.023623828
0.08653565 0.02141536 -0.0093655065 0.011280688 0.02830811 -0.0023073803 -0.0019114902 -0.078117326
-0.14580275 0.039577805 0.04085213 -0.0045285653 0.053441048 0.044874713 -0.048615392 -0.007342399
0.06640447 -0.0533252 -0.04703642 0.03138704 0.024778588 0.08197019 0.028357849 0.020321034
0.07532819 -0.0084681185 -0.03559155 -0.007023078 0.074526295 -0.037493564 0.0238865 -0.009943521
0.09356818 -0.03610499 -0.007084168 -0.010386531 -0.009643647 0.013785355 0.03858021 0.007984909

linear2.bias f4 [80]
00000000: e4fe c93c 7339 083e 6045 ed3d 6c2c 843d
00000010: 5853 e6bc c983 8f3d 1d11 bc3c 896e d7bc
00000020: 2341 03bc 3d71 613d 970d 54bc 7c38 3fbd
00000030: 0d8b cd3c 89ff 05bd 8163 71bd f3e8 51bd
00000040: 8921 89bd ad56 b0bc 9130 883d 7b28 953c
00000050: 6dee 3dbc 0788 2dbd ad77 b2bc 001f 803c
00000060: 2184 adbd c0c9 423d 6069 723b 1ee0 af3c
00000070: 3133 e73c 4719 f53c 059f 4fbd 152d d7ba
00000080: 2ed1 3b3c a348 d1bc c5da 54bd f154 5cbc
00000090: 227f 44bc 14e5 993c 6e31 92bd 6045 f33b
000000a0: 595b 16bb 6f45 173c a25d 40bc 8a3d 323c
000000b0: a2aa 49bd 7781 303c 417b 9e3d 8ec5 533c
000000c0: 6975 543d e9b8 d4bc 6197 0abd f16a 03bd
000000d0: dfb9 9cbb 0105 493d 102b 9b3d bc6e 9a3c
000000e0: 062b 60bd a79d d93b d268 383d da18 acbc
000000f0: 5560 f73d 9092 ee3c e64b 543d 09d1 56bc
00000100: e31e 2e3d 841c 8dbc 9179 a9bc 0743 9aba
00000110: b95f b6bc d25c d4bc e013 1abd 3646 0fbd
00000120: 83c4 f13c 426c 24bd 7db7 7e3d b858 803d
00000130: d037 5abd cfb4 93bc 6532 0ebd a5db 27bc
0.024657674 0.13303165 0.11585498 0.06453785 -0.028115913 0.07007558 0.022957379 -0.026297824
-0.008011135 0.055039633 -0.012942693 -0.046684727 0.025090719 -0.0327144 -0.058932785 -0.05124755
-0.066958494 -0.021525705 0.06649888 0.01820778 -0.01159249 -0.042366054 -0.021785581 0.015639782
-0.08472467 0.047555685 0.0036989078 0.021469172 0.028222652 0.02991928 -0.050688762 -0.0016416634
0.011463447 -0.025547331 -0.051966447 -0.013447986 -0.011993201 0.01878599 -0.07138334 0.0074240416
-0.002294263 0.009232863 -0.011741074 0.01087893 -0.049234994 0.010773054 0.077383526 0.012925519
0.051869784 -0.025967078 -0.033835772 -0.03208441 -0.0047828997 0.049077038 0.07576573 0.01885163
-0.05472853 0.006641108 0.04502184 -0.021007944 0.12078921 0.02912262 0.051830195 -0.013111361
0.042509925 -0.017225511 -0.02068785 -0.0011769243 -0.022262441 -0.025923166 -0.03761661 -0.034979068
0.02951265 -0.040142305 0.062186707 0.06266922 -0.053275883 -0.018030552 -0.03471603 -0.010245238

weight f4 [1, 768]
00000000: a0f8 75bb 5991 43bd b6a1 5b3c 3cd6 a8bc
00000010: adb5 493a 8c95 08bc d977 363b c5ce a6ba
00000020: 62d3 86bc b92d babc 82da 6dbb 0778 5e3c
00000030: 37e8 d8ba 2c4d e13b 9ff3 48bc 190f 033c
00000040: 180d 25bc 81d0 3c3c 335d c4bb a5e8 00bb
00000050: da0f 5c3b a101 2f3c 54b2 a2bc 90f1 c1bc
00000060: 85e8 cd3a 59b9 29bc 384e 4aba 83a9 6c3c
00000070: 6f40 15bc f5b2 b8b9 e209 30ba 03fc a53b
00000080: 978c 993b 8060 6cba 51af a23c c8af 8fbc
00000090: b1e7 cc3b da78 fbbb 31d1 8cbc 3303 b03c
000000a0: 4c34 53bc bdb9 ca3b 07c9 a4bc 5cc8 8bbb
000000b0: c417 aabc 1b60 e9bc 94e4 7a3c 9569 01bd
000000c0: af11 df3c d577 d23c ed67 86bb f416 f83c
000000d0: 8596 9c3c c572 15bc 898e eb3c a576 bd3c
000000e0: 594e a03c 9522 36b9 4d6c b13c 4593 d1bc
000000f0: 3d8e ceba ff17 053d bab7 823d aad4 c3bc
00000100: c434 b73b 2932 10bd 9c7f 93bb dd16 1fbc
00000110: 320c 3d3a fba9 24bd d61a 42bc 2d2d 8b3c
00000120: e996 103c ac1a ab3c e52d fbbb 3e19 13bd
00000130: c1f8 513c a2b9 c5bc 6c3d ae3b 760a 86bc
00000140: 9211 e2bb 0304 7eb9 f6ff 783c d1d0 deba
00000150: 6e51 4cbc c17b b6bb 98ac b4ba af05 f53b
00000160: 3c14 9fbc 6b13 b33c e625 663c 50d6 593b
00000170: a70d d43b 1085 063b 0916 07bb db90 753c
00000180: 3bd5 5f3c e052 8fbc 8fde ca3c bddc 04ba
00000190: 4e10 4bbc 6018 90bc a891 223b a945 a13c
000001a0: a343 b5bc 7265 0a3d 0dc9 c63b bcd6 1cbc
000001b0: 405f 22bb e1e0 3f3d 0e81 eb3c 0f1c ba3b
000001c0: ce33 3abc dd5e 7b3c c221 f73b ee32 443c
000001d0: bef5 9cbc f797 87bc 7fb8 52bc e852 cbbb
000001e0: 111e 343b 4b0b a8bc 437a e2bc 8a8c e4bc
000001f0: 5fad 58bc 678c f73b d6dd e5bc 841b 8b3b
00000200: cdd6 bbbc 9cfd 893b 9685 8a3c 46cb 373b
00000210: aa55 77bc eb17 293b 4fd2 8abc 0c43 a93c
00000220: 3abb c63b ca47 893c d5b7 ab3b fa65 b7bc
00000230: daf0 893c b078 70bc 1578 9fbc 687f 82bc
00000240: edbf b9bb b545 aa3c 57e2 433c f61f 99bc
00000250: c6a5 c4bc d863 be38 6431 89bb 968e 95bc
00000260: 5afa 1c3b 015d 18bc d5c6 073d b960 203c
00000270: 9b25 46bc 010b 533c dfdf 41bc ce54 093d
00000280: 62ef 9ebc a1fe 943c 8ba6 3d3c 17cd 80bc
00000290: 0ed9 0f3d bea8 a3bc fccd 84bb 8e36 8ebc
000002a0: 0ea4 913b 8f18 f43b 7268 fb3c bd9b e53a
000002b0: 933c 5c3c 57cd 0b3c 46c0 973c 0aae df37
000002c0: f71a 74bc db96 0c3d 5496 dd3b 8a76 abbc
000002d0: d600 bc3a 33cc b53c d383 973c c8e6 cf3c
000002e0: 6507 edbc e399 a9bb 21e2 283c 54cd f2bc
000002f0: 3922 c1bc dcbf 4e3c f05f ae3c d17b 1d3d
00000300: e1c4 8e3c 21d4 edba f6d6 703c e6d5 88bb
00000310: 1f53 133b e6ba 15bc 48e4 b8bc 5fbf d63c
00000320: 9513 833c 46ea 04bb cb30 f1bb 0f93 c6bc
00000330: d4f0 dfbb 5acb b93c 994d 603b 71cb 6cbb
00000340: cbf7 e43b 72f0 56bc fc9d cdbc fc81 993c
00000350: 2329 f63b fe15 123c 9d76 99bb 5fa8 c53c
00000360: d8e6 45bc 01d1 88bc 81ad 113b b3d8 6cbc
00000370: c00c ca3b a0a1 aa3c c1d0 c4bc 18d3 a43c
00000380: 0b35 af3c d3b3 cdba 5a22 c9bc eac2 3bbb
00000390: 35fa 963c b252 18bc 576b f2bc be6c 88bc
000003a0: f281 dfbb 7310 87bc a45a 2fbc ed19 b4bb
000003b0: 8386 853b a86a 983c 6fd1 293c 9463 c43c
000003c0: 6a58 4b3c 9e6b 7abc bf6b 9d3c 5162 9d3c
000003d0: 4f2a 133c cc15 87bb 6b5d a73b 3570 c83b
000003e0: 68f6 593b c598 7abc ca6b 62bc 64cb aabb
000003f0: d235 84bc 5a72 87bc fee4 7e3c 8f6d c4bb
-0.0037532225 -0.047746036 0.013405254 -0.020609967 0.00076946133 -0.008336436 0.002784243 -0.0012726417
-0.016458217 -0.02272688 -0.003629357 0.013578421 -0.0016548698 0.0068756547 -0.012265115 0.007999205
-0.010073923 0.011524321 -0.0059925555 -0.0019669917 0.0033578784 0.010681541 -0.019860424 -0.023674756
0.0015709555 -0.010359132 -0.0007717344 0.014444712 -0.0091096 -0.00035228548 -0.000671534 0.0050654425
0.004685949 -0.0009017065 0.019858988 -0.017539874 0.0062532057 -0.0076743187 -0.017189594 0.0214859
-0.0128908865 0.0061866925 -0.020115389 -0.004265828 -0.020763285 -0.02848821 0.015313286 -0.03159483
0.027230112 0.025691906 -0.0041017444 0.030284382 0.019114742 -0.0091216015 0.02875449 0.023127863
0.01956861 -0.00017369755 0.021658087 -0.025582919 -0.0015758943 0.032493588 0.06382699 -0.023905117
0.005591007 -0.035204086 -0.004501296 -0.009710041 0.0007211595 -0.04020117 -0.0118472185 0.016989315
0.008825042 0.020886742 -0.007665383 -0.035912745 0.012815655 -0.024136368 0.0053173807 -0.01636241
-0.006899067 -0.00024224822 0.015197745 -0.0016999488 -0.012470586 -0.005568952 -0.0013784347 0.007477484
-0.019418828 0.021859845 0.014047122 0.0033239312 0.006471354 0.0020526089 -0.00206125 0.0149881495
0.013661678 -0.017495573 0.024764327 -0.0005068293 -0.012394024 -0.017589748 0.0024806056 0.019686537
-0.022126978 0.033788152 0.0060664476 -0.009572681 -0.0024776012 0.04684532 0.028748062 0.0056796144
-0.01136489 0.015342441 0.007541866 0.011975033 -0.019160148 -0.016551955 -0.01286137 -0.0062049516
0.0027483741 -0.020513197 -0.02764619 -0.027899045 -0.013224929 0.007554579 -0.028059881 0.0042452235
-0.022929573 0.004211141 0.016909402 0.0028044744 -0.0150961075 0.002580161 -0.016945986 0.020661853
0.0060647996 0.016757865 0.0052404203 -0.022387493 0.01683848 -0.014677212 -0.01946644 -0.015929893
-0.0056686313 0.020785192 0.011955819 -0.018691998 -0.024004828 9.078503e-05 -0.004186796 -0.018256467
0.0023952932 -0.009299518 0.033148605 0.0097886855 -0.012093927 0.0128810415 -0.01183316 0.03352814
-0.019401256 0.018187823 0.0115753515 -0.015722794 0.03511911 -0.019977923 -0.0040528756 -0.017359998
0.0044446057 0.0074492167 0.030689452 0.0017517727 0.013442176 0.008532844 0.0185243 2.6664715e-05
-0.014899007 0.034323554 0.0067623053 -0.020930547 0.0014343511 0.022192096 0.018495476 0.0253786
-0.02893419 -0.0051758154 0.01030782 -0.029638924 -0.023575889 0.012618985 0.021285981 0.03844816
0.017427864 -0.0018144884 0.014699688 -0.0041758893 0.0022479964 -0.009138798 -0.02256979 0.0262143
0.016000548 -0.002028124 -0.007360553 -0.024240045 -0.006834129 0.022679973 0.003422594 -0.0036132003
0.006987547 -0.01311885 -0.025099747 0.01873874 0.007512228 0.008916376 -0.0046833293 0.024128137
-0.012078963 -0.016701223 0.002222866 -0.014455962 0.0061660707 0.020829022 -0.024025323 0.020120189
0.021387598 -0.0015693851 -0.024552513 -0.0028650113 0.018429855 -0.00929706 -0.0295922 -0.016653415
-0.0068209106 -0.016487336 -0.010702763 -0.0054962547 0.004074873 0.018605545 0.010364874 0.023973264
0.012411216 -0.015284447 0.019216416 0.01921192 0.008982255 -0.0041224714 0.005107572 0.0061168917
0.0033258442 -0.015295212 -0.013819644 -0.0052122343 -0.016138945 -0.01653402 0.015557526 -0.0059945057
