SPMLUA_outputs/20_60/Train_with_full_labels_L2loss/checkpoint_best_2.pth (torch, 691471 bytes, 7 tensors)

weight f4 [80, 240]
0.4956077 0.039760966 -0.011220532 -0.033330545 -0.059104897 0.013132077 0.04154733 -0.07109143
-0.020931896 -0.08764226 -0.022436963 -0.06850699 -0.06502835 -0.03900369 -0.045435917 -0.04245244
-0.042291675 -0.06940111 -0.081389554 -0.05855049 -0.06418246 -0.085771576 -0.073471375 -0.071266115
0.12901638 -0.039141353 0.00042844535 0.14048299 -0.037825737 0.033913188 -0.0026413198 -0.016551325
-0.040714584 0.031726655 0.08317157 -0.047702733 0.34852287 0.052294794 0.000689232 -0.0073480853
-0.08686854 0.10686321 -0.052780062 -0.04119737 -0.071445465 -0.011032522 -0.017838264 -0.016941393
-0.01183378 -0.047928806 -0.04029107 -0.011053675 0.033874582 0.0042055827 0.00011133353 0.012491509
-0.033151954 -0.033796735 -0.0720632 -0.039914537 -0.12842976 -0.053637657 -0.031217372 -0.014761223
-0.0911565 -0.052078974 -0.06711076 0.06678754 -0.0056780525 -0.08266046 -0.03742554 -0.10269227
-0.05040057 -0.054402933 -0.13175999 -0.058447916 -0.023035387 -0.044997234 -0.055476338 0.01461659
0.115736656 0.63343614 0.05901642 -0.098526455 -0.11560184 0.47237444 0.06661743 -0.49390757
0.4335449 -0.15702379 0.13068072 -0.23978426 0.17330068 0.38801417 -0.24322806 0.2999825
0.07877389 -0.03417276 0.17836569 0.4059468 0.56055105 0.22943048 -0.48782888 0.19463986
0.1377116 0.09249702 0.082269855 -0.65124404 0.11069976 0.043921452 -0.32166693 0.07880986
0.36460173 -0.5632679 -0.24211973 0.26962638 -0.34766692 -0.39301917 -0.31150988 -0.29959226
-0.42894468 -0.1524487 -0.095993035 0.6247981 0.32535416 -0.33604425 0.25048366 -0.27174485
0.10660238 0.41930354 0.15704712 0.18162723 -0.018486185 -0.2585892 -0.071026154 0.28094015
0.060981724 -0.25769323 -0.065171145 0.27150998 -0.3858572 0.01780261 -0.04209387 -0.11259735
-0.31459272 -0.2575441 -0.0054884716 -0.14734656 0.25646785 0.106172636 -0.009637474 0.049285565
-0.084638044 -0.2263883 0.32219228 0.09649675 0.24364409 -0.31038848 -0.2546021 0.4689965
0.01801529 -0.012334562 0.03742013 0.0070316303 -0.017745525 -0.024982227 -0.045255624 0.00035880404
0.013540423 0.03105442 -0.045854937 0.015928507 0.032699388 -0.01874937 0.020726655 -0.053222712
0.021650098 0.0043338547 0.016489264 -0.007807492 0.017413741 -0.02737967 -0.0033499263 0.029443681
0.041083924 0.03263808 0.01186963 -0.0005759989 -0.017405525 -0.015459647 -0.02115405 0.038188353
-0.012178636 0.020926015 -0.025022944 -0.020183101 -0.009431854 0.04576303 0.020556817 -0.030817138
0.059486657 -0.007550257 -0.043765094 0.033725645 0.012566372 0.05151752 -0.0009912457 0.049164604
0.015861694 0.029429099 0.011052656 0.04354675 0.016118301 -0.02225284 0.0040365374 0.035026226
0.009217307 -0.02642207 -0.0019015078 -0.037186686 0.049661763 0.0058863787 0.011992675 -0.016462483
0.023899117 -0.011458435 -0.021868693 0.022336323 0.009905305 0.011806432 0.04434113 0.02514484
0.042093214 0.036671415 0.052305594 0.029943677 0.029968688 -0.009426646 0.031774573 -0.029836077
-0.010103472 0.61654395 0.00034057387 -0.14254026 0.0118912915 -0.011776289 -0.007439518 -0.0059626363
0.0063875956 -0.02678593 -0.008265083 -0.03500623 -0.045266565 -0.02442746 -0.0031991873 -0.0012321925
00000000: 4bc0 fd3e 65dc 223d 52d6 37bc 9c85 08bd
00000010: fa17 72bd ec27 573c 882d 2a3d 6298 91bd
00000020: 5e79 abbc c97d b3bd b9cd b7bc 654d 8cbd
00000030: 952d 85bd 55c2 1fbd 031b 3abd 9ce2 2dbd
00000040: 093a 2dbd 2b22 8ebd 91af a6bd a3d2 6fbd
00000050: 1872 83bd 02a9 afbd 2978 96bd f8f3 91bd
00000060: df1c 043e af52 20bd f6a0 e039 c6da 0f3e
00000070: 29ef 1abd 8ee8 0a3d fe19 2dbb a596 87bc
00000080: 56c4 26bd cff3 013d db55 aa3d f163 43bd
00000090: 9771 b23e 1133 563d 94ad 343a 35c8 f0bb
000000a0: 22e8 b1bd 19db da3d e82f 58bd 93be 28bd
000000b0: 0052 92bd c0c1 34bc 8d21 92bc adc8 8abc
000000c0: 79e2 41bc ff50 44bd 4008 25bd 791a 35bc
000000d0: 13c0 0a3d fcce 893b bc7b e938 30a9 4c3c
000000e0: 58ca 07bd 726e 0abd df95 93bd 6d7d 23bd
000000f0: 1783 03be 29b3 5bbd 93bb ffbc 0fd9 71bc
00000100: 42b0 babd c350 55bd 5e71 89bd e8c7 883d
00000110: f50e babb e349 a9bd 864b 19bd 5350 d2bd
00000120: d470 4ebd 9cd5 5ebd 17ec 06be 1567 6fbd
00000130: b5b4 bcbc 054f 38bd 283b 63bd 6c7a 6f3c
00000140: 5707 ed3d df28 223f 34bb 713d 3dc8 c9bd
00000150: a8c0 ecbd 10db f13e b86e 883d 74e1 fcbe
00000160: 99f9 dd3e d8ca 20be 2bd1 053e 018a 75be
00000170: bc75 313e cba9 c63e c710 79be 4e97 993e
00000180: 3554 a13d bcf8 0bbd 7fa5 363e 42d8 cf3e
00000190: 4680 0f3f d3ef 6a3e b5c4 f9be ac4f 473e
000001a0: 4504 0d3e 146f bd3d 197d a83d eeb7 26bf
000001b0: 8eb6 e23d fbe6 333d 87b1 a4be 1067 a13d
000001c0: 14ad ba3e 5332 10bf 3cee 77be 780c 8a3e
000001d0: 6601 b2be cf39 c9be 397e 9fbe 2864 99be
000001e0: a39e dbbe 831b 1cbe ff97 c4bd c5f2 1f3f
000001f0: d294 a63e fe0d acbe 653f 803e 2422 8bbe
00000200: 5952 da3d f4ae d63e f6d0 203e 7dfc 393e
00000210: 5770 97bc ce65 84be 2976 91bd 63d7 8f3e
00000220: f9c7 793d 5ef0 83be 7378 85bd 5b03 8b3e
00000230: 138f c5be c7d6 913c 9f6a 2cbd 7099 e6bd
00000240: 4c12 a1be d2dc 83be a3d8 b3bb 04e2 16be
00000250: c14f 833e 0a71 d93d 7fe6 1dbc a9df 493d
00000260: b656 adbd 56d2 67be 63f6 a43e 17a0 c53d
00000270: d67d 793e 3deb 9ebe 355b 82be 4f20 f03e
00000280: cd94 933c e716 4abc da45 193d 9769 e63b
00000290: 105f 91bc 87a7 ccbc f65d 39bd dd1d bc39
000002a0: a6d8 5d3c d765 fe3c 63d2 3bbd 807c 823c
000002b0: cbef 053d 4798 99bc f2ca a93c 0f00 5abd
000002c0: 8c5b b13c 0203 8e3b 7e14 873c fdd5 ffbb
000002d0: 43a7 8e3c 544b e0bc 708a 5bbb e033 f13c
000002e0: 9e47 283d 82af 053d d678 423c a2fe 16ba
000002f0: 0896 8ebc 764a 7dbc 424b adbc 646b 1c3d
00000300: e788 47bc 096d ab3c ebfc ccbc 0857 a5bc
00000310: 1088 1abc 0472 3b3d c566 a83c 3974 fcbc
00000320: 48a8 733d 2568 f7bb 0743 33bd e723 0a3d
00000330: 2fe3 4d3c 0904 533d b0ec 81ba d360 493d
00000340: 62f0 813c 4b15 f13c 3316 353c 145e 323d
00000350: 870a 843c 974b b6bc ee44 843b a977 0f3d
00000360: 3004 173c 1973 d8bc 043c f9ba 1151 18bd
00000370: 226a 4b3d 86e2 c03b ed7c 443c 54dc 86bc
00000380: 15c8 c33c 29bc 3bbc f925 b3bc aafa b63c
00000390: dc49 223c c46f 413c 0b9f 353d 8dfc cd3c
000003a0: ef69 2c3d c434 163d 643e 563d 714c f53c
000003b0: e580 f53c 3872 1abc 0e26 023d ca6a f4bc
000003c0: 0889 25bc d3d5 1d3f 0d8f b239 13f6 11be
000003d0: b1d3 423c 56f1 40bc 33c7 f3bb 3862 c3bb
000003e0: 094f d13b 2b6e dbbc 456a 07bc b162 0fbd
000003f0: 6f69 39bd 191c c8bc 75a9 51bb 8581 a1ba

bias f4 [80]
0.059177734 0.0018693609 0.018472498 0.045291197 -0.01529096 -0.027580265 -0.09747924 -0.010406362
0.05315805 0.028087309 -0.0010585182 0.049306408 -0.013457351 -0.0094377985 -0.0046981955 -0.043385733
-0.09542529 0.05483798 0.0022721754 -0.005769302 0.015622613 -0.0051630004 0.14285298 0.023103138
0.03622766 0.059934333 0.12527388 0.046348732 -0.019704232 0.0035913705 -0.022156937 0.050918665
0.044900727 0.07484944 0.032927338 -0.0058912216 -0.05661539 0.052243125 -0.020692473 0.12528113
0.058049515 0.02880689 0.07996326 0.017081415 0.101394534 0.069568194 0.067101456 0.024667423
0.056141466 0.04847598 0.0782224 0.063524626 -0.02385348 -0.021816665 -0.001796469 0.02220068
0.043893065 -0.033693008 0.13339053 0.035011105 0.12063453 0.060368847 0.034104656 0.088372044
0.04177728 0.04576164 0.08767142 0.09483701 0.017563278 0.07329867 0.022116385 0.05806064
0.037627656 0.13375199 0.08477109 0.019397175 0.025088618 0.13138378 0.05261491 0.046408813
00000000: 5a64 723d 5805 f53a a353 973c 4383 393d
00000010: ef86 7abc 02f0 e1bc 32a3 c7bd 727f 2abc
00000020: 41bc 593d 5b17 e63c fabd 8aba 84f5 493d
00000030: 397c 5cbc ffa0 1abc 52f3 99bb 3db5 31bd
00000040: 566e c3bd ca9d 603d c7e8 143b 6a0c bdbb
00000050: fdf5 7f3c 632e a9bb 0d48 123e cb42 bd3c
00000060: 7463 143d b47d 753d cc47 003e 2bd8 3d3d
00000070: c56a a1bc 335d 6b3b 7782 b5bc 1790 503d
00000080: d3e9 373d aa4a 993d d1de 063d 260b c1bb
00000090: 8ae5 67bd e3fc 553d 4383 a9bc b249 003e
000000a0: 54c5 6d3d 6dfc eb3c c7c3 a33d 53ee 8b3c
000000b0: f0a7 cf3d c579 8e3d 7d6c 893d 5613 ca3c
000000c0: 98f4 653d c08e 463d 1133 a03d 3319 823d
000000d0: 6068 c3bc ddb8 b2bc 7f77 ebba 33de b53c
000000e0: 37c9 333d ae01 0abd 8797 083e ce67 0f3d
000000f0: 3d0f f73d 5345 773d 53b1 0b3d 67fc b43d
00000100: a71e 2b3d 8f70 3b3d 138d b33d e839 c23d
00000110: dde0 8f3c 9d1d 963d 6c2d b53c fed0 6d3d
00000120: 751f 1a3d 48f6 083e 779c ad3d d3e6 9e3c
00000130: a586 cd3c 7889 063e bb82 573d 2b17 3e3d

linear1.weight f4 [256, 512]
-0.09587491 0.093819514 -0.012186167 -0.017866753 -0.012133977 0.041476164 -0.14319474 -0.031838533
0.0039539495 -0.006549903 -0.08286032 -0.06413682 0.046888325 0.15255128 -0.08433086 0.06924817
0.06274848 0.07591886 -0.041937232 0.03427696 -0.02280781 -0.011512424 -0.01608432 -0.111704454
-0.023482924 -0.254163 -0.08873244 -0.05863652 -0.014955468 -0.12754448 -0.055115018 0.014321792
-0.01733911 0.113435276 0.011678546 0.096648686 -0.016162548 -0.020041063 -0.06551882 -0.13786004
0.013418756 -0.019324606 -0.03422003 0.026638944 -0.05232765 0.13275419 -0.07528658 0.0068355757
-0.103239425 0.019988792 0.02858865 -0.00019727762 0.010064748 -0.07884297 -0.08209419 0.122393884
0.031294987 -0.07121154 -0.03311787 0.059675507 -0.11090147 -0.005500506 -0.041512482 0.003581778
-0.085913315 -0.067774355 -0.037187047 -0.031327255 0.020927 -0.12151954 -0.12617126 -0.0031988402
-0.12871467 -0.06826818 0.013641903 -0.012171985 -0.15028286 -0.0717216 0.034902684 -0.03264661
0.040465392 -0.041482985 -0.0029381232 -0.007961349 0.04914342 0.0037079563 -0.023988029 0.0364109
0.0030273984 -0.0027439075 -0.12939799 -0.058219377 -0.021983307 -0.07656588 -0.08085926 -0.07648902
0.019550653 0.09194412 0.0019685572 -0.05108138 -0.09045005 -0.0130237825 0.014172533 -0.0031896327
-0.06487964 0.006497732 -0.089258134 -0.01827168 -0.11767585 0.17327225 0.110214144 0.018620627
-0.10861937 0.05403913 0.017732892 0.12944989 0.09776805 -0.019758202 -0.091466285 0.04979127
0.059659712 -0.00023887488 0.10297355 -0.0008689411 -0.25376305 0.019429866 -0.052970104 0.0055204066
-0.0571949 0.028198818 -0.020613832 -0.1921423 0.04006276 0.086313635 0.00045020654 -0.0048696566
0.056382056 -0.06866061 0.069478065 -0.0040478716 -0.05790874 0.069504924 0.00046655128 -0.012272615
0.001340203 -0.04298532 0.027953278 -0.069366924 -0.120400935 -0.110488124 0.03736747 0.10690954
-0.0954335 -0.09600512 -0.015242718 -0.044340834 0.00076926086 -0.07927642 -0.029571515 0.050897636
0.08456472 -0.045639124 -0.03241313 0.10033766 0.04460264 -0.11326565 -0.16838145 0.0038015852
-0.069203064 -0.006354348 0.09070953 0.06541431 0.058876794 -0.08607124 0.004291647 -0.067300536
0.037863538 -0.041778214 -0.020930683 0.080142714 0.057503045 -0.022574013 -0.030034501 -0.04734945
-0.013139622 -0.03342664 0.077065796 -0.067527324 0.048293855 -0.048460994 0.058576424 0.044543874
-0.07307668 0.13022837 -0.0076612365 -0.08308375 0.1502777 -0.12788673 -0.0033189724 0.06838123
-0.0031106537 -0.05637123 0.030020328 -0.11132591 -0.10995962 -0.058299053 0.077227235 -3.0826217e-05
-0.1452759 -0.05508753 0.09040781 -0.017103622 0.026536489 -0.025905004 -0.072686195 -0.02603183
0.016090987 -0.11708529 -0.06154309 -0.029984763 -0.0117830625 -0.087919 -0.06567083 -0.040307928
0.023515446 0.017860053 -0.06428592 -0.06866501 -0.06134775 -0.0074688983 0.044624373 0.07415435
-0.014912301 -0.112519875 0.03119872 -0.008779278 -0.022560155 -0.05739361 0.047053926 0.030913679
0.037362024 0.08892574 -0.044844445 0.111991934 0.11690769 0.11223134 0.14838238 -0.052880216
-0.077453114 0.032387577 -0.034588806 0.04625492 -0.08425681 -0.07395357 0.082530476 -0.02231844
00000000: 115a c4bd 7224 c03d 7da8 47bc 4c5d 92bc
00000010: 97cd 46bc e9e2 293d a4a1 12be 1f69 02bd
00000020: 2290 813b 92a0 d6bb acb2 a9bd 2a5a 83bd
00000030: f90d 403d 6736 1c3e a8b5 acbd fcd1 8d3d
00000040: 4682 803d 597b 9b3d 60c6 2bbd ff65 0c3d
00000050: 72d7 babc 9b9e 3cbc 44c3 83bc 4ec5 e4bd
00000060: 435f c0bc a721 82be 5ab9 b5bd d92c 70bd
00000070: c707 75bc 059b 02be 49c0 61bd f3a5 6a3c
00000080: c00a 8ebc c150 e83d 5f57 3f3c bfef c53d
00000090: 5267 84bc 282d a4bc bb2e 86bd 2f2b 0dbe
000000a0: 58da 5b3c a34e 9ebc 4d2a 0cbd ea39 da3c
000000b0: 8555 56bd b7f0 073e da2f 9abd f7fc df3b
000000c0: 316f d3bd 89bf a33c bf32 ea3c 4fdc 4eb9
000000d0: 9de6 243c 6c78 a1bd 0021 a8bd a5a9 fa3d
000000e0: 2c2f 003d 5bd7 91bd 9ba6 07bd 4e6e 743d
000000f0: 4f20 e3bd 973d b4bb fe08 2abd 43bc 6a3b
00000100: 52f3 afbd 48cd 8abd 7251 18bd 0251 00bd
00000110: 1a6f ab3c 3ddf f8bd 0a33 01be a2a3 51bb
00000120: c7cd 03be 30d0 8bbd 4a82 5f3c 016d 47bc
00000130: c0e3 19be c6e2 92bd 1ef6 0e3d 74b8 05bd
00000140: 0abf 253d 10ea 29bd 878d 40bb 5170 02bc
00000150: 9c4a 493d 2f01 733b 8b82 c4bc 9923 153d
00000160: 5167 463b 21d3 33bb e880 04be 7177 6ebd
00000170: 5616 b4bc 92ce 9cbd 8a99 a5bd 46a6 9cbd
00000180: b128 a03c 334d bc3d e902 013b b63a 51bd
00000190: e03d b9bd b461 55bc e933 683c 2809 51bb
000001a0: 9edf 84bd edea d43b f8cc b6bd 7eae 95bc
000001b0: 0900 f1bd 486e 313e f4b7 e13d 498a 983c
000001c0: d573 debd 2358 5d3d 9244 913c 838e 043e
000001d0: 9e3a c83d f4db a1bc ad52 bbbd eef1 4b3d
000001e0: be5d 743d 7d7a 7ab9 cce3 d23d a6c9 63ba
000001f0: 3bed 81be 622b 9f3c 2ef7 58bd 87e4 b43b
00000200: 3345 6abd 3501 e73c 57de a8bc f3c0 44be
00000210: d918 243d 34c5 b03d b309 ec39 a491 9fbb
00000220: dff0 663d ef9d 8cbd 844a 8e3d 02a4 84bb
00000230: b731 6dbd 9958 8e3d 749b f439 1413 49bc
00000240: c0a9 af3a 6011 30bd 46fe e43c 3f10 8ebd
00000250: c494 f6bd 9947 e2bd a20e 193d 64f3 da3d
00000260: a472 c3bd 559e c4bd 98bc 79bc bc9e 35bd
00000270: 39a8 493a ad5b a2bd f63f f2bc 0a7a 503d
00000280: 4530 ad3d 17f0 3abd a1c3 04bd d57d cd3d
00000290: 42b1 363d d2f7 e7bd 306c 2cbe 0424 793b
000002a0: 56ba 8dbd 2238 d0bb ebc5 b93d f0f7 853d
000002b0: cb28 713d 1e46 b0bd f2a0 8c3b ddd4 89bd
000002c0: cc16 1b3d a21f 2bbd d376 abbc dd21 a43d
000002d0: 5088 6b3d 23ed b8bc ea0a f6bc 7ff1 41bd
000002e0: 9247 57bc 5fea 08bd acd4 9d3d c44b 8abd
000002f0: c7cf 453d 097f 46bd d5ed 6f3d a373 363d
00000300: 3aa9 95bd 965a 053e 1c0b fbbb d027 aabd
00000310: 66e2 193e bdf4 02be 1e83 59bb 750b 8c3d
00000320: 1cdc 4bbb 85e5 66bd 31ed f53c d7fe e3bd
00000330: 8232 e1bd fdca 6ebd 5029 9e3d 664b 01b8
00000340: 35c3 14be 76a3 61bd bb27 b93d e51c 8cbc
00000350: 0d63 d93c bb36 d4bc 80dc 94bd b440 d5bc
00000360: 3fd1 833c 6aca efbd 9b14 7cbd 9ba2 f5bc
00000370: bf0d 41bc e00e b4bd 6e7e 86bd ed19 25bd
00000380: 77a3 c03c 3f4f 923c 56a8 83bd 3ea0 8cbd
00000390: c747 7bbd a9bd f4bb 0cc8 363d 3cde 973d
000003a0: b952 74bc d270 e6bd 7594 ff3c f6d6 0fbc
000003b0: 13d0 b8bc 9015 6bbd 9ebb 403d af3e fd3c
000003c0: ec08 193d b31e b63d cfae 37bd 075c e53d
000003d0: 4d6d ef3d 8bd9 e53d 8df1 173e ed98 58bd
000003e0: bd9f 9ebd d6a8 043d feac 0dbd cd75 3d3d
000003f0: d68e acbd f874 97bd bd05 a93d 29d5 b6bc

linear1.bias f4 [256]
-0.036215484 -0.027583182 -0.006858507 -0.082937814 -0.023658447 -0.07258334 -0.04380287 -0.047612578
-0.05112904 -0.05881155 -0.051722247 -0.049885727 -0.028565636 -0.087343596 -0.017146116 -0.029010994
-0.051229175 -0.06445355 -0.023611985 -0.045282993 -0.054121193 -0.059003294 -0.077589974 -0.0021013431
-0.062126998 -0.063588224 -0.04450052 -0.046766404 -0.03665337 -0.048503462 -0.029671518 -0.012505926
-0.060213473 -0.020111082 -0.07817333 -0.07015863 -0.022427188 -0.009096384 -0.041442685 -0.034427933
-0.055289164 -0.04908349 -0.028900325 -0.036651183 -0.03347116 -0.07179262 -0.043395765 -0.030111765
-0.08140146 -0.04112096 -0.028146591 -0.03703075 -0.05671321 -0.03413849 -0.030051464 -0.07837225
-0.0134461485 -0.027939724 -0.04501464 -0.0755483 -0.048797768 -0.05577986 -0.033729713 -0.026978211
-0.0393646 -0.02529355 -0.00023458422 -0.10140118 -0.028882025 -0.1007517 -0.13537551 -0.0025061334
-0.057671167 -0.0477103 -0.044240184 -0.03244992 -0.05384566 -0.030155245 -0.047547147 -0.109782785
-0.021512447 -0.09187647 -0.068692975 -0.0478091 -0.009858289 -0.06664017 -0.089920536 -0.016268685
-0.015154699 -0.073448665 -0.072257765 -0.10359117 -0.09076008 -0.061278462 -0.014273508 -0.017624514
-0.06351473 -0.059177466 -0.032376263 -0.0664957 -0.075551264 -0.05578884 -0.08526234 -0.066562355
-0.087444216 -0.032580826 -0.08102181 -0.15720195 -0.04495522 -0.10032784 -0.057049233 -0.07859448
-0.07980001 -0.08047148 -0.11485637 -0.08092609 -0.04889329 -0.06366802 -0.030945215 -0.01999836
-0.015251114 -0.020693913 -0.027510678 -0.030116023 -0.06840755 -0.034436617 -0.04142024 -0.046795007
-0.004804734 -0.027624395 -0.036902033 -0.027465997 -0.045159914 -0.09337437 -0.023363763 -0.04411461
-0.0564837 -0.034959354 -0.035709497 -0.0798684 -0.066951744 -0.070236735 -0.068085164 -0.07217729
-0.048357263 -0.053715013 -0.1004553 -0.056037802 -0.071916185 -0.047580607 -0.03504171 -0.09910511
-0.038999263 -0.064567596 -0.08359275 -0.054178927 -0.019041603 -0.010998514 -0.021076163 -0.069390826
0.02329 -0.02808843 -0.037029136 -0.012094761 -0.051505968 -0.093827546 -0.06876435 -0.043952506
-0.061827306 -0.008037114 -0.054738726 -0.022253418 -0.056783415 -0.038639758 -0.04557514 -0.043058712
-0.09168699 -0.039236717 -0.0065480587 -0.047118444 -0.060973555 -0.09619838 -0.050620627 -0.059418082
-0.027358852 -0.0518179 -0.05588216 -0.10885861 -0.03695496 -0.040832262 -0.022068007 -0.061573878
-0.057362143 -0.07038887 -0.049360275 -0.016070887 -0.0063918526 -0.06606001 -0.05304052 -0.06984307
-0.012408517 -0.04721363 -0.025415996 -0.086955674 -0.07073371 -0.09165313 -0.09332619 -0.14271255
-0.03629697 -0.06304763 -0.049544677 -0.075867295 -0.13822927 -0.012787822 -0.024693118 -0.04339459
-0.0030870805 -0.056100477 -0.047039147 -0.048092734 -0.050465506 -0.07605411 -0.039994217 -0.05717206
-0.017642366 -0.016837275 -0.0153631745 -0.03620667 -0.07111468 -0.07967507 -0.06297939 -0.041269436
-0.04447573 -0.082470044 -0.059991598 -0.03296872 -0.089184724 -0.033287615 -0.055919822 -0.066809244
-0.07963244 -0.059246026 -0.05088407 -0.03091452 -0.030388279 -0.14229932 -0.06678036 -0.06812221
-0.04900048 -0.07794573 -0.071136884 -0.05636967 -0.063686796 -0.053507563 -0.08966503 -0.04561279
00000000: b056 14bd 20f6 e1bc 54bd e0bb 4ddb a9bd
00000010: 5ccf c1bc 93a6 94bd a36a 33bd 6805 43bd
00000020: af6c 51bd 61e4 70bd b5da 53bd fa54 4cbd
00000030: 7b02 eabc 33e1 b2bd 0376 8cbc 77a8 edbc
00000040: afd5 51bd 3900 84bd ec6d c1bc a97a 39bd
00000050: 2fae 5dbd 70ad 71bd 7ee7 9ebd b0b6 09bb
00000060: e178 7ebd 8b3a 82bd 2d46 36bd 218e 3fbd
00000070: d821 16bd 91ab 46bd af11 f3bc a8e5 4cbc
00000080: 67a2 76bd ffbf a4bc 5719 a0bd 54af 8fbd
00000090: 39b9 b7bc 0009 15bc cebf 29bd 4e04 0dbd
000000a0: e476 62bd c50b 49bd 60c0 ecbc 8d1f 16bd
000000b0: 0e19 09bd 0208 93bd c2bf 31bd f3ac f6bc
000000c0: cfb5 a6bd 746e 28bd ae93 e6bc 8ead 17bd
000000d0: 1c4c 68bd cdd4 0bbd 7d2e f6bc a181 a0bd
000000e0: 3c4d 5cbc d9e1 e4bc 4561 38bd 11b9 9abd
000000f0: 2be0 47bd 6c79 64bd 2b28 0abd 6901 ddbc
00000100: c63c 21bd 6b34 cfbc b9fa 75b9 6cab cfbd
00000110: ff99 ecbc e856 cebd e19f 0abe f13d 24bb
00000120: 9a38 6cbd e06b 43bd 3235 35bd 35ea 04bd
00000130: 448d 5cbd 2208 f7bc ccc0 42bd ccd5 e0bd
00000140: df3a b0bc bb29 bcbd e7ae 8cbd 7ad3 43bd
00000150: a984 21bc a47a 88bd 4228 b8bd e845 85bc
00000160: 6a4b 78bc 416c 96bd e1fb 93bd 9b27 d4bd
00000170: 6ce0 b9bd 20ff 7abd 6fdb 69bc 4961 90bc
00000180: 0314 82bd 1264 72bd f99c 04bd e62e 88bd
00000190: 9fba 9abd d782 64bd 069e aebd d851 88bd
000001a0: f415 b3bd 7973 05bd c3ee a5bd 8cf9 20be
000001b0: f722 38bd af78 cdbd 75ac 69bd 25f6 a0bd
000001c0: 306e a3bd 3bce a4bd d139 ebbd 94bc a5bd
000001d0: 5544 48bd 6164 82bd d280 fdbc 9ad3 a3bc
000001e0: cfdf 79bc 4886 a9bc 135e e1bc e1b5 f6bc
000001f0: 4219 8cbd 690d 0dbd 45a8 29bd 1fac 3fbd
00000200: 0871 9dbb 8e4c e2bc 9626 17bd 5f00 e1bc
00000210: 9af9 38bd 103b bfbd 5d65 bfbc 85b1 34bd
00000220: 745b 67bd 8a31 0fbd 1f44 12bd 0b92 a3bd
00000230: ff1d 89bd 47d8 8fbd 3c70 8bbd b0d1 93bd
00000240: 4412 46bd 4604 5cbd 82bb cdbd e587 65bd
00000250: cb48 93bd e2e3 42bd e587 0fbd 9ff7 cabd
00000260: b1bd 1fbd 043c 84bd ad32 abbd b9ea 5dbd
00000270: 23fd 9bbc 1c33 34bc eba7 acbc c71c 8ebd
00000280: acca be3c b519 e6bc ddab 17bd 1b29 46bc
00000290: ecf7 52bd a828 c0bd 53d4 8cbd 8b07 34bd
000002a0: a13e 7dbd 19ae 03bc b735 60bd cd4c b6bc
000002b0: ba95 68bd b944 1ebd ffac 3abd 555e 30bd
000002c0: 63c6 bbbd aeb6 20bd 1991 d6bb 45ff 40bd
000002d0: 68bf 79bd a803 c5bd 9357 4fbd 6060 73bd
000002e0: ac1f e0bc 023f 54bd b1e4 64bd 43f1 debd
000002f0: 165e 17bd bb3f 27bd f7c7 b4bc e434 7cbd
00000300: 91f4 6abd 0a28 90bd 002e 4abd 18a7 83bc
00000310: bf72 d1bb 784a 87bd 0441 59bd e209 8fbd
00000320: 184d 4bbc 1463 41bd 3535 d0bc d115 b2bd
00000330: d6dc 90bd a3b4 bbbd cd21 bfbd 3d23 12be
00000340: 22ac 14bd 1e1f 81bd 5cef 4abd 5060 9bbd
00000350: f98b 0dbe 0384 51bc 3949 cabc 87be 31bd
00000360: 9e50 4abb 9dc9 65bd 1fac 40bd e3fc 44bd
00000370: ebb4 4ebd 42c2 9bbd fad0 23bd 402d 6abd
00000380: b986 90bc 53ee 89bc d3b5 7bbc 724d 14bd
00000390: 93a4 91bd af2c a3bd 57fb 80bd 240a 29bd
000003a0: 2f2c 36bd 0ee6 a8bd c0b9 75bd 350a 07bd
000003b0: 7ba6 b6bd 9858 08bd 2f0c 65bd 49d3 88bd
000003c0: 5516 a3bd f6ab 72bd d16b 50bd 7340 fdbc
000003d0: d7f0 f8bc eab6 11be 24c4 88bd a883 8bbd
000003e0: bab4 48bd 03a2 9fbd 37b0 91bd e2e3 66bd
000003f0: 396e 82bd bf2a 5bbd 4da2 b7bd 7ad4 3abd

linear2.weight f4 [80, 256]
0.049486335 -0.009414693 0.07492108 0.123023175 0.00819058 0.05980934 0.18954104 -0.063914984
-0.022626447 -0.007253231 -0.029087353 -0.0066160876 -0.0006392804 0.09680903 0.024726583 -0.0027652022
0.23910533 -0.07129972 -0.043110866 0.07730178 -0.026987638 0.0039445944 0.0028639976 0.0008997385
-0.023781396 0.20789377 0.11091341 -0.01158672 0.011754427 -0.029063623 0.0096054785 0.0016146637
0.026098521 -0.01132172 -0.034375194 -0.093135625 -0.014535917 0.07704891 -0.046812583 -0.059495334
-0.006836639 0.055327814 0.08338404 -0.040862314 0.014772857 0.051318683 0.08271008 0.009327783
-0.028717857 -0.05782009 -0.041070808 0.014360523 0.07300554 -0.050503265 -0.00058797316 -0.015368865
-0.05882248 -0.0009960828 -0.044825397 0.080852196 -0.026163038 -0.0050411546 -0.017064223 0.03148334
0.04329986 0.023751434 -0.004410269 0.0662469 -0.07547299 -0.12025314 -0.06775513 0.03788555
0.055578344 0.015252726 -0.007034905 -0.018615311 -0.13178344 0.033601567 0.08557508 -0.0024384973
-0.015150941 0.03276337 -0.004347774 -0.0065353387 0.054577734 0.12513497 -0.020095538 -0.008531249
-0.0004736576 -0.045279477 -0.092652515 0.0048417635 -0.032046713 -0.030677482 -0.017520575 0.007322752
0.0011580641 -0.06021438 -0.06573713 0.004533755 0.037793837 -0.012687494 0.13382691 0.06306233
-0.13755699 0.0033208812 -0.0503094 0.11700593 0.029308964 -0.028736275 -0.06650359 -0.082530156
-0.028229088 0.20253485 0.07360694 0.012260488 -0.01121597 -0.011773852 0.01210779 -0.04667057
-0.018337386 0.089967795 -0.022519208 0.014604979 -0.08444676 -0.0682815 0.055473913 -0.042690337
-0.020417491 0.065690756 -0.012710542 0.0135885505 -0.028811682 0.07924083 0.022768507 0.059635907
0.030700633 0.0028974235 -0.03680673 -0.09220731 -0.024842672 0.07438853 -0.015106243 -0.06476967
-0.012898767 0.009572803 -0.009626855 -0.079664096 0.032407816 -0.032846514 -0.044918176 -0.040686093
0.068867534 -0.08110378 -0.023994658 0.01031045 0.075627126 -0.015713789 -0.031804204 -0.009911554
-0.036929414 -0.07080506 0.020268345 0.047217052 0.03784044 0.0051861457 -0.010194064 -0.012653792
-0.034519225 0.00858508 -0.011649755 -0.045061883 -0.044499166 0.045563906 -0.071476884 -0.04763412
-0.049562026 0.0010256714 0.037357878 -0.03944206 0.030163353 0.03789362 0.041916043 -0.022070117
-0.060713477 -0.068829544 -0.032936476 -0.040135607 0.068142146 -0.06680725 0.061282318 0.0093277935
0.029502597 0.12855604 0.006161779 -0.003459271 0.03147429 -0.015992306 0.011967215 -0.036824685
-0.0060685663 -0.025448533 0.021987343 0.004945386 0.034442537 0.14126058 -0.043075893 0.054734707
-0.033483397 -0.0809151 0.01708376 -0.12406946 0.06534672 -0.050494794 0.027825791 0.040294454
0.03518643 -0.024701081 0.1083543 0.028706435 -0.017164797 -0.032231532 -0.011637525 -0.2439181
-0.046159394 0.060620826 0.030920954 0.009554534 0.014212123 0.21103476 -0.048535436 -0.09052133
-0.0072729974 0.023130149 -0.062987685 -0.05481147 0.094155416 -0.057070445 -0.00081797986 -0.016588876
-0.024687931 -0.022499485 -0.09338327 -0.010216105 -0.027080366 -0.058637347 -0.08100714 -0.077711426
0.03296802 0.039218467 -0.062390443 -0.050460313 -0.057063468 0.061755177 -0.0045891083 -0.013547886
00000000: 2fb2 4a3d 1640 1abc 3970 993d 93f3 fb3d
00000010: c831 063c a3fa 743d 0c17 423e dce5 82bd
00000020: 195b b9bc 83ac edbb 9a48 eebc c4cb d8bb
00000030: 6295 27ba d043 c63d 678f ca3c 6538 35bb
00000040: 07d8 743e 9605 92bd 0595 30bd 6550 9e3d
00000050: 2e15 ddbc a841 813b e8b1 3b3b 6edc 6b3a
00000060: 34d1 c2bc 1be2 543e 9226 e33d 3ad6 3dbc
00000070: a495 403c d616 eebc 4c60 1d3c 20a3 d33a
00000080: 91cc d53c bc7e 39bc 01cd 0cbd e4bd bebd
00000090: 0e28 6ebc d2cb 9d3d 8dbe 3fbd 61b1 73bd
000000a0: e205 e0bb 6b9f 623d 40c5 aa3d 3e5f 27bd
000000b0: da09 723c 8a33 523d e763 a93d 8fd3 183c
000000c0: b641 ebbc c2d4 6cbd dd39 28bd 6648 6b3c
000000d0: ee83 953d 83dc 4ebd 3622 1aba b1cd 7bbc
000000e0: d7ef 70bd fe8e 82ba d69a 37bd d695 a53d
000000f0: de53 d6bc 4530 a5bb 45ca 8bbc adf4 003d
00000100: 325b 313d 5e92 c23c 0584 90bb 74ac 873d
00000110: 9591 9abd 4747 f6bd 34c3 8abd e12d 1b3d
00000120: 1ea6 633d 92e6 793c 0f85 e6bb 237f 98bc
00000130: 3df2 06be cca1 093d fd41 af3d 32cf 1fbb
00000140: a73b 78bc e232 063d c677 8ebb 6526 d6bb
00000150: e78c 5f3d 6223 003e 669f a4bc a7c6 0bbc
00000160: 3f55 f8b9 f976 39bd 9ac0 bdbd a8a7 9e3b
00000170: 6a43 03bd 584f fbbc 4f87 8fbc b2f3 ef3b
00000180: 2fca 973a 5ba3 76bd 30a1 86bd e58f 943b
00000190: b6cd 1a3d 35df 4fbc ec09 093e d326 813d
000001a0: bddb 0cbe 24a3 593b 3b11 4ebd cea0 ef3d
000001b0: 5a19 f03c 5668 ebbc 0933 88bd 9205 a9bd
000001c0: b040 e7bc 4c65 4f3e 3cbf 963d 37e0 483c
000001d0: 30c3 37bc 1de7 40bc c15f 463c a429 3fbd
000001e0: 4938 96bc 0941 b83d 347a b8bc b949 6f3c
000001f0: 6cf2 acbd 2cd7 8bbd 9d38 633d 10dc 2ebd
00000200: 9542 a7bc e088 863d e13f 50bc 83a2 5e3c
00000210: 7a06 ecbc 0449 a23d 0585 ba3c c844 743d
00000220: e57f fb3c b3e2 3d3b a7c2 16bd 30d7 bcbd
00000230: dc82 cbbc 0359 983d 2d80 77bc f6a5 84bd
00000240: 5a55 53bc 3fd7 1c3c f5b9 1dbc ee26 a3bd
00000250: 0fbe 043d 118a 06bd 1ffc 37bd 76a6 26bd
00000260: 6c0a 8d3d bd19 a6bd 7290 c4bc 29ed 283c
00000270: 65e2 9a3d 34ba 80bc 2045 02bd 1264 22bc
00000280: 4c43 17bd 3e02 91bd cd09 a63c ab66 413d
00000290: 94fe 1a3d 8bf0 a93b 0105 27bc da51 4fbc
000002a0: 0864 0dbd 6fa8 0c3c 9dde 3ebc cf92 38bd
000002b0: c244 36bd 38a1 3a3d 7962 92bd ff1b 43bd
000002c0: 8d01 4bbd d26f 863a 9304 193d ff8d 21bd
000002d0: 2319 f73c 5736 1b3d 28b0 2b3d 64cc b4bc
000002e0: b2ae 78bd 81f6 8cbd 66e8 06bd 3c65 24bd
000002f0: 1c8e 8b3d 3dd2 88bd 2b03 7b3d 9ad3 183c
00000300: 6eaf f13c 32a4 033e c0e8 c93b f0b4 62bb
00000310: 2feb 003d 4c02 83bc 2312 443c 7bd5 16bd
00000320: d3da c6bb 7179 d0bc cd1e b43c e80c a23b
00000330: 9e13 0d3d 9da6 103e 5970 30bd 8031 603d
00000340: e325 09bd d1b6 a5bd 3ef3 8b3c 2118 febd
00000350: 80d4 853d a1d3 4ebd eaf2 e33c cc0b 253d
00000360: a51f 103d ec59 cabc dce8 dd3d c229 eb3c
00000370: 309d 8cbc 3605 04bd 51ab 3ebc abc5 79be
00000380: a211 3dbd 8b4d 783d f14d fd3c 9f8a 1c3c
00000390: f7d9 683c 7f19 583e 18cd 46bd 3f63 b9bd
000003a0: 5352 eebb 707b bd3c b0ff 80bd fe81 60bd
000003b0: 8ed4 c03d b3c2 69bd b36d 56ba 65e5 87bc
000003c0: 583e cabc d750 b8bc ba3f bfbd 7361 27bc
000003d0: a5d7 ddbc b72d 70bd 12e7 a5bd 2b27 9fbd
000003e0: 7909 073d 8ba3 203d 1f8d 7fbd 79af 4ebd
000003f0: 62bb 69bd fff2 7c3d 3b60 96bb f4f7 5dbc

linear2.bias f4 [80]
-0.05508698 -0.0621012 -0.019243615 0.02924509 0.042645395 -0.08462304 -0.015668903 0.12543197
-0.11712589 0.027392412 0.0007585289 -0.018503398 -0.022223897 -0.04246018 0.06688765 -0.041973624
-0.011149728 -0.05764283 -0.014059438 -0.081321895 -0.09364698 -0.0658837 0.0751918 -0.06324074
-0.04365085 -0.077710494 0.002696394 0.110728845 -0.04965009 -0.028392933 0.06932709 -0.0126569625
-0.005175185 0.10014036 0.02554269 -0.032510612 0.07959063 0.11832268 0.07410507 0.06959977
0.09547042 0.04240001 0.050746303 -0.10472417 -0.03388921 0.08893508 -0.023047857 0.05000361
-0.017947614 -0.048392836 -0.09876423 -0.03591923 0.018816978 0.05404973 0.009799995 -0.054329038
-0.015230018 0.07560149 -0.008901941 -0.028231267 0.062307365 -0.0341452 0.00030284206 0.005175385
0.09391888 0.069701925 -0.03427383 0.055329084 -0.042953648 -0.062180363 0.045160405 -0.029930705
0.02539308 0.017477045 0.011917568 -0.033144698 -0.0249447 0.06912393 0.096547894 -0.12933055
00000000: e3a2 61bd d45d 7ebd c9a4 9dbc 6693 ef3c
00000010: f0ac 2e3d d84e adbd 125c 80bc 3d71 003e
00000020: b3df efbd 0d66 e03c 03d8 463a 7094 97bc
00000030: e40e b6bc baea 2dbd 64fc 883d 89ec 2bbd
00000040: 59ad 36bc e31a 6cbd 8f59 66bc 188c a6bd
00000050: fdc9 bfbd 09ee 86bd 29fe 993d 5c84 81bd
00000060: 3ccb 32bd ae26 9fbd fcb5 303b cec5 e23d
00000070: e55d 4bbd 4c98 e8bc 5dfb 8d3d 265f 4fbc
00000080: 9994 a9bb 6416 cd3d e73e d13c d929 05bd
00000090: 6a00 a33d 2953 f23d 66c4 973d 538a 8e3d
000000a0: ff85 c33d a2ab 2d3d 5bdb 4f3d a079 d6bd
000000b0: 6acf 0abd 9823 b63d dcce bcbc 96d0 4c3d
000000c0: e006 93bc 9137 46bd e744 cabd 0b20 13bd
000000d0: 1026 9a3c 4063 5d3d 2990 203c 2088 5ebd
000000e0: 5387 79bc f4d4 9a3d 72d9 11bc 4245 e7bc
000000f0: 0236 7f3d d6db 0bbd c6c6 9e39 4796 a93b
00000100: 8b58 c03d e2bf 8e3d b762 0cbd c0a0 623d
00000110: 2af0 2fbd d6b0 7ebd 1efa 383d 3d31 f5bc
00000120: 2605 d03c 052c 8f3c e741 433c bcc2 07bd
00000130: d458 ccbc d990 8d3d e7ba c53d 3a6f 04be

weight f4 [1, 768]
0.023634432 0.014079609 -0.014082369 0.0027849802 0.010174222 0.0071914643 0.011472792 -0.003979158
-0.018730428 0.019706205 -0.023794362 0.005304577 -0.008700523 0.019974384 0.017245008 -0.015363572
0.022561517 0.025017787 0.009292191 0.004871008 0.023154764 -0.021426858 -0.0035180522 0.013742644
-0.0036912735 0.0062394496 0.007398257 -0.020966537 -0.022174833 0.011567307 -0.024416326 -0.049161494
-0.018517088 0.0068138214 -0.019575976 -0.020292986 -0.00650504 -0.020759694 0.018214667 -0.025701173
-0.0022067768 0.015177131 -0.005567221 -0.011446223 0.0027581865 0.025481522 0.022446088 0.0050555803
0.027061453 -0.010406109 0.013945486 0.0060441345 0.01915157 -0.0050879414 0.01271864 -0.020068962
-0.010588351 -0.02565594 -0.0014134868 -0.002996685 -0.000792949 -0.019672286 -0.084881276 -0.018387832
-0.034697276 -0.025782008 -0.005979917 0.021230198 0.026526378 0.030167328 0.0053584157 0.02286529
0.008300656 -0.022905119 0.0046566753 -0.011978857 -0.02275467 -0.0033471496 -0.008102379 0.018409586
-0.021616606 0.025464507 0.024607906 0.008194891 -0.023159236 -0.0105072735 0.02238567 0.016630687
0.013793121 -0.0038101147 0.01766662 -0.005441469 -0.012117904 0.0041716644 -0.011928245 0.011766665
0.0032232308 -0.007834346 0.0035453872 -0.030586684 -0.027795527 -0.004458032 0.01714045 -0.010215576
0.017059091 -0.005592931 0.01554178 -0.020610174 0.001956882 -0.015090973 -0.020497857 -0.023838002
0.015089147 -0.013282499 -0.004738043 0.010353843 -0.02563685 0.014065961 0.01434336 0.013836347
0.003933241 -0.011962026 0.003876501 0.0032354875 -0.01710216 0.006899086 -0.009268048 0.01756328
-0.022605067 -0.01803424 0.01787826 -0.012021514 0.026335541 -0.0062334444 -0.0028169025 0.005524677
-0.02331902 -0.008426072 0.02572246 -0.01356234 -0.012269349 0.013180468 0.029934054 0.0013122379
0.00033037664 0.0054388144 0.0022543613 0.0042007505 0.010935396 -0.021921448 0.0005719677 0.01665391
-0.018032387 0.02164632 -0.0011253968 -0.012283641 -0.0031139944 0.0031018546 0.029468795 0.015858298
-0.01675542 0.005928506 -0.011402587 -0.016093463 -0.020869294 0.0016241182 0.027863856 -0.007906042
0.011298416 0.008321502 -0.0016823085 0.015725276 -0.013107179 0.01722421 -0.002431333 0.0067991666
0.0141784735 0.0069807037 -4.7751346e-05 0.010994516 -0.006312253 0.006136265 0.0031674432 -0.012629274
-0.0155340815 0.022990398 0.019749813 -0.011606541 0.028448453 0.014071669 -0.038375497 0.016407978
-0.025276758 0.015583837 -0.004052831 -0.008171415 -0.0009235317 -0.007944696 0.0066297534 0.012347161
0.014458596 0.018199375 -0.0068520163 0.02570556 0.019411681 -0.002866856 -0.0038402101 -0.020356385
0.009532148 0.006628975 -0.019807529 0.024469635 0.014116793 0.012931024 -0.014922991 -0.0067585
-0.0036975786 0.019186111 0.0148765 0.014264906 0.020145232 0.021803861 -0.0036941047 0.027302828
0.01530073 0.0127549125 -0.010953993 0.0023970862 0.01121082 -0.0067946515 -0.00078152004 0.0021944975
-0.017343976 -0.013294614 0.005811392 -0.013401536 -0.0052524526 0.022794994 0.019635677 -0.01671023
-0.008930722 0.018588541 0.014455987 -0.0015303815 -0.008691112 0.030991832 -0.017048493 0.0061875517
-0.014495341 0.0121770715 0.011234132 0.005367191 -0.03091288 0.015582347 0.023860138 -0.015370751
00000000: ff9c c13c 29ae 663c bdb9 66bc 3784 363b
00000010: c8b1 263c 60a6 eb3b 61f8 3b3c 9963 82bb
00000020: 8e70 99bc e86e a13c 65ec c2bc 04d2 ad3b
00000030: a38c 0ebc 52a1 a33c 6745 8d3c 7eb7 7bbc
00000040: eed2 b83c 1af2 cc3c 463e 183c fa9c 9f3b
00000050: 0faf bd3c 6187 afbc 1f8f 66bb d428 613c
00000060: 4be9 71bb 4c74 cc3b 146d f23b 04c2 abbc
00000070: ffa7 b5bc cd84 3d3c bf04 c8bc 905d 49bd
00000080: 26b1 97bc 7a46 df3b cc5d a0bc 7a3d a6bc
00000090: 3b28 d5bb 3c10 aabc ed36 953c 448b d2bc
000000a0: 929f 10bb 80a9 783c 3c6d b6bb f088 3bbc
000000b0: b1c2 343b a0be d03c dce0 b73c 48a9 a53b
000000c0: fbaf dd3c 627e 2abc 9c7b 643c e00d c63b
000000d0: c1e3 9c3c bfb8 a6bb d861 503c aa67 a4bc
000000e0: c37a 2dbc 682c d2bc bf44 b9ba 0864 44bb
000000f0: e8dd 4fba c627 a1bc 3cd6 adbd 14a2 96bc
00000100: bb1e 0ebd ca34 d3bc 2ef3 c3bb f4ea ad3c
00000110: d94d d93c 7921 f73c a695 af3b fd4f bb3c
00000120: 7aff 073c 84a3 bbbc 0697 983b f842 44bc
00000130: 0068 babc da5b 5bbb d7bf 04bc b3cf 963c
00000140: 4f15 b1bc f19a d03c 8596 c93c dd43 063c
00000150: 70b8 bdbc b326 2cbc 2762 b73c 143d 883c
00000160: 8bfc 613c 1eb3 79bb 96b9 903c 5a4e b2bb
00000170: 2c8a 46bc 75b2 883b b06e 43bc f8c8 403c
00000180: d73c 533b a15b 00bc ba59 683b ed90 fabc
00000190: 72b3 e3bc af14 92bb 216a 8c3c 3b5f 27bc
000001a0: 82bf 8b3c e844 b7bb f3a2 7e3c abd6 a8bc
000001b0: 083f 003b 2140 77bc 1feb a7bc ea47 c3bc
000001c0: 7838 773c d79e 59bc 9641 9bbb 2aa3 293c
000001d0: 5f04 d2bc eb74 663c 6a00 6b3c d8b1 623c
000001e0: 6be2 803b 60fc 43bc e50c 7e3b 790a 543b
000001f0: d419 8cbc ba11 e23b 03d9 17bc dee0 8f3c
00000200: 432e b9bc 8bbc 93bc 6e75 923c e2f5 44bc
00000210: a2bd d73c ec41 ccbb c89b 38bb 5a08 b53b
00000220: 8807 bfbc 820d 0abc e9b7 d23c 9434 5ebc
00000230: 6105 49bc e4f2 573c 4338 f53c 66ff ab3a
00000240: 6736 ad39 1538 b23b e8bd 133b 73a6 893b
00000250: 602a 333c 9c94 b3bc 1af0 153a c86d 883c
00000260: a8b8 93bc a053 b13c 0d82 93ba 5341 49bc
00000270: 2814 4cbb 7c48 4b3b 8b68 f13c 43e9 813c
00000280: aa42 89bc ea43 c23b ebd1 3abc 70d6 83bc
00000290: 15f6 aabc 5de0 d43a be42 e43c 5888 01bc
000002a0: fe1c 393c e956 083c e880 dcba 4bd2 803c
000002b0: 7ebf 56bc c919 8d3c 0057 1fbb 8bcb de3b
000002c0: d44c 683c 63be e43b 9e48 48b8 5822 343c
000002d0: 04d7 cebb b912 c93b e194 4f3b 04eb 4ebc
000002e0: a982 7ebc 5c56 bc3c 5cca a13c 5d29 3ebc
000002f0: bb0c e93c dc8c 663c a02f 1dbd 066a 863c
00000300: 3411 cfbc 5a53 7f3c 9ccd 84bb 66e1 05bc
00000310: 2a19 72ba 782a 02bc 673e d93b bf4b 4a3c
00000320: bfe3 6c3c db16 953c e186 e0bb 7794 d23c
00000330: 3f05 9f3c dde1 3bbb 09ac 7bbb 6fc2 a6bc
00000340: ba2c 1c3c df37 d93b 6643 a2bc 8b74 c83c
00000350: 1f4a 673c a5dc 533c 907f 74bc 6876 ddbb
00000360: 1353 72bb 312c 9d3c 90bc 733c 5ab7 693c
00000370: 9d07 a53c 039e b23c cb18 72bb 2eaa df3c
00000380: eaaf 7a3c fbf9 503c 6078 33bc 6f18 1d3b
00000390: 96ad 373c aba5 debb ecde 4cba 8fd1 0f3b
000003a0: f414 8ebc a7d1 59bc 7d6d be3b 1e92 5bbc
000003b0: c41c acbb 91bc ba3c 00db a03c e4e3 88bc
000003c0: 2a52 12bc ff46 983c ced8 6c3c 1597 c8ba
000003d0: 2a65 0ebc 95e2 fd3c 48a9 8bbc f2c0 ca3b
000003e0: de7d 6dbc 5782 473c 5d0f 383c 43df af3b
000003f0: 023d fdbc 1a4d 7f3c 5676 c33c 9ad5 7bbc
