SPMLUA_outputs/zs4/Train_with_full_labels_L2loss/checkpoint_best.pth (torch, 691407 bytes, 7 tensors)

weight f4 [80, 240]
0	0x3f164fb4	0.5871537
1	0xbc13252d	-0.008981031
2	0x3c27cad3	0.010241228
3	0xbccc1cce	-0.024916079
4	0x3cb16d9b	0.02165871
5	0xbcdbc678	-0.026828036
6	0xbd2c8e4d	-0.042127896
7	0xbc416970	-0.011804923
8	0xbca03eb8	-0.019561157
9	0xbaa8ce60	-0.0012878887
10	0x3c5af7b5	0.013364722
11	0x3c5e79b4	0.013578821
12	0xbc146cd1	-0.009059147
13	0xbbf4f0a8	-0.0074749775
14	0x3c61065a	0.0137344245
15	0xbca9b887	-0.020717872
16	0x3c0fcc66	0.00877676
17	0xbb9f5322	-0.004862205
18	0xbc4dd27f	-0.012562393
19	0xbbdd5d01	-0.0067554717
20	0x3bdcc469	0.006737281
21	0xbd3ce53d	-0.046117056
22	0x3bb8ebd6	0.005643348
23	0x3c3adf5a	0.01140579
24	0xbcc2727e	-0.023736235
25	0xbcb4e099	-0.022079753
26	0xbd0f4114	-0.034974173
27	0xbd47eaab	-0.04880778
28	0xbb4bc07e	-0.0031090076
29	0xbcec0197	-0.028809352
30	0x3da8a903	0.082353614
31	0x3d056885	0.03257038
32	0x3c083022	0.008312257
33	0xbcfa45d8	-0.030550882
34	0xbda62ffc	-0.08114621
35	0x3ada7471	0.0016666782
36	0x39e4e0cc	0.00043655036
37	0xbd57fc0b	-0.0527306
38	0xbd269f85	-0.040679473
39	0x3cfe84a0	0.0310691
40	0xbc5fc88d	-0.013658655
41	0xbd8f20d4	-0.06988683
42	0xbb8017d3	-0.00390909
43	0xbcfe2503	-0.031023508
44	0x3cd01d66	0.025404643
45	0x3bb96b07	0.0056585106
46	0x3c08602f	0.008323713
47	0x3c10bcf5	0.008834113
48	0x3a7407e5	0.00093090377
49	0x3c639e94	0.013892788
50	0xbb692ce6	-0.003557974
51	0x3b1738e6	0.0023074686
52	0xbc23ab68	-0.009989597
53	0xbc69e17f	-0.014274954
54	0x3c5624e6	0.013070321
55	0xbca51939	-0.020153629
56	0x3ae28aa0	0.0017283745
57	0xbb0031df	-0.0019560975
58	0x3cfb54ff	0.030680178
59	0xbb8274b5	-0.0039811977
60	0x3b9d4908	0.004799966
61	0x3b496a7f	0.0030733643
62	0xbcce8522	-0.025209967
63	0x3c34dbd3	0.011038738
64	0x3c97255c	0.018450432
65	0xbcab477f	-0.020908115
66	0x3cdb6de9	0.026785808
67	0x3bd25371	0.0064186384
68	0x3b818b91	0.003953405
69	0xbc90973f	-0.017650245
70	0x3ba4e1ea	0.005031814
71	0x3ca9b270	0.020714968
72	0x3b330170	0.002731409
73	0xbc120b9f	-0.0089139035
74	0x3bf51c87	0.0074802074
75	0x3c40343a	0.011731202
76	0x3cbec57b	0.023287525
77	0xbc7389c8	-0.014864393
78	0xbba211cc	-0.004945969
79	0xbc00dc00	-0.007864952
80	0xbd2aa780	-0.041663647
81	0xbeaad0d3	-0.33362445
82	0x3e29fe5e	0.1660094
83	0x3da42e2d	0.0801662
84	0xbe7cb405	-0.24678047
85	0xbd6750ad	-0.056473423
86	0x3da33ab0	0.07970178
87	0x3e6a8e5b	0.22905867
88	0xbe9fdf8e	-0.31225246
89	0xbd497a7f	-0.049189087
90	0x3e49c790	0.19705033
91	0xbe204e51	-0.15654875
92	0xbe4f8096	-0.20263895
93	0xbd880b05	-0.06642727
94	0xbe53b843	-0.20675759
95	0xbe090b0b	-0.13383119
96	0x3e19ac99	0.15007247
97	0x3c7f2d30	0.015574738
98	0x3cc595ce	0.024119284
99	0x3e0f1b5a	0.13975278
100	0x3df9b45d	0.12192605
101	0xbe99d93d	-0.30048552
102	0xbe8b6d40	-0.2723179
103	0x3d09ee03	0.03367425
104	0x3e955a4a	0.29170448
105	0xbe8c45d7	-0.27397034
106	0x3e2715bb	0.16316883
107	0x3b9fee68	0.004880715
108	0x3daa28d9	0.08308572
109	0xbcc1a605	-0.023638735
110	0xbe7a16bb	-0.24422733
111	0x3bfe86a7	0.0077675167
112	0xbce0606b	-0.027389726
113	0xbebddaa0	-0.3708086
114	0x3e88607d	0.26636115
115	0xbeee91c5	-0.46595588
116	0xbd845ea4	-0.06463364
117	0xbe0e0ec3	-0.13872819
118	0x3f02d404	0.5110476
119	0xb8da01b5	-0.00010395368
120	0x3c018228	0.007904567
121	0x3e064004	0.13110358
122	0x3dd2e09e	0.102967486
123	0x3f289ee5	0.65867454
124	0x3e1976c8	0.14986718
125	0xbc8631cf	-0.016381172
126	0x3e016eb1	0.12639882
127	0x3db70991	0.089373715
128	0xbbdf0182	-0.0068055997
129	0x3d27fa5d	0.04101025
130	0xbe065844	-0.13119608
131	0x3dcc1680	0.09965229
132	0xbc822abe	-0.015889522
133	0xbe5e91e0	-0.21735334
134	0xbcd6a752	-0.026202831
135	0x3e8740e8	0.26416707
136	0xbde04a4e	-0.109516725
137	0xbc5ef69e	-0.013608603
138	0x3d4914cc	0.0490921
139	0x3d71fa12	0.059076376
140	0x3dd5c4d1	0.104379304
141	0x3e80f7af	0.25188968
142	0x3de5206e	0.11187826
143	0xbd0fcd6e	-0.035108022
144	0x3d00a3e7	0.03140631
145	0xbd177551	-0.036977116
146	0x3c391645	0.011296813
147	0x3da3de9c	0.08001444
148	0xbd886bca	-0.06661184
149	0xbebcbe26	-0.36863822
150	0xbb9f0647	-0.0048530432
151	0xbe84e309	-0.25954464
152	0x3dd517b6	0.10404913
153	0x3e0b76cc	0.13619536
154	0xbd17d86c	-0.03707163
155	0xbe00481d	-0.12527509
156	0x3df758dd	0.12077496
157	0xbece2d0f	-0.40268752
158	0xbe27365d	-0.16329332
159	0x3ded0b78	0.11574453
160	0xbc5c83f6	-0.013459196
161	0x3ce777d5	0.028255383
162	0xbcfcb060	-0.03084582
163	0x3cbee756	0.023303669
164	0xbbc54127	-0.0060197297
165	0x3c762f52	0.0150259305
166	0x3c5ba4fd	0.0134060355
167	0x3b964aa2	0.0045865336
168	0x3a45f32b	0.00075511885
169	0x3caf4b92	0.02139834
170	0x3c208c7c	0.009799119
171	0x3cb4af0b	0.022056123
172	0x3c640906	0.013918167
173	0x3cfbc6c2	0.030734424
174	0xbc300bf7	-0.01074504
175	0xbc1a00c6	-0.009399598
176	0x3cc72b2f	0.024312584
177	0x3b917ede	0.0044401726
178	0xbbd7cfa2	-0.006586031
179	0xbc32311f	-0.010875969
180	0xbd00434e	-0.031314187
181	0xbd0b0491	-0.0339399
182	0xba76150a	-0.00093872903
183	0xbc852f0f	-0.01625779
184	0x3cba1f1b	0.02271991
185	0xbc41870e	-0.011811985
186	0xbd29c467	-0.04144707
187	0xbd329705	-0.043601055
188	0xbac004cb	-0.0014649866
189	0x3b9680a8	0.0045929737
190	0xbc490200	-0.012268543
191	0x3c5b5250	0.013386324
192	0xbc85fda1	-0.016356291
193	0x3c461d86	0.012092
194	0x3d22a56f	0.03970855
195	0x3cf6d8b4	0.030132629
196	0x3caf10e8	0.021370366
197	0x39da63b3	0.00041654482
198	0xbd3561e1	-0.044282798
199	0xbc567b69	-0.013090947
200	0xbca8e2b5	-0.020615915
201	0x3d14c578	0.036321133
202	0x3cbe6fac	0.023246609
203	0x3c3dc81d	0.011583355
204	0xbd1ab90a	-0.037774123
205	0xbd61e8a2	-0.055153497
206	0x3d0e6de5	0.034772772
207	0x3c868e9c	0.016425423
208	0x3b0df5a4	0.0021661306
209	0x3d010062	0.031494506
210	0x3ce8b63d	0.02840721
211	0xbb09dcc6	-0.0021036132
212	0x3d035d6c	0.032071516
213	0x3b92c3e2	0.0044789175
214	0x3c1eb5a4	0.009686861
215	0x3c57453c	0.013139065
216	0xbcedaa60	-0.029011905
217	0x3c89b9a7	0.016812159
218	0x3c9679de	0.018368658
219	0xbc247021	-0.010036499
220	0xbd0e0a2f	-0.03467768
221	0xbcb4fb10	-0.022092372
222	0x3d10c49e	0.03534376
223	0xbd17bc9b	-0.037045103
224	0x3c96492d	0.01834544
225	0xbc03160d	-0.008000863
226	0xbd194b2c	-0.037425205
227	0xbcd16053	-0.025558626
228	0xbd20ad43	-0.039227735
229	0xbc5f4592	-0.013627427
230	0xbc21ff3b	-0.009887512
231	0x3d2f12c0	0.04274249
232	0xbcc1aa72	-0.023640845
233	0x3c8aa7d0	0.016925722
234	0x3cac3508	0.021021381
235	0xbd382077	-0.044952836
236	0xbc4b08db	-0.012392248
237	0xbc8d061d	-0.01721483
238	0xbcc034fe	-0.023462769
239	0x3b1e28e1	0.0024133252
240	0xbc4ba7b4	-0.01243012
241	0x3f103547	0.56331295
242	0x3bdc56b9	0.0067242053
243	0xbe2d439b	-0.1692032
244	0x3b34cc63	0.0027587644
245	0xbd488ec4	-0.048964277
246	0xbb26a9f2	-0.0025430885
247	0x3cabc41c	0.020967536
248	0xbaf2c0e9	-0.0018520626
249	0xbcdee8d6	-0.027210634
250	0x38692a7f	5.5591107e-05
251	0xbc88830e	-0.016664054
252	0xbd08ddf6	-0.033414803
253	0xbc316287	-0.010826713
254	0x3b648b7e	0.0034873183
255	0xbab51c67	-0.0013817669

bias f4 [80]
0	0x3ca48ccd	0.02008667
1	0x3d20b591	0.039235655
2	0xbd41a742	-0.04727865
3	0x3c8d6127	0.01725824
4	0x3c2ff3b5	0.010739257
5	0xb939adc5	-0.00017707709
6	0xbd1da116	-0.0384837
7	0x3bdee9e9	0.0068027866
8	0x3dc28747	0.09498458
9	0x3d264620	0.04059422
10	0x3cc503fc	0.024049751
11	0x3d2ed43d	0.042682875
12	0x3d5abbeb	0.05340187
13	0xbd3d2792	-0.046180315
14	0xbc8a6679	-0.016894566
15	0x3b9a70c2	0.004713149
16	0xbd99e1a9	-0.075137444
17	0x3dad5525	0.08463506
18	0x3d4578b8	0.04821083
19	0x3c0f4f60	0.008746952
20	0x3ce2e3de	0.027696546
21	0x3c95f4c8	0.018305197
22	0x3e0b8ea6	0.13628635
23	0x3da01742	0.07816936
24	0x3c2f1e52	0.010688381
25	0x3dbc5c59	0.091973014
26	0x3df4d64e	0.11954938
27	0x3d045d7c	0.032315716
28	0x3c837c9d	0.016050631
29	0x3db70875	0.0893716
30	0x3d2f7c62	0.04284323
31	0x3d279a46	0.04091861
32	0x3d39468a	0.045233287
33	0x3dc23da5	0.09484414
34	0x3d440b3e	0.047862284
35	0x3c94cdaf	0.018164484
36	0xbde1f26e	-0.11032568
37	0x3d12553b	0.035725813
38	0x3ccc3537	0.024927719
39	0x3d7135e6	0.058889292
40	0x3cca89ce	0.024723914
41	0xbdde96f8	-0.10868639
42	0x3d487e7e	0.048948757
43	0x3c18a183	0.009315851
44	0x3cc8c9cd	0.024510289
45	0xbcc92888	-0.02455546
46	0x3ca2f3c3	0.019891625
47	0xbd2cb524	-0.042164937
48	0x3c4fb6b9	0.012677842
49	0x3d7c4aa3	0.061594617
50	0x3cc454be	0.02396619
51	0x3cf5159b	0.029917529
52	0xbd772292	-0.060335703
53	0xbb2eaac6	-0.0026652082
54	0x3c19d683	0.0093895225
55	0xbd05530d	-0.032549907
56	0xbdd4df80	-0.10394192
57	0xbce375ec	-0.02776619
58	0xbcb91573	-0.022593236
59	0xbb6c48c9	-0.0036054126
60	0x3c5323bd	0.012886939
61	0x3d43c590	0.047795832
62	0xbbf0d223	-0.007349269
63	0xbc886fc8	-0.016654864
64	0xbc9e5ff7	-0.019332869
65	0xbc5dbda0	-0.01353398
66	0x3d787e0d	0.060667086
67	0xbdbc4c27	-0.091942124
68	0xbcb36f12	-0.021903548
69	0x3c96292b	0.018330177
70	0xbb796c6c	-0.003805901
71	0x3c25577c	0.010091659
72	0x3d0bbea4	0.034117356
73	0xbb4fc64c	-0.0031703888
74	0x3cd457d1	0.02592078
75	0x3c70b102	0.014690639
76	0xbdd7d782	-0.10539152
77	0x3c7b12c2	0.015324296
78	0x3cae7fce	0.021301176
79	0xbc8b54f5	-0.017008284

linear1.weight f4 [256, 512]
0	0xbd0fe86a	-0.035133757
1	0x3db85001	0.089996345
2	0x3cffc55e	0.031222042
3	0xbbd64197	-0.0065385806
4	0xbc8b5ce7	-0.017012073
5	0x3db8bc10	0.09020245
6	0xbd3e4089	-0.046448264
7	0xbd3f309f	-0.046677228
8	0xbd97f212	-0.07419218
9	0x3d4115fe	0.047140114
10	0xbd8fab30	-0.07015073
11	0xbd8f010a	-0.0698262
12	0x3dbccf22	0.09219195
13	0x3d58b4ec	0.052906916
14	0xbd30efa5	-0.043197293
15	0x3d92949b	0.071572505
16	0xbd7cbcba	-0.06170342
17	0xbc4b0116	-0.012390396
18	0xbd0e9648	-0.034811288
19	0xbc93b7a7	-0.018031908
20	0xbda16eaa	-0.078824356
21	0x3daa0937	0.08302539
22	0x3d55c0f8	0.052185982
23	0x3ca4a2e1	0.020097198
24	0xbc80b246	-0.015710007
25	0x3c6e28fa	0.014536137
26	0xbd4faf5e	-0.050704353
27	0x3d341ec7	0.043974664
28	0xbcd26fec	-0.025688134
29	0xbd133bb2	-0.0359456
30	0xbcfa6c2b	-0.030569157
31	0xbd04720d	-0.03233533
32	0x3d299c6c	0.04140894
33	0x3d01f8b0	0.031731308
34	0x3d535db1	0.051603023
35	0xbb7fe5a4	-0.0039046789
36	0xbd909498	-0.07059592
37	0x3cac5949	0.021038668
38	0xbd9d9b5e	-0.076956496
39	0xbd8f2543	-0.06989529
40	0x3d4bc3d8	0.049747318
41	0xbcda545d	-0.026651556
42	0x3c1a26d1	0.009408669
43	0x3d105c9a	0.03524456
44	0xbc92d1e6	-0.017922353
45	0x3d38fe95	0.045164663
46	0x3d1e4399	0.038638685
47	0x3d83134e	0.064001665
48	0xbb8f09e3	-0.0043651923
49	0x3ccf5a15	0.02531151
50	0x3daa95d4	0.08329359
51	0xbd40f83c	-0.047111735
52	0x3bfbfeda	0.007690293
53	0xbc0fa8d2	-0.008768277
54	0x3d33aefa	0.043868043
55	0xbd07b897	-0.033135023
56	0xbd12ff75	-0.035888154
57	0x3cd58163	0.026062673
58	0x3caed0d4	0.021339811
59	0xbd362ae8	-0.044474512
60	0xbd2eadba	-0.042646147
61	0x3cc2b378	0.023767218
62	0xbd90df72	-0.07073869
63	0x3d762214	0.060091093
64	0x3cf877de	0.030330595
65	0x3d0dcb10	0.034617484
66	0xbcb62f0c	-0.02223923
67	0x3b4abbb5	0.0030934636
68	0x3d3bb6d7	0.045828667
69	0xbd3aba7f	-0.045588013
70	0xbc97052c	-0.018435083
71	0x3d4b89a8	0.049691826
72	0xbd124158	-0.035706848
73	0x3c42d2fe	0.011891125
74	0xbd4aded7	-0.049528923
75	0x3cab6645	0.02092279
76	0xbccf433a	-0.02530061
77	0x3b916e73	0.0044382154
78	0xbc9a4150	-0.018829972
79	0x3cab0039	0.02087413
80	0xbcd95f02	-0.026534561
81	0xbcb566f2	-0.022143815
82	0x3d31b760	0.04338777
83	0xbccc4b27	-0.02493818
84	0xbce647c4	-0.028110392
85	0xbd955522	-0.072916284
86	0xbd63db60	-0.055629134
87	0xbd9620fc	-0.0733051
88	0x3cc1fa2d	0.023678863
89	0x3c887947	0.016659392
90	0xbcb533d2	-0.022119436
91	0x3ca56cb9	0.020193445
92	0x3d76ee65	0.060285944
93	0xbd3ef4b1	-0.046620075
94	0x3dacd102	0.084383026
95	0x3d4c5063	0.04988135
96	0x3b60e8f0	0.003431853
97	0x3d4bcd54	0.049756363
98	0xbbc43ce7	-0.0059887054
99	0xbd1972f9	-0.037463162
100	0xbd0fa011	-0.03506476
101	0xbc17abab	-0.009257237
102	0xbd97c282	-0.07410146
103	0x3d3e1bbe	0.046413176
104	0xbcf67e10	-0.030089408
105	0x3a6a5b76	0.00089400203
106	0xbd96a8f0	-0.07356441
107	0xbcb663f3	-0.022264456
108	0x3d3c9962	0.046044715
109	0x3d9e0460	0.07715678
110	0x3d77823c	0.060426936
111	0x3d3c8d28	0.046033055
112	0xbbc3f5c7	-0.0059802267
113	0x3d954524	0.07288578
114	0xbc259345	-0.010105913
115	0x3d1d44d4	0.038395718
116	0xbcef1267	-0.02918358
117	0x3c4a22ee	0.012337429
118	0x3c4e990b	0.0126097305
119	0xbd2f7bc5	-0.042842645
120	0x3d496e44	0.049177423
121	0x3da61027	0.081085496
122	0x3cc0c2ff	0.023530481
123	0xbc18afa7	-0.0093192225
124	0x3d2f0bf1	0.042735998
125	0x3d07e68d	0.033178855
126	0xbd682384	-0.056674495
127	0x3d91ef0d	0.071256734
128	0xbd6425f6	-0.055700265
129	0x3c863f22	0.016387526
130	0x3d804aa7	0.06264239
131	0xbb5b0a9e	-0.0033423076
132	0x3d9d9772	0.076949015
133	0x3d3e9ec1	0.04653812
134	0xbc332267	-0.010933495
135	0xbc46bb10	-0.01212956
136	0x3d193f05	0.037413616
137	0xbc4439fa	-0.011976713
138	0x3d5bbc3c	0.05364631
139	0xbc3eae4d	-0.011638236
140	0xbd8316bc	-0.064008206
141	0x3d0be2ad	0.03415172
142	0xbce15996	-0.027508538
143	0xbb922839	-0.0044603613
144	0x3cde75ff	0.027155874
145	0x3c64535a	0.013935888
146	0xbd10679e	-0.035255067
147	0xbc918efc	-0.017768376
148	0xbd47553f	-0.04866528
149	0x3d597231	0.053087417
150	0x3d269a85	0.040674705
151	0x3d568bcd	0.05237942
152	0xbbc01dee	-0.005862943
153	0x3c802199	0.01564102
154	0xbd7da098	-0.061920732
155	0xbd16038f	-0.036624487
156	0x3c0abc8f	0.008467807
157	0xbd5c93ce	-0.053851895
158	0xbd39ee9b	-0.045393568
159	0x3d082e84	0.033247486
160	0x3d00f3ce	0.03148251
161	0xbd14d6eb	-0.036337774
162	0xbc9a3567	-0.018824292
163	0x3d97c123	0.07409885
164	0xbb2f9ca9	-0.0026796258
165	0x3c87ca77	0.016576035
166	0xbc63406f	-0.013870343
167	0x3cbf4250	0.02334705
168	0x3c9d5e79	0.019210087
169	0x3c2c58d8	0.010519229
170	0x3d476daf	0.048688587
171	0x3d339439	0.043842528
172	0x3d0d1223	0.034441125
173	0xbd655fe4	-0.05599965
174	0xbd8fa03c	-0.07012984
175	0x3b9ead82	0.004842461
176	0x3c81d906	0.015850555
177	0xbda55f98	-0.08074874
178	0xbbc87edc	-0.0061186384
179	0x3cc527b7	0.02406679
180	0xbd511791	-0.051047865
181	0x3c19c019	0.009384179
182	0x3d4b03f4	0.049564317
183	0x3ae0aa63	0.0017140623
184	0x3cf15537	0.029459579
185	0xbbc285b4	-0.005936349
186	0xbc23ff3d	-0.010009584
187	0x3d650cb0	0.055920303
188	0xbc619bf0	-0.013770089
189	0xbd397b4e	-0.04528361
190	0xbd93d02c	-0.0721744
191	0xbd9c0f76	-0.076201364
192	0xbd92e855	-0.0717322
193	0x3d83ffc5	0.064452685
194	0x3c2cc99a	0.010546112
195	0xbd3af9f6	-0.045648538
196	0x3d0006b7	0.031256404
197	0xbd645a11	-0.055749957
198	0x3ccc05ba	0.024905074
199	0xbd3e3fc5	-0.046447534
200	0xbd7b3220	-0.0613271
201	0x3cb6f414	0.022333182
202	0xbd1abde0	-0.037778735
203	0xbd86d5e3	-0.065837644
204	0x3ce2aa63	0.027669137
205	0x3cf28ca3	0.029608076
206	0x3c56561e	0.013082055
207	0x3db7d791	0.08976663
208	0xbcbcdf5b	-0.023055723
209	0xbda55108	-0.08072096
210	0xbaa20a05	-0.0012362605
211	0x3cdfb606	0.027308475
212	0x3da3ce0f	0.07998287
213	0xbd0bac21	-0.0340997
214	0xbd257b22	-0.04040063
215	0xbd1adfb9	-0.037811015
216	0x3da84be5	0.08217601
217	0xbd7a3f36	-0.06109544
218	0x3db0c9be	0.08632229
219	0xbd06500f	-0.032791194
220	0x3da2f382	0.07956602
221	0xbd94bcc4	-0.07262567
222	0xbcf268c9	-0.029590981
223	0xbd3dc8d9	-0.04633412
224	0xbcc21599	-0.02369194
225	0x3cb60035	0.022216896
226	0xbd98132f	-0.07425534
227	0xbd16bd49	-0.03680161
228	0xbd74be2b	-0.05975167
229	0xbd1c5f91	-0.038177077
230	0x3c831456	0.016000908
231	0x3d4125a5	0.04715504
232	0xbd36e755	-0.04465421
233	0xbba757c0	-0.005106896
234	0xbd260e3c	-0.04054092
235	0xbd415fc8	-0.047210485
236	0x3c08a427	0.008339918
237	0x3b704007	0.0036659257
238	0x3c117ace	0.008879377
239	0xbc431d27	-0.011908806
240	0xbdb5b638	-0.08872646
241	0x3d13baa3	0.036066663
242	0xbcd08693	-0.025454795
243	0xbd537b91	-0.051631514
244	0x3d10c0a3	0.035339963
245	0x3d23e784	0.040015712
246	0x3ae68101	0.0017586054
247	0xbd0a2d04	-0.033734336
248	0xbd336875	-0.04380079
249	0xbbc98308	-0.0061496533
250	0x3d41c17b	0.047303658
251	0x3d3e8ae0	0.04651916
252	0xbd4f5658	-0.050619453
253	0xbd5d5c91	-0.054043356
254	0x3dbaa424	0.091133386
255	0xbd328e61	-0.043592814

linear1.bias f4 [256]
0	0xbdc267c7	-0.0949245
1	0xbcbb324f	-0.022851137
2	0xbcbb34ba	-0.02285229
3	0xbd47b436	-0.048755847
4	0xbd99e14d	-0.07513676
5	0xbdbfb2b0	-0.09360254
6	0xbd11f10f	-0.035630282
7	0xbd945ac5	-0.072438754
8	0xbcce289b	-0.025165847
9	0xbd22a920	-0.03971207
10	0xbd8bbc97	-0.0682308
11	0xbd81a12c	-0.06329569
12	0xbd843f3f	-0.06457376
13	0xbd93dbd7	-0.072196655
14	0xbd8bd4a5	-0.06827668
15	0xbd8fd6b5	-0.07023374
16	0xbd74d58a	-0.05977396
17	0xbdf06701	-0.117383964
18	0xbd2c9b2c	-0.04214017
19	0xbc3a052e	-0.011353774
20	0xbd74c527	-0.05975833
21	0xbaa76f39	-0.0012774236
22	0xbd6b4c3c	-0.05744575
23	0xbcbfd3af	-0.023416368
24	0xbd560cc2	-0.05225826
25	0xbd500f0b	-0.050795596
26	0xbcaba4e4	-0.02095265
27	0xbd617d20	-0.05505097
28	0xbd94b940	-0.07261896
29	0xbd62eb9c	-0.055400476
30	0xbc92e1ee	-0.017929997
31	0xbd7ce016	-0.061737143
32	0xbd85bf80	-0.06530666
33	0xbd2c89b5	-0.042123515
34	0xbd0e36cd	-0.03472023
35	0xbcf0b027	-0.029380871
36	0xbd0b7502	-0.034047134
37	0xbdb8e15a	-0.090273574
38	0xbd06b330	-0.03288573
39	0xbd8277ca	-0.06370504
40	0xbd9778a8	-0.0739606
41	0xbd13d0ce	-0.036087804
42	0xbd8cc851	-0.06874145
43	0xbd805612	-0.062664166
44	0xbd2e0d6f	-0.04249328
45	0xbd8a15e4	-0.067424566
46	0xbe00955b	-0.12556975
47	0xbd03ed4a	-0.03220872
48	0xbd0b29ad	-0.033975292
49	0xbd05be7c	-0.032652363
50	0xbd3c9035	-0.046035964
51	0xbd625f8e	-0.05526691
52	0xbce388d0	-0.027775198
53	0xbcbb83cf	-0.02289
54	0xbd176b22	-0.036967404
55	0xbd9c81ca	-0.07641943
56	0xbd0b4a05	-0.034006137
57	0xbdc5a161	-0.09649921
58	0xbd286ff1	-0.04112238
59	0xbd805123	-0.062654756
60	0xbd1eda09	-0.038782153
61	0xbd629cc7	-0.055325296
62	0xbe2a2b3a	-0.16618052
63	0xbd2032b3	-0.03911085
64	0xbdb7ce85	-0.08974937
65	0xbd503a3a	-0.05083678
66	0xbd5a8471	-0.053348962
67	0xbd2da565	-0.04239406
68	0xbcdfc57c	-0.027315848
69	0xbd52bb53	-0.051448178
70	0xbc9874c4	-0.018610366
71	0xbcd374f7	-0.02581261
72	0xbe0efdcb	-0.13964002
73	0xbbad6a00	-0.005292177
74	0xbd4a6e31	-0.049421493
75	0xbd5150c5	-0.05110242
76	0xbd192b4f	-0.037394818
77	0xbd2bb259	-0.041918132
78	0xbd6802fb	-0.056643467
79	0xbd789a62	-0.060694106
80	0xbd8891a2	-0.06668402
81	0xbc87223c	-0.016495816
82	0xbc60c873	-0.013719666
83	0xbd8e4e7a	-0.06948562
84	0xbd46ec82	-0.048565395
85	0xbd90d45f	-0.070717566
86	0xbd06d18d	-0.032914687
87	0xbd098290	-0.03357178
88	0xbd82ef26	-0.0639327
89	0xbd80369d	-0.06260417
90	0xbd28251c	-0.041051015
91	0xbd46401b	-0.04840098
92	0xbd651e4b	-0.055937093
93	0xbe0d3c49	-0.13792528
94	0xbdd3e2fa	-0.10346027
95	0xbdbd3685	-0.092389144
96	0xbc9e2f54	-0.019309677
97	0xbdb96d78	-0.09054083
98	0xbcf585c9	-0.02997102
99	0xbe27e33f	-0.16395281
100	0xbd17b417	-0.03703698
101	0xbde9dad0	-0.11418688
102	0xbd24c2ff	-0.040225025
103	0xbdb94810	-0.09046948
104	0xbd6e0943	-0.0581143
105	0xbd4b4041	-0.049621824
106	0xbd7d3e64	-0.06182708
107	0x3c0f6d19	0.008754038
108	0xbd50fc44	-0.05102183
109	0xbd0a05e0	-0.03369701
110	0xbc594b07	-0.013262517
111	0xbd96c668	-0.07362062
112	0xbc3a29fb	-0.011362548
113	0xbd9bb049	-0.07601983
114	0xbd963c4a	-0.07335718
115	0xbd916ddd	-0.07101033
116	0xbd1684f0	-0.036747873
117	0xbd621304	-0.055193916
118	0xbd792300	-0.060824394
119	0xbd9781fa	-0.07397838
120	0xbca71845	-0.020397315
121	0xbd500102	-0.05078221
122	0xbdb895c0	-0.090129375
123	0xbda36a87	-0.07979303
124	0xbc290e9e	-0.010318426
125	0xbdb1603d	-0.08660934
126	0xbdfa946e	-0.12235342
127	0xbe060061	-0.13086082
128	0xbd3de2f2	-0.04635901
129	0xbd896fdf	-0.06710791
130	0xbe046827	-0.12930356
131	0xbd6d4775	-0.057929475
132	0xbc367c9b	-0.011138107
133	0xbd5503c0	-0.05200553
134	0xbd93d3f9	-0.07218165
135	0xbd3780f4	-0.044800714
136	0xbd8b8b7a	-0.068137124
137	0xbdd53499	-0.10410423
138	0xbd061ccd	-0.03274231
139	0xbd61b5bb	-0.055104952
140	0xbd9f2d05	-0.07772259
141	0xbd7f7d23	-0.0623752
142	0xbd91efa4	-0.07125786
143	0xbd8a8ed0	-0.067655206
144	0xbd34fe50	-0.044187844
145	0xbd75c00b	-0.0599976
146	0xbd6546c5	-0.055975694
147	0xbd8bee49	-0.06832559
148	0xbd9e3edd	-0.07726834
149	0xbd840914	-0.06447044
150	0xbd994469	-0.07483751
151	0xbc87bd0e	-0.01656964
152	0xbd883a14	-0.066517025
153	0xbd7f6fe8	-0.06236258
154	0xbd9ff277	-0.078099184
155	0xbd7f6a86	-0.062357448
156	0xbd8bf3e9	-0.068336315
157	0xbcba5e00	-0.0227499
158	0xbd904fe8	-0.07046491
159	0xbd1e07d4	-0.038581684
160	0xbc54bdac	-0.012984674
161	0xbcd62ef8	-0.026145443
162	0xbd861696	-0.06547277
163	0xbd0bb0dc	-0.034104213
164	0xbc8fa2c1	-0.017533662
165	0xbd0211df	-0.031755324
166	0xbd3229ee	-0.04349702
167	0xbd897457	-0.06711643
168	0xbd92ae07	-0.07162099
169	0xbd798dfe	-0.06092643
170	0xbd1535a9	-0.036428127
171	0xbda2f443	-0.079567455
172	0xbd7d85cb	-0.061895173
173	0xbd6651ee	-0.056230478
174	0xbc8f45bf	-0.017489312
175	0xbde2804a	-0.110596254
176	0xbdafd9a6	-0.08586435
177	0xbda868ca	-0.08223112
178	0xbd8a3132	-0.067476645
179	0xbd60bfab	-0.05487029
180	0xbc9c9e16	-0.01911835
181	0xbcc83fcf	-0.024444489
182	0xbcdeeb63	-0.02721185
183	0xbd4fae51	-0.05070335
184	0xbcaaca25	-0.020848343
185	0xbca1c07d	-0.019745106
186	0xbd5ea741	-0.054358725
187	0xbc9a9619	-0.0188704
188	0xbd11c50f	-0.03558832
189	0xbd0855d6	-0.033284985
190	0xbd3a4f57	-0.04548582
191	0xbcfdfccd	-0.031004334
192	0xbd09089e	-0.033455484
193	0xbcbb7e9d	-0.022887522
194	0xbd88bb39	-0.06676335
195	0xbd8aa9cd	-0.06770668
196	0xbd94e959	-0.0727107
197	0xbd498466	-0.04919853
198	0xbc5385b5	-0.012910296
199	0xbd263fb4	-0.040588096
200	0x3b98877f	0.0046548243
201	0xbd82634b	-0.06366595
202	0xbd4a41cf	-0.049379166
203	0xbd27e8bc	-0.040993437
204	0xbd0ba03e	-0.034088366
205	0xbd3a6611	-0.045507494
206	0xbd26817b	-0.040650826
207	0xbdc0aaf1	-0.094076045
208	0xbd1bb652	-0.03801567
209	0xbd5827c0	-0.052772284
210	0xbd4615ce	-0.04836064
211	0xbd5784aa	-0.052616753
212	0xbd8a74cf	-0.06760561
213	0xbd8bfdec	-0.06835541
214	0xbc9c3b66	-0.019071292
215	0xbd4177d4	-0.047233418
216	0xbc733360	-0.014843792
217	0xbd861c4f	-0.06548368
218	0xbd8360fc	-0.06414983
219	0xbd2550fd	-0.04036044
220	0xbbe457a8	-0.0069684573
221	0xbd4cb5dc	-0.049978122
222	0xbd30a0c4	-0.043122068
223	0xbd2ad7a7	-0.04170957
224	0xbd7f94bc	-0.062397704
225	0xbca0c649	-0.0196258
226	0xbd85a381	-0.065253265
227	0xbd89e6b7	-0.067334585
228	0xbd2f9967	-0.042870905
229	0xbd35aedf	-0.044356223
230	0xbd55b773	-0.052176904
231	0xbd8745ad	-0.066050865
232	0xbb258ab0	-0.0025259666
233	0xbcc67c08	-0.024229065
234	0xbd5a6ac9	-0.053324495
235	0xbcb59721	-0.02216679
236	0xbca3f1f4	-0.020012833
237	0xbd182639	-0.037145827
238	0xbaa7538a	-0.0012765985
239	0xbd355722	-0.04427255
240	0xbca3b55c	-0.01998394
241	0xbd5cfb23	-0.05395044
242	0xbce2e35f	-0.02769631
243	0xbe122437	-0.14271627
244	0xbd45a161	-0.048249606
245	0xbd92ec8d	-0.07174025
246	0xbd87dc0e	-0.06633769
247	0xbd620d9d	-0.055188764
248	0xbd1db43e	-0.03850197
249	0xbd4c2e17	-0.049848642
250	0xbcc4aea5	-0.024009058
251	0xbd4a4243	-0.0493796
252	0xbd57a615	-0.052648623
253	0xbd19f261	-0.037584666
254	0xbd666fdc	-0.05625902
255	0xbcdd7876	-0.02703498

linear2.weight f4 [80, 256]
0	0xbd723e10	-0.05914122
1	0xbd322062	-0.043487914
2	0xbd3fa39e	-0.046786897
3	0xbd42132d	-0.04738157
4	0xbc52fbd4	-0.012877423
5	0x3ccf63bc	0.025316112
6	0x3bbc70c7	0.005750749
7	0x3d12eef9	0.035872433
8	0x3d03b428	0.032154232
9	0xbca3e144	-0.020004876
10	0xbd98a8b0	-0.074540496
11	0xbbf6b2ec	-0.0075286534
12	0x3d0049e9	0.031320486
13	0xbda176f4	-0.07884017
14	0x3c88266d	0.016619885
15	0xbbd7df5a	-0.006587905
16	0xbd104818	-0.035225004
17	0xbe64458b	-0.22292154
18	0x3c0de2bb	0.008660014
19	0xbd938a3b	-0.072041
20	0xbccc1d95	-0.02491645
21	0x3d2b2ef6	0.041792832
22	0xbd05b755	-0.032645542
23	0xbb2e9be3	-0.0026643209
24	0x3c64d7e1	0.013967485
25	0xbc9730a2	-0.018455807
26	0xbb918fc1	-0.0044421856
27	0x3c923a32	0.017850015
28	0x3b9b66c7	0.0047424766
29	0x3c607704	0.013700251
30	0x3c844362	0.016145412
31	0x3c6f8f80	0.014621615
32	0x3d0335d3	0.032033753
33	0x3cd276e1	0.025691452
34	0xbd8717a8	-0.06596309
35	0x3c714eda	0.014728272
36	0x3d41ac91	0.047283713
37	0xbdc9acb6	-0.09847395
38	0xbc98cd08	-0.018652454
39	0x3c101935	0.008795072
40	0xbc080cae	-0.008303804
41	0xbd13bd8c	-0.036069438
42	0xbd0a7d31	-0.033810798
43	0xbbfd4281	-0.007728875
44	0xbac70889	-0.0015185039
45	0xbd74c7f8	-0.059761018
46	0x3d3634b5	0.04448386
47	0xbd7f0a47	-0.06226566
48	0xbcec2392	-0.028825555
49	0xbc18e5d4	-0.009332139
50	0xbc8dd1dc	-0.017311983
51	0x3ce7a48d	0.028276706
52	0x3bae6a02	0.0053226957
53	0x3ace17fc	0.0015723701
54	0x3af23418	0.001847866
55	0x3d0ca1be	0.034333937
56	0x3b2eb2ea	0.0026656934
57	0xbd16949b	-0.036762815
58	0x3c9ffdb6	0.019530158
59	0x3cbff7e0	0.023433626
60	0xbb827822	-0.003981606
61	0x3ca89f71	0.02058384
62	0xbcbb5233	-0.022866344
63	0x3b395260	0.002827786
64	0xbd0fdf44	-0.035125032
65	0xbc376f3e	-0.011195956
66	0xba87c28e	-0.0010357664
67	0x3c71cda0	0.0147584975
68	0x3cce6204	0.025193222
69	0xbd09a617	-0.03360566
70	0x3b916bea	0.004437913
71	0xbd73bb6e	-0.05950492
72	0xbd061ac9	-0.032740388
73	0x3c06d5e2	0.008229705
74	0xbd395d03	-0.04525472
75	0xbcdc9cdc	-0.026930265
76	0x3bf2a1e3	0.0074045523
77	0xbbabd921	-0.0052443896
78	0xbca72632	-0.020403955
79	0x3c8bfcf6	0.017088395
80	0xbbd57a4b	-0.0065148226
81	0x3d553997	0.052056875
82	0x3c32a447	0.010903425
83	0x3d14f051	0.036361996
84	0x3d1b0450	0.03784591
85	0x3cea77c9	0.028621571
86	0xbce0fe06	-0.027464878
87	0x3c5b575a	0.013387525
88	0xbd5f5531	-0.054524604
89	0x3d8905f0	0.066905856
90	0x3d85ce3c	0.06533477
91	0x3d52e10f	0.051484164
92	0xbda8c77c	-0.082411736
93	0xbcda202e	-0.026626673
94	0x3c891a9d	0.016736323
95	0xbc3861d3	-0.011253792
96	0x3b5ffd39	0.0034178032
97	0xbd9bed2e	-0.07613598
98	0x3d2b3b34	0.041804507
99	0xba7d1bc8	-0.0009655324
100	0xbc4c4a09	-0.012468823
101	0x3cfa50a4	0.03055603
102	0x3d4218dc	0.04738699
103	0x3c7fa12c	0.015602391
104	0x3d4c0399	0.04980812
105	0xbc80d096	-0.015724462
106	0x3c588aa6	0.01321665
107	0x3d837bc1	0.064200886
108	0xbd737871	-0.059441034
109	0x3db7c266	0.089726254
110	0x3d26df42	0.04074026
111	0xbe1a44a6	-0.1506525
112	0x3d9fbf9c	0.078002185
113	0x3d0188c3	0.031624567
114	0x3b7c1d55	0.0038469632
115	0xbc4774be	-0.01217383
116	0xbd7f735a	-0.062365867
117	0x3cc57edd	0.024108345
118	0xbd9553ed	-0.07291398
119	0xbdb22234	-0.0869793
120	0x3da6a264	0.08136442
121	0x3d522bb0	0.051311195
122	0x3cc56cc0	0.024099708
123	0x3b311162	0.0027018418
124	0x3c73b098	0.014873646
125	0xbd8b56b9	-0.068036504
126	0x3d80bc40	0.06285906
127	0xbdde0ac8	-0.108419
128	0x3c6241e2	0.013809653
129	0xbd45818a	-0.04821924
130	0x3c85f8e7	0.016354037
131	0xbc71398e	-0.014723195
132	0x3d71ac95	0.059002478
133	0xbd6602a5	-0.056154866
134	0x3e2b812d	0.16748495
135	0xbb7750e7	-0.003773743
136	0x3bdc5654	0.0067241583
137	0xbe13bd9d	-0.144278
138	0x3d47909b	0.04872189
139	0x3d343e58	0.044004768
140	0x3d169442	0.036762483
141	0x3d3a16ca	0.04543189
142	0xbd660f27	-0.056166794
143	0x3ceb19f9	0.028698908
144	0xbc98d415	-0.018655816
145	0xbc941541	-0.01807654
146	0x3ce405d4	0.02783481
147	0x3bba8946	0.005692634
148	0x3cbd1765	0.023082444
149	0xbd9a6b8c	-0.07540044
150	0xbd93c7af	-0.07215821
151	0xbda62857	-0.08113163
152	0x3d4c7bd4	0.04992278
153	0x3d1a8cea	0.037732042
154	0x3cd6953d	0.02619421
155	0xbd54177f	-0.05178022
156	0xbd95a838	-0.07307476
157	0x3c36795b	0.011137332
158	0x3d95e149	0.0731836
159	0xbbd7cd63	-0.0065857633
160	0xbb8f915b	-0.0043813414
161	0x3d3cf19e	0.04612886
162	0xbd89e890	-0.06733811
163	0x3b47b44d	0.0030472458
164	0x3d7cc51f	0.061711427
165	0xbd87cd0f	-0.06630909
166	0xbd66e998	-0.056375116
167	0xbda3bbd1	-0.079948075
168	0xbc57bafe	-0.013167141
169	0xbb1c5960	-0.0023856983
170	0xbd46159b	-0.04836045
171	0x3d8dc5ff	0.069225304
172	0x39389b1a	0.00017605387
173	0x3caff120	0.021477282
174	0x3d8b26a5	0.0679448
175	0x3e22f892	0.15915135
176	0xbc5f40e6	-0.013626313
177	0xbc855a06	-0.016278278
178	0xbbc0e838	-0.0058870576
179	0x3d7dd9ea	0.061975397
180	0x3cf538c7	0.0299343
181	0x3c6900f9	0.014221423
182	0xbcead8f2	-0.0286679
183	0x3d8b630c	0.06806001
184	0x3d40913e	0.047013514
185	0xbcbbc3ff	-0.022920607
186	0x3b7bd1f3	0.00384247
187	0xbd05c7e7	-0.032661345
188	0x3d909edc	0.0706155
189	0x3d50ef55	0.051009495
190	0x3c341834	0.010992099
191	0x3d29290b	0.041298907
192	0x3c777e78	0.015105836
193	0x3d50903f	0.050918814
194	0xbd5f93ee	-0.054584436
195	0xbd9759ef	-0.073902
196	0xbcf80bf5	-0.030279139
197	0xbc445466	-0.011983013
198	0x3cc6d176	0.0242698
199	0x3c99cd2c	0.018774591
200	0xbd4f847a	-0.05066345
201	0x3d4e2821	0.05033124
202	0xbcb9c34c	-0.022676133
203	0xbca72306	-0.020402443
204	0xbd18d4d6	-0.03731235
205	0xbd58e171	-0.052949373
206	0xbca3100a	-0.019905109
207	0x3cf3a2e9	0.029740768
208	0xbd110ab6	-0.035410605
209	0xbc3a668b	-0.011376987
210	0x3d2ed391	0.042682234
211	0xbd3d1c60	-0.04616964
212	0xbcc8f6de	-0.024531778
213	0x3be8d0ab	0.0071049533
214	0xbd38110d	-0.044938136
215	0xbd3b8c47	-0.045788076
216	0x3d808a12	0.06276335
217	0x3c538127	0.01290921
218	0xbb895ec9	-0.0041922075
219	0x3c06a5fb	0.008218284
220	0xbc4182a5	-0.011810933
221	0xbca24db3	-0.01981244
222	0x3bb3ba68	0.005484868
223	0xbd9afc54	-0.07567659
224	0xbe157110	-0.14593911
225	0xbd2f38c6	-0.042778753
226	0x3aac7774	0.0013158158
227	0x3c7be4fd	0.015374419
228	0x3d4b76bf	0.049673792
229	0x3d075477	0.033039536
230	0x3c5988e3	0.013277265
231	0x3cf12a32	0.029439066
232	0x3d914327	0.070928864
233	0xbc92ea7d	-0.017934078
234	0x3ce755c7	0.028239144
235	0xbc964d4a	-0.018347401
236	0xbd821d8a	-0.063532904
237	0x3d4b5edd	0.049651016
238	0xbba4abc1	-0.0050253575
239	0x3d537c67	0.05163231
240	0xbd1d6385	-0.038424987
241	0x3c8903e6	0.016725492
242	0xbcded14a	-0.027199406
243	0xbd1afebe	-0.037840597
244	0x3d4f17c5	0.050559778
245	0xbd409584	-0.04701759
246	0x3ce0c236	0.027436357
247	0x3d513213	0.051073145
248	0x3d997294	0.07492557
249	0xbcfe76cb	-0.031062504
250	0x3d36a4a4	0.044590607
251	0xbc4d71d5	-0.012539347
252	0x3d6146ad	0.054999042
253	0x3bbb662a	0.005718966
254	0x3cad3ef6	0.021148186
255	0x3d827a2d	0.063709594

linear2.bias f4 [80]
0	0x3d91a16c	0.07110867
1	0x3e0920ac	0.1339137
2	0xbcc9ad26	-0.024618696
3	0x3b05390b	0.002032819
4	0x3cf34c80	0.029699564
5	0x3d820dd0	0.06350291
6	0x3bb5f487	0.0055528316
7	0xbd332319	-0.043734644
8	0x3ca0f66d	0.019648755
9	0x3c1aa1b4	0.009437967
10	0xbd90fc41	-0.070793636
11	0x3d148c2f	0.036266502
12	0x3cf912dd	0.030404503
13	0xbc058c06	-0.00815106
14	0x3c93e099	0.018051432
15	0x3c7fdcd2	0.0156166125
16	0xbd1331ec	-0.03593628
17	0xbb2876af	-0.0025705507
18	0xbc7e7c50	-0.015532568
19	0xbad42821	-0.0016186276
20	0xbd9aad61	-0.07552601
21	0xbcb9feb6	-0.022704463
22	0x3d61940c	0.05507283
23	0xbce407c2	-0.02783573
24	0xbdda6ab2	-0.10664882
25	0x3e0d8173	0.13818912
26	0xbd20db58	-0.039271683
27	0x39854d7b	0.00025425464
28	0x3be8fe7e	0.007110416
29	0xba8e7951	-0.0010869895
30	0x3d33d06c	0.04389994
31	0x3c4a444f	0.012345388
32	0xbacc4001	-0.001558304
33	0x3d6044bb	0.054753046
34	0xbdbc9bff	-0.092094414
35	0x3d0e5e84	0.034758106
36	0xbc16a90d	-0.009195578
37	0x3d33f820	0.043937802
38	0xbdc4eab2	-0.09615077
39	0xbbef7db8	-0.007308688
40	0xbd324bcd	-0.04352932
41	0xbd74297a	-0.059609868
42	0xbb7c127f	-0.0038463173
43	0xbdce5b27	-0.1007598
44	0xbdcad336	-0.099035665
45	0x3cd94165	0.02652044
46	0x3ca138df	0.019680439
47	0xbca2ee27	-0.01988895
48	0x3d02a9b4	0.031900123
49	0xbcf93d3a	-0.030424703
50	0xbc7dcac4	-0.015490238
51	0x3b86c299	0.0041125533
52	0x3c517ebc	0.0127865635
53	0x3d9d47d1	0.076797135
54	0x3d37c502	0.044865616
55	0xbd367276	-0.044542752
56	0xbcde0001	-0.027099611
57	0x3c8c93ad	0.017160261
58	0x3b394c2b	0.002827416
59	0xbd615cf8	-0.055020303
60	0x3d23dfeb	0.040008467
61	0xbca9d905	-0.020733366
62	0x3a9f97d7	0.0012175989
63	0xbb38a223	-0.0028172813
64	0x37a26e6e	1.9363328e-05
65	0xbaca1a04	-0.001541913
66	0xbcda583a	-0.026653398
67	0x3d036c36	0.03208562
68	0x3d276530	0.040867984
69	0x3d578889	0.052620444
70	0xbcc69f57	-0.024245901
71	0x3d4b3944	0.04961516
72	0xbc701ff1	-0.014656053
73	0xbd65bfd7	-0.056091156
74	0x3d56cdfa	0.05244253
75	0x3da76484	0.08173469
76	0xbd4df872	-0.050285764
77	0x3d78ffbf	0.060790773
78	0x3cff48d7	0.031162662
79	0xbb9aa965	-0.0047199004

weight f4 [1, 768]
0	0x3b30dd6f	0.0026987453
1	0xbd0a2012	-0.03372199
2	0x3cd8f9e1	0.026486339
3	0xbca2dd77	-0.019880993
4	0x3a43eb03	0.0007473679
5	0xbc0bd812	-0.008535402
6	0x3afb8126	0.001918827
7	0x3c22d8d5	0.009939392
8	0xbcc29894	-0.023754396
9	0xbcde547a	-0.027139891
10	0x3bf8ce9f	0.0075929905
11	0x3c39ea4a	0.011347363
12	0xbc3a1e96	-0.011359831
13	0x3bc06e08	0.0058724917
14	0xbc23bd20	-0.009993821
15	0x3be98a06	0.0071270494
16	0xbc1f369a	-0.009717608
17	0x3c66bd86	0.014083272
18	0x3b829bde	0.003985866
19	0x3c11dc9c	0.008902695
20	0x3b54473f	0.0032391099
21	0x3c227fd2	0.00991817
22	0xbcbbed0b	-0.02294018
23	0xbccccfab	-0.025001368
24	0xba24f569	-0.00062926725
25	0xbc16c45c	-0.009202089
26	0xbbb690c3	-0.005571456
27	0x3cbc2b91	0.022969993
28	0xbc40d525	-0.011769568
29	0xbc2628b8	-0.010141544
30	0x3a1bfe7e	0.0005950703
31	0x3cc4daa9	0.024030047
32	0x3b8f3f7a	0.0043715807
33	0x3c25cd1f	0.010119705
34	0x3c92cfe2	0.017921392
35	0xbc967e75	-0.018370846
36	0x3bb1ed1b	0.0054298765
37	0xbbbd389f	-0.005774572
38	0xbc81a699	-0.01582651
39	0x3ca9c975	0.020725945
40	0xbc444afc	-0.011980768
41	0x3bc38e1d	0.005967869
42	0xbc9c87f9	-0.019107806
43	0xbbd6c9e1	-0.0065548276
44	0xbc47869e	-0.012178091
45	0xbce2a8e4	-0.027668424
46	0x3bbcd129	0.0057622385
47	0xbcb4eff2	-0.022087071
48	0x3cca8443	0.02472127
49	0x3cc3f1ca	0.023919005
50	0xb9515fc5	-0.0001996747
51	0x3cde119e	0.02710801
52	0x3c754f72	0.0149725545
53	0xbc84b661	-0.016200246
54	0x3ce8b7fb	0.028408041
55	0x3cb6c31e	0.022309836
56	0x3c868f50	0.016425759
57	0xbc1de190	-0.009636298
58	0x3c9c006d	0.019043172
59	0xbcd5e016	-0.026107829
60	0xb6f5f536	-7.3301153e-06
61	0x3cedce00	0.029028893
62	0x3d46b639	0.048513625
63	0xbc780d24	-0.015139852
64	0x399ae634	0.00029544684
65	0xbd0e79b6	-0.03478404
66	0xbc0120aa	-0.007881323
67	0xbc128389	-0.008942493
68	0x3c51f936	0.012815764
69	0xbc8f5aa6	-0.01749928
70	0xbc4bdbe9	-0.012442567
71	0x3c604922	0.013689311
72	0x3c9a40b4	0.018829681
73	0x3cedf41d	0.029047066
74	0xbc1bca3d	-0.009508667
75	0xbce569f3	-0.028004622
76	0x3c284587	0.010270483
77	0xbcd5ff4f	-0.026122717
78	0xbbd4919a	-0.0064870836
79	0xbc876002	-0.016525272
80	0xbbda1296	-0.0066550476
81	0x3a8cb613	0.0010735415
82	0x3ca60c91	0.020269664
83	0x3bda36a8	0.0066593476
84	0xbc79f8ca	-0.01525707
85	0xbbb0076b	-0.005371978
86	0xbadee900	-0.0017006695
87	0x3c9ed16b	0.019386968
88	0xbb8b08c2	-0.0042429874
89	0x3cacbdee	0.02108666
90	0x3c5d15a7	0.013493932
91	0x3b75c356	0.0037500462
92	0x383e7469	4.5407945e-05
93	0xba2359a7	-0.0006231316
94	0x3c0efb5f	0.008726924
95	0xb9995e0e	-0.0002925251
96	0x3bf35025	0.0074253255
97	0xbcec595d	-0.028851205
98	0x3cb140c1	0.021637322
99	0x3c40826e	0.011749847
100	0xbc43e1a1	-0.01195565
101	0xbcb22fd5	-0.021751324
102	0xbb21f79c	-0.0024714237
103	0x3c75dc92	0.015006201
104	0xbc31d997	-0.0108551
105	0x3cba92b6	0.022775035
106	0x3ac1f53a	0.0014797815
107	0xbc38e999	-0.011286163
108	0x3b90ae4f	0.0044153105
109	0x3ceab635	0.028651336
110	0x3ccf19b4	0.02528081
111	0x3c829dd9	0.015944408
112	0x3a102973	0.00054993405
113	0x3c6e83d4	0.014557797
114	0x3be027ff	0.0068407054
115	0x3b8e1522	0.0043360153
116	0xbc976884	-0.018482454
117	0xbbcebd16	-0.006309162
118	0xbc611774	-0.013738502
119	0xbc17452a	-0.009232799
120	0x3b2dbf28	0.0026511643
121	0xbca9b8ab	-0.02071794
122	0xbcde06e3	-0.027102893
123	0xbcb88bf9	-0.022527682
124	0xbc2a5a01	-0.010397435
125	0x3b4e0925	0.0031438556
126	0xbc85d6d3	-0.016337788
127	0x3b3e320e	0.0029021534
128	0xbcb531fd	-0.022118563
129	0x3b851c25	0.004062193
130	0x3c8513a6	0.01624472
131	0xbaedc924	-0.001814161
132	0xbc9fc7db	-0.019504478
133	0x3b231cd2	0.0024889004
134	0xbc6067bb	-0.013696606
135	0x3cdb733c	0.026788346
136	0x3b871286	0.004122081
137	0x3c14e245	0.00908715
138	0x3c1df713	0.009641427
139	0xbcaed396	-0.021341126
140	0x3c743a75	0.014906515
141	0xbd00f2ba	-0.031481482
142	0xbc922c21	-0.017843308
143	0xbcadbb15	-0.021207372
144	0xbc08e6e4	-0.00835583
145	0x3c7a006f	0.015258892
146	0x3cb5da5f	0.022198854
147	0xbca466a2	-0.02006847
148	0xbcbdb130	-0.023155779
149	0x3b22e728	0.0024857018
150	0xbbf3cb5b	-0.0074400133
151	0xbcd5ef26	-0.026115011
152	0xbc5174aa	-0.012784163
153	0xbc313f88	-0.01081837
154	0x3cf713ef	0.030160872
155	0x3bb120b2	0.005405509
156	0xbc3f2372	-0.011666166
157	0x3c3af998	0.011412047
158	0xbc6f9be2	-0.014624568
159	0x3cd8d3d9	0.026468204
160	0xbc0e3005	-0.008678441
161	0x3c8e537b	0.017373791
162	0x3c54a70a	0.012979278
163	0xbc8bb430	-0.017053694
164	0x3cf5b608	0.029994026
165	0xbcaa4848	-0.02078642
166	0x3b490ebb	0.0030678946
167	0xbcce674e	-0.025195744
168	0x3c796ab9	0.015223199
169	0x3aa57ae4	0.0012625125
170	0x3cced3f3	0.02524755
171	0x39a891eb	0.00032152174
172	0x3c819039	0.015815841
173	0x3c224a29	0.0099053765
174	0x3ca77749	0.020442622
175	0x3c484d0b	0.0122254
176	0xbc84efad	-0.016227568
177	0x3ca3f5da	0.020014692
178	0x3c238e8e	0.009982718
179	0xbca565fd	-0.020190233
180	0x3ba34ccf	0.0049835215
181	0x3c91c919	0.017796086
182	0x3ca0cb81	0.019628288
183	0x3cb3beac	0.021941505
184	0xbce694ed	-0.028147185
185	0xbc003c9a	-0.007826949
186	0x3c5daa43	0.013529363
187	0xbc9f5066	-0.019447517
188	0xbc3f2b11	-0.011667983
189	0x3c4b8831	0.012422607
190	0x3cb53cf3	0.02212379
191	0x3d09942f	0.033588585
192	0x3c89b826	0.016811442
193	0xbb4d2114	-0.0031300234
194	0x3c0d815a	0.008636797
195	0xbc2feb50	-0.010737255
196	0xbb0de239	-0.0021649732
197	0xba2247ac	-0.00061904895
198	0xbcda42e3	-0.026643222
199	0x3c96d24e	0.018410828
200	0x3c0d0f14	0.008609552
201	0xbad4c50c	-0.0016233041
202	0xbc25a979	-0.010111206
203	0xbcbf8d08	-0.023382679
204	0x3be222e3	0.0069011315
205	0x3cb33905	0.021877775
206	0xb889bafc	-6.5674976e-05
207	0x3bb0c59d	0.005394651
208	0x3cb614bf	0.02222669
209	0xbc193cf0	-0.009352908
210	0xbc945644	-0.01810754
211	0x3c7cabf2	0.015421854
212	0x3c7b8ab9	0.015352898
213	0x3c5a9b22	0.013342651
214	0xbbee8aaf	-0.007279716
215	0x3ca97f7d	0.020690674
216	0xbc5f97d7	-0.013647041
217	0xbc098a04	-0.008394722
218	0x3a9510fd	0.0011372861
219	0xbc647820	-0.013944656
220	0x3bb5fe6d	0.0055540116
221	0x3cb57f51	0.022155436
222	0xbc88690d	-0.016651655
223	0x3c9efea9	0.01940854
224	0x3c9da564	0.019243903
225	0xbb12fcc0	-0.0022428483
226	0xbce2984b	-0.02766051
227	0x3c1d4bb4	0.009600569
228	0x3c98cbab	0.018651804
229	0xbc38fc33	-0.011290598
230	0xbca14092	-0.01968411
231	0xbc88ee4d	-0.016715193
232	0xbc409443	-0.011754098
233	0xbc94572f	-0.018107979
234	0xbb4cb6c7	-0.0031236873
235	0xbc0a24af	-0.008431598
236	0x3a9fb9e7	0.001218614
237	0x3cdcd31e	0.026956137
238	0x3c4014d5	0.011723717
239	0x3cd561e9	0.026047664
240	0x3c424c53	0.011859017
241	0xbcabfdcd	-0.020995045
242	0x3c59b759	0.013288342
243	0x3ce23ff4	0.027618386
244	0x3c0df5c6	0.008664554
245	0x3c1d8e9b	0.009616519
246	0x3bb44625	0.005501526
247	0x3c633351	0.013867215
248	0x3afd919f	0.0019345767
249	0xbc984799	-0.018588828
250	0xbc5a699a	-0.013330841
251	0xbba46579	-0.0050169793
252	0xbcabd8c4	-0.020977385
253	0xbc90a987	-0.017658962
254	0x3c92f473	0.017938828
255	0xbc96a234	-0.018387891
