SPMLUA_outputs/task2_80/Train_with_full_labels_L2loss/checkpoint_best.pth (torch, 691407 bytes, 7 tensors)

weight f4 [80, 240]
0.5867747 0.027080087 0.002846698 0.0029605161 -0.04858579 0.047544654 0.04568943 -0.06756139
-0.04665903 -0.025244497 -0.054252468 -0.08794971 -0.13033102 -0.0057730316 -0.019720554 -0.052854367
-0.03016382 -0.012525581 -0.048254013 -0.017817566 -0.064312294 -0.07627723 -0.07873369 -0.0842431
0.25032166 0.06594846 -0.00040380316 0.2757888 -0.026387386 0.0039841067 0.088407025 0.015468121
-0.027425233 0.064396314 0.008449695 0.021060675 0.26774254 0.07864644 -0.00044350346 -0.06484743
-0.04681836 0.117014654 -0.09039022 -0.036338955 -0.042941004 -0.02137252 0.00056949735 -0.021489887
-0.041680887 -0.029740807 -0.07674133 -0.01846592 0.0046168044 0.008677436 -0.018990407 -0.010245004
0.017304888 -0.039183594 -0.097441845 -0.08307149 -0.1052429 -0.13538332 0.025187701 -0.039523985
-0.0887683 -0.038975894 -0.078077 0.047880176 0.0009428847 -0.115010515 -0.08017694 -0.13018951
-0.06838048 -0.039502606 -0.1476803 -0.08070021 -0.063867904 -0.055127554 -0.018581424 -0.060226005
0.18968244 -0.043255586 0.08372759 0.075806476 -0.29526052 -0.10105925 0.123186775 0.20371805
-0.2090748 -0.023903986 0.015890526 -0.18612486 -0.026438689 -0.12401786 -0.33796003 -0.24837287
0.15126926 0.2531036 -0.1068211 0.23397532 0.20504197 -0.34423858 -0.11939375 -0.004299457
0.04812453 -0.15029016 -0.0019787778 -0.020365108 0.13851699 0.14817977 -0.5830328 -0.044556677
0.026581032 -0.3154113 0.15323488 -0.29453507 -0.18953565 -0.14729239 0.074098825 -0.026735026
0.00894179 0.08840151 0.23681538 0.21139398 0.09679706 0.15222761 0.19806378 0.04671049
0.09806701 0.1200417 -0.27670577 0.29276323 -0.09114148 -0.20581679 0.06536272 0.29048878
-0.21762471 -0.12722676 0.005567658 0.06230774 0.2848218 0.15304272 0.090241626 -0.11159235
0.02676447 0.07523065 -0.07768551 -0.05307946 -0.15936242 -0.19873507 -0.10678616 -0.23830111
0.16795263 -0.029052716 -0.05586892 0.031307183 0.24460864 -0.3308903 -0.09250199 0.25472313
-0.045512956 0.034609355 -0.01876509 0.026715849 -0.009009415 0.035869084 0.033591177 0.02697895
0.020045422 0.060079824 0.026140213 0.043342307 0.01693216 0.05045704 -0.0043902877 -0.009974878
0.017159453 0.008323952 0.01821487 -0.017164132 -0.062466443 -0.04461499 -0.011845763 -0.005129796
0.016400829 0.00035032455 -0.06873614 -0.0417307 -0.019202363 -0.00086882885 -0.0043569463 0.07978205
-0.02003171 0.079688534 0.06910478 0.030551136 0.09351986 0.031771027 -0.07315904 0.017084047
-0.0071018483 0.03310896 0.050113857 0.009916293 -0.038942702 -0.031229772 0.030084068 0.03317318
0.0031144097 0.08132 0.03733864 0.03709095 0.027386544 0.0071853404 0.042192087 0.011304595
-0.0401233 0.025113657 0.01639191 -0.026442116 -0.015246541 -0.040269382 0.05024895 -0.052110165
-0.0034639258 -0.0063696094 -0.06397571 -0.016403198 -0.050329827 -0.036823414 -0.0061491537 0.079030715
-0.04247172 0.090962924 0.025703836 -0.014085324 -0.02991867 -0.031917293 -0.026622206 0.005692093
-0.003732321 0.9291696 -0.009479205 -0.006814916 -0.0025940735 -0.06143747 -0.014039608 -0.04433043
-0.021997582 -0.050299965 -0.025421847 -0.026782911 -0.04201753 -0.008582222 -0.005428415 0.002332205
00000000: de36 163f 0fd7 dd3c ab8f 3a3b 3805 423b
00000010: e501 47bd 2fbe 423d d724 3b3d a05d 8abd
00000020: 8a1d 3fbd 8ccd cebc d637 5ebd fa1e b4bd
00000030: 7f75 05be b32b bdbb 008d a1bc d27d 58bd
00000040: 1e1a f7bc 1838 4dbc 00a6 45bd 25f6 91bc
00000050: 2ab6 83bd 3d37 9cbd 213f a1bd a587 acbd
00000060: 292a 803e fc0f 873d 8bb5 d3b9 3134 8d3e
00000070: 5c2a d8bc 1c8d 823b be0e b53d 006e 7d3c
00000080: e2aa e0bc 37e2 833d 9770 0a3c 7087 ac3c
00000090: 8d15 893e 6211 a13d 0786 e8b9 bbce 84bd
000000a0: 9cc4 3fbd 61a5 ef3d 821e b9bd 28d8 14bd
000000b0: e8e2 2fbd 6c15 afbc 524a 153a 8f0b b0bc
000000c0: 94b9 2abd fea2 f3bc 8f2a 9dbd d745 97bc
000000d0: 9048 973b ce2b 0e3c c591 9bbc a9da 27bc
000000e0: fbc2 8d3c fa7e 20bd 978f c7bd 6321 aabd
000000f0: 9789 d7bd eda1 0abe 7056 ce3c e7e3 21bd
00000100: 28cc b5bd 30a5 1fbd d6e6 9fbd 011e 443d
00000110: ec2b 773a a28a ebbd cf33 a4bd 6650 05be
00000120: 110b 8cbd 7ccd 21bd 8139 17be 2746 a5bd
00000130: 2dcd 82bd 6ecd 61bd 1238 98bc 8baf 76bd
00000140: 1d3c 423e c52c 31bd 5f79 ab3d 6d40 9b3d
00000150: 632c 97be 27f8 cebd 5949 fc3d 779b 503e
00000160: b417 56be 4bd2 c3bc d92c 823c 8497 3ebe
00000170: f395 d8bc 13fd fdbd 1909 adbe 7555 7ebe
00000180: 54e6 1a3e cc96 813e 05c5 dabd 3a97 6f3e
00000190: 86f6 513e 0a40 b0be b684 f4bd 76e2 8cbb
000001a0: 3a1e 453d aae5 19be 62ae 01bb bad4 a6bc
000001b0: 66d7 0d3e 70bc 173e a341 15bf 1081 36bd
000001c0: 77c0 d93c 977d a1be 9be9 1c3e 4dcd 96be
000001d0: a215 42be d1d3 16be 20c1 973d 6a03 dbbc
000001e0: 9680 123c da0b b53d bb7f 723e aa77 583e
000001f0: 893d c63d 8ee1 1b3e 3bd1 4a3e 8053 3f3d
00000200: 5bd7 c83d 6cd8 f53d 61ac 8dbe 10e5 953e
00000210: 62a8 babd a3c1 52be e4dc 853d f2ba 943e
00000220: 03d9 5ebe bb47 02be e770 b63b 6736 7f3d
00000230: 2ad4 913e 3bb7 1c3e 9ad0 b83d 888a e4bd
00000240: 2941 db3c 8712 9a3d 9519 9fbd d969 59bd
00000250: e72f 23be 3581 4bbe b4b2 dabd 3505 74be
00000260: c6fb 2b3e f6ff edbc cfd6 64bd f63b 003d
00000270: b07a 7a3e 746a a9be af71 bdbd 126b 823e
00000280: cb6b 3abd 8ac2 0d3d 3fb9 99bc 32db da3c
00000290: 3a9c 13bc 76eb 123d e796 093d f502 dd3c
000002a0: 4c36 a43c 4316 763d 0024 d63c b487 313d
000002b0: 50b5 8a3c 0bac 4e3d 67dc 8fbb ac6d 23bc
000002c0: fb91 8c3c 2f61 083c 5a37 953c cb9b 8cbc
000002d0: d0dc 7fbd 35be 36bd bb14 42bc d917 a8bb
000002e0: 085b 863c c4ab b739 89c5 8cbd cfed 2abd
000002f0: 464e 9dbc 1ec2 63ba b7c4 8ebb c564 a33d
00000300: 8a19 a4bc be33 a33d cf86 8d3d 6046 fa3c
00000310: 5787 bf3d 5622 023d 68d4 95bd d8f3 8b3c
00000320: 9fb6 e8bb 439d 073d 3044 4d3d f377 223c
00000330: 6282 1fbd 94d5 ffbc dd72 f63c 9ae0 073d
00000340: 201b 4c3b 1a8b a63d 67f0 183d aeec 173d
00000350: bf59 e03c 0173 eb3b 9cd1 2c3d e836 393c
00000360: 5458 24bd 28bb cd3c 5448 863c 239d d8bc
00000370: a1cc 79bc 82f1 24bd d8d1 4d3d 7871 55bd
00000380: 0803 63bb 28b8 d0bb b205 83bd 0060 86bc
00000390: a626 4ebd 26d4 16bd d77e c9bb dbda a13d
000003a0: d4f6 2dbd c54a ba3d da90 d23c 21c6 66bc
000003b0: 0018 f5bc b5bb 02bd d016 dabc bd84 ba3b
000003c0: f599 74bb 0fde 6d3f ab4e 1bbc a94f dfbb
000003d0: 5501 2abb dba5 7bbd 6206 66bc d393 35bd
000003e0: 4634 b4bc 5607 4ebd 7a41 d0bc d667 dbbc
000003f0: 931a 2cbd 739c 0cbc d8e0 b1bb e8d7 183b

bias f4 [80]
0.1073784 0.09778507 0.058841195 0.02730229 0.02231134 0.036650535 -0.04387589 0.043549377
0.08536263 0.051781293 0.042091403 0.025079489 0.051019784 0.036304977 0.016537642 0.033561688
0.012221766 0.07355879 0.06909145 0.01152201 0.0031100335 -0.0026143193 0.13641222 0.066508554
-0.015529792 0.080409706 0.09491293 0.023974216 0.012511352 0.04199672 0.05537877 -0.006686988
0.027097274 0.07776593 0.053899422 0.01944169 -0.0053465413 0.022023655 0.037934378 0.0476451
0.02990302 0.022239607 0.10744138 0.05835623 0.073701814 0.10050851 0.073440075 0.0041467235
0.02421843 0.07129291 0.0548825 0.05399393 -0.016847035 0.073519826 0.04613888 0.023878096
0.057836477 0.004995472 0.01209874 0.051428236 0.06999654 0.091792434 0.08751266 0.0598063
0.01039963 0.036121562 0.05715451 0.043842867 0.068581976 0.058978286 0.024548624 0.037981965
0.086284444 0.024063347 0.04564251 0.034068897 0.021578686 0.069267504 0.035645746 0.07767529
00000000: 35e9 db3d 8a43 c83d 7703 713d 0da9 df3c
00000010: 45c6 b63c df1e 163d 35b7 33bd d560 323d
00000020: 9ad2 ae3d 9f18 543d 0968 2c3d 8073 cd3c
00000030: 1ffa 503d 87b4 143d f379 873c fb77 093d
00000040: cd3d 483c fea5 963d d17f 8d3d d0c6 3c3c
00000050: b4d1 4b3b 0055 2bbb a5af 0b3e a335 883d
00000060: ab70 7ebc d8ad a43d b661 c23d 9365 c43c
00000070: 6afc 4c3c c104 2c3d d9d4 623d 851e dbbb
00000080: 1afb dd3c be43 9f3d a4c5 5c3d 2e44 9f3c
00000090: 0a32 afbb f46a b43c 1461 1b3d 8227 433d
000000a0: 2ef7 f43c d62f b63c 3a0a dc3d f106 6f3d
000000b0: faf0 963d 68d7 cd3d c067 963d 3de1 873b
000000c0: bb65 c63c 0402 923d 79cc 603d bd28 5d3d
000000d0: cb02 8abc 9091 963d 1ffc 3c3d ff9b c33c
000000e0: f1e5 6c3d 0eb1 a33b cb39 463c 6aa6 523d
000000f0: 595a 8f3d acfd bb3d d639 b33d 73f7 743d
00000100: 3663 2a3c 34f4 133d d91a 6a3d 9494 333d
00000110: b574 8c3d 3793 713d 321a c93c fa92 1b3d
00000120: e6b5 b03d 7f20 c53c a4f3 3a3d d48b 0b3d
00000130: c9c5 b03c 1fdc 8d3d 4601 123d 3914 9f3d

linear1.weight f4 [256, 512]
-0.08121962 0.02695752 -0.08700665 -0.17623325 0.08233481 -0.16700688 -0.03603194 0.012795313
-0.003771582 0.0704584 0.1464281 -0.0645154 0.014039148 0.3308496 -0.05504984 -0.16138436
-0.07016044 0.22638062 0.17890263 0.032857772 -0.12535833 0.025524326 0.21682614 0.12918805
0.13965632 -0.13354293 -0.30980542 0.0060122292 0.025079537 -0.01167728 -0.055928916 0.44222185
0.3116513 0.13121498 -0.090597995 -0.06375556 0.008709258 -0.13726392 -0.06432366 -0.002030726
-0.24474838 -0.05935206 -0.04816357 -0.014842456 -0.061961222 -0.06379368 -0.059030894 0.16693106
-0.26361543 0.013197081 -0.017484773 0.14133859 0.008171806 -0.026401458 0.21222258 0.32029602
0.060448907 -0.07944531 0.10261576 -0.03554915 -0.08146088 -0.17551322 -0.09104384 -0.13260144
0.19677065 0.15185373 0.23156707 0.12609509 -0.20479546 0.18412046 -0.17815089 -0.018371528
0.054168984 0.08153236 0.07486819 -0.0922078 0.12325848 0.04111463 -0.07736887 0.07740524
-0.3263883 -0.1537436 -0.09750158 -0.1645452 -0.01831744 -0.088886686 0.21587922 0.13673444
-0.021694927 0.14078382 0.00939721 0.014520115 -0.3303914 0.16093835 0.29278177 -0.023370517
0.10061321 0.21293105 0.15481792 0.21974456 0.16422097 -0.11606519 0.11030867 0.17842501
0.12702636 -0.1215773 -0.048245646 -0.35280722 0.018629955 0.1865894 0.051959064 0.2580434
0.12054147 -0.3077703 0.069630004 0.44314882 -0.18669105 0.19936731 0.0071344683 0.030992636
-0.0070688496 -0.027452659 0.21502678 0.021015618 -0.0025004975 0.17372188 0.027141081 0.08485436
0.027522014 0.058903277 0.13241391 0.044547964 -0.0989382 0.18200724 -0.072429135 -0.12670189
0.0056704534 0.21017647 -0.029154958 -0.27238324 -0.123889565 0.027087215 0.0061294925 0.0007693441
-0.10955703 -0.07814075 0.07516964 -0.14198607 -0.18408355 -0.012257388 -0.22191736 0.08760601
-0.067487985 -0.018324926 -0.031167159 0.103581294 -0.067343995 -0.09680276 -0.057671648 0.04450295
-0.022237362 0.17324258 -0.07656273 -0.021562025 0.104368985 0.065163635 0.06928845 -0.0013447454
-0.022590574 0.21209577 -0.0059324186 0.060412932 -0.005549393 0.07501791 0.08896754 -0.030833041
-0.07447866 0.19688071 0.029442465 0.29388466 0.22150108 0.0946457 -0.30253193 -0.048822757
-0.1466256 0.036334045 -0.0014646497 0.30966812 -0.30330616 0.023822635 0.06323805 0.24613228
0.286899 -0.05226223 -0.19906594 -0.13575637 0.1453536 -0.1513492 0.04104116 0.12814204
-0.18910512 0.06511679 0.08561061 -0.19423895 -0.24082683 -0.13851555 0.43732825 0.09674668
-0.018253475 -0.15565117 0.24476969 -0.095260054 -0.01276313 -0.049708076 0.022858806 0.07270134
0.16736725 0.24000473 -0.06327842 0.02378362 0.19333084 -0.05316847 -0.21252412 -0.050508037
0.14064807 0.11321985 0.03527269 0.102546 0.10350589 0.24809924 0.024322715 0.13295226
-0.101889364 -0.11828354 -0.015827125 -0.018050924 -0.27584347 -0.009169785 -0.220577 0.004133989
0.20602824 -0.124060534 -0.15515679 -0.18921842 0.02967234 -0.045235805 -0.1372459 0.20611334
-0.08221533 0.59130245 -0.11576566 0.22550535 0.09345839 -0.11385498 0.018411431 0.109366655
00000000: 7956 a6bd 04d6 dc3c 8b30 b2bd 7d76 34be
00000010: 279f a83d da03 2bbe 3a96 13bd 6fa3 513c
00000020: a52c 77bb 7e4c 903d 3ff1 153e a620 84bd
00000030: 7404 663c 1e65 a93e f17b 61bd f141 25be
00000040: 47b0 8fbd 52d0 673e 4032 373e df95 063d
00000050: ef5d 00be 6418 d13c ac07 5e3e df49 043e
00000060: 1102 0f3e 7abf 08be d19e 9ebe 3c02 c53b
00000070: 9a73 cd3c 1052 3fbc b815 65bd e76a e23e
00000080: c290 9f3e 385d 063e 718b b9bd 4692 82bd
00000090: 47b1 0e3c ea8e 0cbe 20bc 83bd ee15 05bb
000000a0: 529f 7abe 251b 73bd 2a47 45bd c62d 73bc
000000b0: 0dcb 7dbd 43a6 82bd 61ca 71bd faef 2a3e
000000c0: 9af8 86be 9238 583c 3a3c 8fbc 10bb 103e
000000d0: 0ae3 053c df47 d8bc e050 593e d7fd a33e
000000e0: 4699 773d 39b4 a2bd 3628 d23d fc9b 11bd
000000f0: f6d4 a6bd bdb9 33be 3175 babd acc8 07be
00000100: 3f7e 493e 8b7f 1b3e eb1f 6d3e 121f 013e
00000110: e7b5 51be 138a 3c3e 306d 36be e37f 96bc
00000120: 4ce0 5d3d 70fa a63d 7e54 993d 71d7 bcbd
00000130: f16e fc3d d067 283d 9273 9ebd a386 9e3d
00000140: 5e1c a7be f66e 1dbe e9ae c7bd 897e 28be
00000150: 750e 96bc 390a b6bd 710f 5d3e 1d04 0c3e
00000160: 8fb9 b1bc a229 103e c1f6 193c c7e5 6d3c
00000170: 1029 a9be 06cd 243e 7ee7 953e 8773 bfbc
00000180: 4c0e ce3d 990a 5a3e 9788 1e3e b804 613e
00000190: 8b29 283e 96b3 edbd 83e9 e13d 0cb5 363e
000001a0: 3313 023e 85fd f8bd 3a9d 45bd 26a3 b4be
000001b0: d99d 983c 4b11 3f3e 07d3 543d 441e 843e
000001c0: 72de f63d 1294 9dbe 2d9a 8e3d 67e4 e23e
000001d0: f02b 3fbe f226 4c3e 42c8 e93b 45e4 fd3c
000001e0: cfa1 e7bb 66e4 e0bc fb2f 5c3e f228 ac3c
000001f0: 63df 23bb 26e4 313e f956 de3c 1fc8 ad3d
00000200: d975 e13c 9044 713d 8397 073e ed77 363d
00000210: 1ca0 cabd 1b60 3a3e ba55 94bd 24be 01be
00000220: 36cf b93b 8038 573e 61d6 eebc d175 8bbe
00000230: d0b9 fdbd 02e6 dd3c e9d9 c83b cfad 493a
00000240: 705f e0bd 4208 a0bd 8af2 993d cc64 11be
00000250: 6680 3cbe 36d3 48bc 4e3e 63be c86a b33d
00000260: 2437 8abd 281e 96bc 4552 ffbc 6e22 d43d
00000270: a6eb 89bd 8740 c6bd 1b39 6cbd ba48 363d
00000280: 212b b6bc 8166 313e eccc 9cbd d8a2 b0bc
00000290: 68bf d53d 8374 853d 1ae7 8d3d 2b42 b0ba
000002a0: de0f b9bc a22f 593e bc64 c2bb 8d73 773d
000002b0: afd7 b5bb fda2 993d 9d34 b63d 9395 fcbc
000002c0: 4588 98bd 199b 493e 5331 f13c 0d78 963e
000002d0: 2ed1 623e 9bd5 c13d 77e5 9abe 5ffa 47bd
000002e0: 0525 16be 02d3 143d 7df9 bfba d28c 9e3e
000002f0: f24a 9bbe b027 c33c f382 813d 1a0a 7c3e
00000300: 6de4 923e ec10 56bd f1d7 4bbe b803 0bbe
00000310: 93d7 143e 49fb 1abe c61a 283d ab37 033e
00000320: c6a4 41be f45b 853d 9e54 af3d 93e6 46be
00000330: 4f9b 76be 05d7 0dbe 7de9 df3e 2023 c63d
00000340: 5088 95bc 0563 1fbe e8a4 7a3e b417 c3bd
00000350: 721c 51bc b29a 4bbd 6442 bb3c 71e4 943d
00000360: 5262 2b3e cdc3 753e 1e98 81bd ded5 c23c
00000370: 85f8 453e 2ec7 59bd ec9f 59be 84e1 4ebd
00000380: 0c06 103e cfdf e73d 197a 103d a303 d23d
00000390: e5fa d33d ba0d 7e3e 6e40 c73c a324 083e
000003a0: 5fab d0bd a43e f2bd e3a7 81bc 88df 93bc
000003b0: 5b3b 8dbe de3c 16bc f0de 61be 6a76 873b
000003c0: 11f9 523e 7313 febd 6ce1 1ebe 79c2 41be
000003d0: 6813 f33c 2e49 39bd 308a 0cbe 600f 533e
000003e0: 8360 a8bd 995f 173f 8c16 edbd e0ea 663e
000003f0: 1d67 bf3d cd2c e9bd 92d3 963c a0fb df3d

linear1.bias f4 [256]
-0.10233015 -0.020371165 -0.0263594 -0.03608863 -0.07794227 -0.018105248 -0.047382984 -0.08749945
-0.022179604 -0.040654093 -0.09985353 -0.10112484 -0.059863526 -0.13116755 -0.0733803 -0.07341026
-0.031118108 -0.06824702 -0.029184068 -0.006400332 -0.043831248 -0.009428858 -0.059577912 0.0070781647
-0.06399038 -0.049334075 -0.021727255 -0.078384094 -0.06488526 -0.043920103 -0.009589127 -0.09456042
-0.06128275 -0.028045984 -0.036442284 -0.043293606 -0.04053092 -0.09460433 -0.048295073 -0.06666324
-0.016294437 -0.03791172 -0.067970045 -0.07233281 -0.044017363 -0.06755322 -0.0659592 -0.031784
-0.011731656 -0.010518173 -0.04773859 -0.12617503 -0.0115848305 -0.023759063 -0.045738388 -0.07931801
-0.042181462 -0.0468487 -0.048991244 -0.080980435 -0.037769992 -0.0625399 -0.07520713 -0.03020965
-0.07477677 -0.062332 -0.05448486 -0.04315739 -0.053250488 -0.04033464 0.006781432 -0.015426909
-0.037595622 -0.009186021 -0.051255025 -0.060368877 -0.07876827 -0.028862312 -0.06267543 -0.06073317
-0.069156386 -0.004691086 -0.015724124 -0.06745168 -0.055376828 -0.04946575 -0.034121756 -0.048615053
-0.06420549 -0.06617927 -0.047569335 0.0022460131 -0.050366126 -0.101967655 -0.064133555 -0.043149445
-0.007891429 -0.07622509 -0.028696755 -0.04939965 -0.07508688 -0.08797405 -0.042009227 -0.04233925
-0.055354808 -0.067067236 -0.106978364 -0.006046494 -0.054071575 -0.045110263 0.0037932897 -0.073120125
-0.0129894335 -0.06533077 -0.1087286 -0.13646498 -0.081463575 -0.057793 -0.062926404 -0.07672667
-0.058793366 -0.05168259 -0.0857612 -0.076838985 -0.007120798 -0.08621721 -0.07534744 -0.02208246
-0.047952037 -0.051094193 -0.049446642 -0.05524468 -0.040685095 -0.056477997 -0.014984494 -0.046494417
-0.070650056 -0.061862115 0.034737997 -0.06119248 -0.03715063 -0.036713928 -0.059465747 -0.13362658
-0.046262022 -0.02105138 0.016046312 -0.0634756 -0.0751167 -0.06683095 -0.078652166 -0.016287547
-0.06893908 -0.053793855 -0.07417569 -0.06433164 -0.07066601 -0.032285765 -0.0401795 -0.037464026
-0.043312375 -0.024634868 -0.08340231 -0.037775237 -0.019867796 -0.022546533 -0.034267653 -0.06959946
-0.09725968 -0.047580678 -0.03794813 -0.06030339 -0.061979298 -0.027292855 -0.016741643 -0.027284034
-0.080842234 -0.08264633 -0.06806547 -0.055413574 -0.03156539 -0.04898172 -0.064818375 -0.052644987
-0.007105999 -0.055278677 -0.046608772 -0.019582706 -0.029612785 -0.027139638 -0.059672114 -0.03350935
-0.04536124 -0.06748234 -0.069526844 -0.04655999 -0.052640807 -0.049114984 0.0022484877 -0.061584905
-0.0130918585 -0.07786521 -0.051214423 -0.05152883 -0.04057902 -0.049009655 -0.066332035 -0.05792362
-0.054489434 -0.05488087 -0.07250104 -0.054916948 -0.07010719 -0.0752874 -0.035756867 -0.055739287
0.006034744 -0.07915408 -0.037694976 -0.03724854 -0.029478308 -0.050079558 -0.024681836 -0.04320864
-0.102710135 -0.020342907 -0.020093188 -0.06988306 -0.02899115 -0.02279815 -0.0464648 -0.04490934
0.0037120997 -0.0774677 -0.05192313 -0.02272959 -0.018744998 -0.033730175 -0.029842887 -0.14144395
-0.015370296 -0.06863226 -0.022665687 -0.050015695 -0.05012717 -0.07163028 -0.07289994 -0.036365017
-0.042434484 -0.05960991 -0.050791286 -0.05140886 -0.047654394 -0.036911666 -0.07369542 -0.025744513
00000000: 7892 d1bd 6ee1 a6bc abef d7bc acd1 13bd
00000010: 32a0 9fbd 7551 94bc a914 42bd e932 b3bd
00000020: 00b2 b5bc e884 26bd 0280 ccbd 8a1a cfbd
00000030: 7533 75bd c950 06be 6948 96bd 1e58 96bd
00000040: 67eb febc 18c5 8bbd 6d13 efbc e0b9 d1bb
00000050: 6588 33bd 7f7b 1abc f807 74bd f3ef e73b
00000060: 630d 83bd 8712 4abd 5bfd b1bc d787 a0bd
00000070: 90e2 84bd 91e5 33bd b71b 1dbc e5a8 c1bd
00000080: 9f03 7bbd b1c0 e5bc 8144 15bd a354 31bd
00000090: c003 26bd eabf c1bd 0ed1 45bd bd86 88bd
000000a0: e97b 85bc 5249 1bbd e133 8bbd 3923 94bd
000000b0: 8d4b 34bd 5859 8abd 9e15 87bd f12f 02bd
000000c0: 2236 40bc 6a54 2cbc 8a89 43bd 0734 01be
000000d0: 4dce 3dbc 5ea2 c2bc 2d58 3bbd 7b71 a2bd
000000e0: 78c6 2cbd 6ce4 3fbd 0bab 48bd 12d9 a5bd
000000f0: b5b4 1abd eb14 80bd 3206 9abd 3a7a f7bc
00000100: 9024 99bd d74f 7fbd 842b 5fbd cec5 30bd
00000110: 2f1d 5abd ef35 25bd c636 de3b 25c1 7cbc
00000120: defd 19bd f780 16bc caf0 51bd 5b45 77bd
00000130: 4251 a1bd a870 ecbc fa5b 80bd 58c3 78bd
00000140: dda1 8dbd aeb7 99bb e1cf 80bc 1b24 8abd
00000150: d0d2 62bd 999c 4abd 41c3 0bbd 9420 47bd
00000160: 2b7e 83bd ff88 87bd 10d8 42bd d931 133b
00000170: b64c 4ebd 6bd4 d0bd 7458 83bd 79bd 30bd
00000180: 0d4b 01bc e61b 9cbd 7515 ebbc 4a57 4abd
00000190: 26c7 99bd bd2b b4bd de11 2cbd ec6b 2dbd
000001a0: b9bb 62bd 8c5a 89bd 7917 dbbd ab21 c6bb
000001b0: 287a 5dbd 8ac5 38bd d798 783b 01c0 95bd
000001c0: a2d1 54bc 24cc 85bd 1aad debd 7abd 0bbe
000001d0: 60d6 a6bd 5ab8 6cbd 8fdf 80bd df22 9dbd
000001e0: 50d1 70bd 20b1 53bd 91a3 afbd c25d 9dbd
000001f0: 9555 e9bb a692 b0bd c24f 9abd 46e6 b4bc
00000200: 5b69 44bd 2548 51bd 9088 4abd 3f48 62bd
00000210: 6aa5 26bd 7955 67bd 8681 75bc ee70 3ebd
00000220: fab0 90bd 2163 7dbd 6e49 0e3d f7a4 7abd
00000230: 422b 18bd 5861 16bd 5b92 73bd 68d5 08be
00000240: 3f7d 3dbd f273 acbc 8e73 833c 7fff 81bd
00000250: c9d6 99bd aade 88bd 6314 a1bd 766d 85bc
00000260: ef2f 8dbd f256 5cbd 6de9 97bd 4fc0 83bd
00000270: 57b9 90bd 143e 04bd 4293 24bd e173 19bd
00000280: 5168 31bd 10cf c9bc d5ce aabd 35ba 1abd
00000290: cac1 a2bc 82b3 b8bc 3d5c 0cbd 298a 8ebd
000002a0: 1530 c7bd f5e3 42bd 806f 1bbd b000 77bd
000002b0: 01de 7dbd 4495 dfbc c525 89bc c482 dfbc
000002c0: 9d90 a5bd 7b42 a9bd e965 8bbd 58f9 62bd
000002d0: b64a 01bd 0ea1 48bd 7fbf 84bd 45a2 57bd
000002e0: 71d9 e8bb e56b 62bd d7e8 3ebd e96b a0bc
000002f0: 8396 f2bc f253 debc bf6a 74bd 1a41 09bd
00000300: b5cc 39bd 2e34 8abd 1764 8ebd b0b5 3ebd
00000310: e39d 57bd cb2c 49bd 5d5b 133b 7440 7cbd
00000320: 3c7f 56bc cc77 9fbd 37c6 51bd e50f 53bd
00000330: 3036 26bd 59be 48bd 17d9 87bd 5141 6dbd
00000340: 5030 5fbd c3ca 60bd 6d7b 94bd 98f0 60bd
00000350: 5c94 8fbd 4830 9abd cb75 12bd e14e 64bd
00000360: 1abf c53b 891b a2bd 0c66 1abd ed91 18bd
00000370: 7e7c f1bc 3920 4dbd 9031 cabc 8bfb 30bd
00000380: b159 d2bd 2ba6 a6bc 789a a4bc da1e 8fbd
00000390: d97e edbc 30c3 babc e051 3ebd dbf2 37bd
000003a0: b346 733b 63a7 9ebd 59ad 54bd 6833 babc
000003b0: 1c8f 99bc a728 0abd 1279 f4bc afd6 10be
000003c0: b2d3 7bbc 128f 8cbd 64ad b9bc 42dd 4cbd
000003d0: 2652 4dbd e5b2 92bd 904c 95bd 7cf3 14bd
000003e0: c8cf 2dbd 8529 74bd 860a 50bd 1992 52bd
000003f0: 4131 43bd b030 17bd a0ed 96bd 28e6 d2bc

linear2.weight f4 [80, 256]
-0.028346378 -0.044309843 -0.054150607 -0.05759729 0.079708 0.06595042 -0.16673444 0.07625039
0.020151703 0.024116188 -0.11071815 0.086024895 -0.11646618 -0.20165052 0.0019967617 -0.04122087
-0.054459628 0.09782678 0.014773025 -0.0632193 0.011373609 0.022818103 0.058928695 -0.06996013
-0.00047919378 -0.026958633 0.088826895 0.04439848 -0.05113151 0.0012752662 0.026114402 0.02986894
0.024322448 0.08843239 0.023815555 -0.064093806 -0.03226919 -0.0040068193 0.06906824 0.09233496
0.058795765 -0.037436716 -0.037357725 -0.080512844 0.09160551 0.032111585 -0.04060134 0.027386446
0.032173414 -0.050366286 0.07538742 0.055410247 0.020827651 0.082572564 -0.042241096 0.03847199
-0.012320395 0.03590961 -0.02063804 0.03553804 0.024809776 -0.012665858 0.081585005 -0.039894443
-0.04337255 -0.021037897 0.089438364 0.013317027 0.015206026 -0.06448672 -0.03443923 0.044101585
-0.03666724 0.008370906 0.045043565 -0.035562746 -0.18676496 0.037837707 -0.058397494 0.021554332
0.086157516 0.14544009 -0.015656602 0.004304351 -0.024304312 0.062414303 -0.023481518 -0.007106056
0.035664234 0.048799172 -0.0064490126 0.020575082 0.0063582486 -0.1003633 0.034177028 0.015483421
-0.048152994 -0.079975046 0.06114482 -0.008951329 -0.029361544 0.012010364 0.05626787 0.06280573
0.035812344 -0.028396359 0.106412284 -0.051503308 -0.06542796 0.020506045 0.0073262695 -0.05320315
0.013569969 0.042736653 -0.073706195 -0.3665134 -0.15703939 -0.010701492 -0.07469812 0.0014993208
0.013396767 0.10675249 0.08354124 0.050084844 0.053028747 0.015759414 -0.079065554 -0.010100588
0.014285662 -0.06571872 -0.02263422 0.07198299 0.083829984 0.057622176 0.0631927 0.08932322
0.007824609 -0.00018126825 -0.037667405 0.0077050594 -0.0017663343 0.06917034 -0.035476394 0.094648376
-0.019788759 -0.003991386 0.08856298 0.011206709 -0.069853716 0.0149429245 0.006575927 0.0045228815
0.053736202 -0.011433284 -0.05770531 0.03975161 0.015457743 -0.07182155 0.06669505 -0.064004816
-0.010990951 0.0014592418 -0.024726013 -0.03989988 0.08982969 0.020379102 -0.06795595 0.010188457
-0.13397098 0.051940605 -0.051365282 0.05192573 0.005286154 0.0014875865 0.051238447 -0.009921061
-0.098338425 -0.086660616 -0.01036298 0.062299076 0.046247985 0.014422673 -0.13117512 0.07314002
-0.00912974 -0.06586337 -0.030899515 0.059256732 0.21100539 0.01053547 0.029879201 0.012252945
0.02783875 0.16683003 0.030151077 -0.052054863 0.006765674 0.07548316 -0.029927434 -0.06402759
0.10790604 0.07017393 -0.022844393 -0.027424581 -0.049479526 -0.106527425 -0.028160106 0.05405882
0.03544696 -0.012559699 0.07739254 0.04076771 0.061204284 -0.06507437 0.06409796 0.023593126
0.046078335 -0.017400507 -0.061938174 0.011356638 0.021247277 0.07145839 -0.010561823 -0.078820534
-0.09828575 0.03962535 -0.18263583 -0.0037629625 0.034226794 -0.037820496 -0.032288555 0.0033969053
0.048335936 -0.09158423 -0.046776693 -0.0201045 0.02404798 0.060797155 0.027936967 0.13897315
0.085337445 -0.024077557 -0.04149382 0.07788956 0.03693709 -0.053729936 0.02743159 0.0013060143
0.0797095 -0.055623114 -0.056020875 -0.13103227 -0.008521335 -0.023764841 0.026203945 0.09457023
00000000: aa36 e8bc 3d7e 35bd 07cd 5dbd 23eb 6bbd
00000010: f33d a33d 0411 873d 6fbc 2abe 2a29 9c3d
00000020: 2f15 a53c 508f c53c 33c0 e2bd d22d b03d
00000030: d285 eebd 797d 4ebe 1adc 023b 37d7 28bd
00000040: 0f11 5fbd 6859 c83d 8f0a 723c 1f79 81bd
00000050: 6058 3a3c 08ed ba3c 375f 713d 4247 8fbd
00000060: 4d3c fbb9 5ad8 dcbc e0ea b53d 2edb 353d
00000070: 466f 51bd d526 a73a dfed d53c b5af f43c
00000080: df3f c73c 0a1c b53d d718 c33c 9d43 83bd
00000090: b32c 04bd a34b 83bb a673 8d3d 1d1a bd3d
000000a0: d4d3 703d 3e57 19bd 6a04 19bd ebe3 a4bd
000000b0: ab9b bb3d 7087 033d 974d 26bd 8a59 e03c
000000c0: 45c8 033d e14c 4ebd b864 9a3d dbf5 623d
000000d0: c09e aa3c ce1b a93d 0005 2dbd ce94 1d3d
000000e0: 7bdb 49bc f515 133d 1b11 a9bc 5690 113d
000000f0: df3d cb3c 7584 4fbc 0a16 a73d 5b68 23bd
00000100: 6aa7 31bd ab57 acbc 762b b73d a92f 5a3c
00000110: b222 793c 9d11 84bd 2610 0dbd dda3 343d
00000120: 6330 16bd 2026 093c 9a7f 383d 3eaa 11bd
00000130: 503f 3fbe b6fb 1a3d 3632 6fbd b692 b03c
00000140: 5a73 b03d 3fee 143e 4642 80bc 830b 8d3b
00000150: d619 c7bc 24a6 7f3d 505c c0bc ebd9 e8bb
00000160: a914 123d a4e1 473d 3d52 d3bb 138d a83c
00000170: db58 d03b 468b cdbd 36fd 0b3d 2dae 7d3c
00000180: 133c 45bd f5c9 a3bd fe72 7a3d 98a8 12bc
00000190: 9f87 f0bc 1ec7 443c 2379 663d 4aa0 803d
000001a0: f7af 123d 7b9f e8bc afee d93d 22f5 52bd
000001b0: 18ff 85bd 4bfc a73c 3411 f03b 8ceb 59bd
000001c0: 9354 5e3c a10c 2f3d 46f3 96bd a5a7 bbbe
000001d0: efce 20be 5055 2fbc 54fb 98bd dc84 c43a
000001e0: 1d7e 5b3c 0da1 da3d ab17 ab3d c425 4d3d
000001f0: ac34 593d e319 813c 1fed a1bd f07c 25bc
00000200: 690e 6a3c 8997 86bd 666b b9bc d16b 933d
00000210: 0eaf ab3d 3b05 6c3d 2d6b 813d 18ef b63d
00000220: ca32 003c d312 3eb9 2349 1abd b97a fc3b
00000230: 5884 e7ba 2ea9 8d3d b24f 11bd 02d7 c13d
00000240: 091c a2bc 2cca 82bb 8260 b53d 589c 373c
00000250: 770f 8fbd 2bd3 743c e07a d73b ae34 943b
00000260: 7e1a 5c3d ab52 3bbc 675c 6cbd 96d2 223d
00000270: 7942 7d3c 2d17 93bd 6a97 883d f514 83bd
00000280: 6413 34bc 0844 bf3a 358e cabc 0e6e 23bd
00000290: a1f8 b73d 13f2 a63c 7d2c 8bbd 7ced 263c
000002a0: b02f 09be acbf 543d 6764 52bd 13b0 543d
000002b0: 7937 ad3b 1ffb c23a 68df 513d f28b 22bc
000002c0: a865 c9bd 1f7b b1bd 7dc9 29bc 512d 7f3d
000002d0: 876e 3d3d 134d 6c3c c552 06be 6fca 953d
000002e0: e894 15bc 60e3 86bd fb20 fdbc 30b7 723d
000002f0: cc11 583e f79c 2c3c 3ac5 f43c 94c0 483c
00000300: 170e e43c 7ed5 2a3e 64ff f63c 7b37 55bd
00000310: 96b2 dd3b ea96 9a3d 612a f5bc e620 83bd
00000320: d8fd dc3d 59b7 8f3d 2a24 bbbc 84a9 e0bc
00000330: 0bab 4abd 0d2b dabd 06b0 e6bc c86c 5d3d
00000340: d530 113d 32c7 4dbc fb7f 9e3d 0bfc 263d
00000350: 58b1 7a3d b645 85bd cb45 833d 5f46 c13c
00000360: a3bc 3c3d 828b 8ebc e2b2 7dbd 3111 3a3c
00000370: c50e ae3c c758 923d 7f0b 2dbc a96c a1bd
00000380: 0a4a c9bd 314e 223d e304 3bbe 099c 76bb
00000390: 6531 0c3d aae9 1abd 0141 04bd 9d9e 5e3b
000003a0: e7fb 453d 8390 bbbd eb98 3fbd 31b2 a4bc
000003b0: 4500 c53c 7006 793d 11dc e43c fa4e 0e3e
000003c0: 66c5 ae3d 4c3e c5bc 6cf5 29bd 9084 9f3d
000003d0: 594b 173d ec13 5cbd 37b8 e03c 912e ab3a
000003e0: bc3e a33d 10d5 63bd 2576 65bd 532d 06be
000003f0: 129d 0bbc 7cae c2bc a8a9 d63c 09ae c13d

linear2.bias f4 [80]
0.044861984 0.111599594 0.040025383 0.02943991 0.05663317 0.06710477 -0.02355168 -0.08284674
0.024896748 0.02099064 -0.02434845 -0.00459142 0.020028602 0.004121538 -0.023325596 0.011554106
-0.077622086 -0.031703852 0.04623657 -0.008831768 -0.053467322 0.01754942 0.0574214 -0.007915551
-0.07556979 0.112365656 -0.01297776 0.004009055 -0.02761391 -0.020659443 -0.0021742901 -0.01642583
0.023569755 -0.009259279 -0.03044784 0.0362996 0.004162068 0.06294917 -0.02631128 -0.013305518
-0.031891976 -0.024849188 0.0023417643 -0.031191237 -0.108220465 -0.028507786 0.014715398 -0.008345124
0.036644224 -0.062937714 0.040059775 -0.05512326 0.0038002313 0.057298675 0.04320601 -0.02663175
0.010688368 0.034095824 0.034328405 -0.015385457 0.012806477 -0.0324853 0.011969015 -0.015437891
0.05910174 -0.048499018 -0.04582074 0.048109256 -0.016494565 0.008699282 0.0037475426 0.039663155
-0.016533095 0.022723937 0.04080226 0.052134212 -0.048309173 0.041221693 0.041438475 -0.026642682
00000000: 33c1 373d 548e e43d a8f1 233d f72b f13c
00000010: 2ff8 673d 3a6e 893d 74ef c0bc 8dab a9bd
00000020: 44f4 cb3c 90f4 ab3c 6776 c7bc 9f73 96bb
00000030: 0613 a43c f70d 873b 5215 bfbc 6f4d 3d3c
00000040: 54f8 9ebd e6db 01bd 8f62 3d3d 1fb3 10bc
00000050: 8d00 5bbd cdc3 8f3c b432 6b3d 3ab0 01bc
00000060: 56c4 9abd f71f e63d aca0 54bc 645e 833b
00000070: 9136 e2bc fe3d a9bc 897e 0ebb 768f 86bc
00000080: 5c15 c13c 3bb4 17bc c06d f9bc e4ae 143d
00000090: f561 883b 7feb 803d c18a d7bc 63ff 59bc
000000a0: 29a1 02bd 8690 cbbc 4978 193b c484 ffbc
000000b0: b1a2 ddbd 2989 e9bc da18 713c fdb9 08bc
000000c0: 4118 163d 7de5 80bd b815 243d edc8 61bd
000000d0: 4d0d 793b 04b2 6a3d c9f8 303d d42a dabc
000000e0: 441e 2f3c 10a8 0b3d f19b 0c3d 4913 7cbc
000000f0: 42d2 513c 4e0f 05bd b019 443c 35ef 7cbc
00000100: ab14 723d e8a6 46bd 87ae 3bbd 360e 453d
00000110: 9c1f 87bc 6f87 0e3c 5599 753b d575 223d
00000120: 6a70 87bc 8d27 ba3c 4520 273d af8a 553d
00000130: d7df 45bd 14d8 283d 64bb 293d c141 dabc

weight f4 [1, 768]
-0.0019997626 -0.04804534 0.02614362 -0.020609967 -0.00020471941 -0.007442943 0.0034055663 -0.0018435844
-0.02082819 -0.021621633 -0.0041234097 0.012391819 0.0030998 0.007401663 -0.01063861 0.007273988
-0.010073923 0.01500169 -0.008580642 0.011988873 0.0033578784 0.0105543025 -0.02133306 -0.009758484
-0.0006616384 -0.0116722835 -0.0046520624 0.023249796 -0.00999695 -0.0029234898 0.0019884254 0.011062536
0.004383097 0.00059316756 0.019909997 -0.017883202 0.0027523811 -0.007922599 -0.018968072 0.0214859
-0.011787142 0.0061866925 -0.018438587 -0.0034567749 -0.02061577 -0.0288772 0.013893679 -0.03400933
0.028182589 0.026906148 -0.0040115886 0.028620403 0.014103029 -0.011168857 0.027199712 0.023127863
0.019600373 -0.005878319 0.023250535 -0.026300257 -0.0014050405 0.030682413 0.04468019 -0.018131211
0.0023619013 -0.035388473 -0.009009415 -0.0070390585 0.014129894 -0.03973091 -0.0140548125 0.014707742
0.018055275 0.029221362 -0.00861718 -0.029598275 0.011778462 -0.027072541 -0.0027102155 -0.01705508
-0.006899067 0.0025003 0.01680908 -0.008547271 -0.01308593 -0.005568952 0.00051659334 0.020549096
-0.018611826 0.021859845 0.01417264 0.0038545514 0.0050926087 0.0002450658 -0.003646647 0.016727857
0.011332343 -0.026539603 0.024752991 0.0024937487 -0.012394024 -0.018955309 0.00053831306 0.019046733
-0.023726147 0.031971402 0.0041229217 -0.010336382 -0.0027834335 0.041048832 0.027747193 0.0041798516
-0.010345995 0.016225979 0.0072708004 0.007740038 -0.019160148 -0.006678007 -0.012944078 -0.008091799
0.0027483741 -0.022936942 -0.025700718 -0.025262348 -0.005804872 0.0063942806 -0.015360504 0.00281557
-0.022929573 0.004211141 0.018328546 0.0015943239 -0.01814877 0.002580161 -0.014063272 0.023245905
0.0068542566 0.014101263 0.0018606272 -0.022390023 0.016489072 -0.016748577 -0.018898183 -0.020090785
-0.0068417 0.022462921 0.010190771 -0.025667978 -0.024004828 -0.0050167334 -0.0063640806 -0.015371919
0.00305934 -0.011406232 0.033204444 0.00848316 -0.012093927 0.013100563 -0.012738198 0.032064278
-0.02186678 0.016803078 0.0134198265 -0.015146766 0.03472746 -0.021762548 -0.0073559205 -0.021064263
0.0039351755 0.008275679 0.028152632 0.0039296914 0.0152199585 0.009820031 0.021442432 0.013495818
-0.014454767 0.0335911 0.008958541 -0.020930547 0.0042967075 0.022461336 0.01984881 0.023717219
-0.029492166 -0.004486058 0.011603518 -0.025935011 -0.025748577 0.012526575 0.020804297 0.037049685
0.017427864 -0.0013592311 0.013689501 -0.006570229 0.0002268784 -0.010813121 -0.022576403 0.023181908
0.013250617 -0.0002444607 -0.0090405755 -0.024240045 -5.401955e-05 0.022679973 0.0019232138 -0.0031580983
0.010633814 -0.013111445 -0.027274089 0.019370273 0.019447217 0.012054123 -0.0036930693 0.028598538
-0.011836952 -0.019035565 0.0029115232 -0.014455962 0.0054444126 0.021601217 -0.027360583 0.020120189
0.021173606 -0.0008493674 -0.024738945 -0.0032363208 0.017012844 -0.009798658 -0.03074825 -0.016665816
-0.010415072 -0.026886716 -0.013020559 -0.0050163963 0.0021555277 0.030765442 0.011038521 0.024694363
0.014929624 -0.01866671 0.01754725 0.018258834 0.008982255 -0.0017923231 0.005242364 0.0050582816
0.0028240765 -0.015484672 -0.013819644 -0.004943082 -0.016284795 -0.019002013 0.016988587 -0.012319251
00000000: 730e 03bb 31cb 44bd 252b d63c 3cd6 a8bc
00000010: f3a9 56b9 eee3 f3bb ec2f 5f3b 6da4 f1ba
00000020: e19f aabc da1f b1bc ab1d 87bb 0e07 4b3c
00000030: 0426 4b3b a689 f23b 914d 2ebc a25a ee3b
00000040: 180d 25bc a6c9 753c d295 0cbc fa6c 443c
00000050: da0f 5c3b f4eb 2c3c abc2 aebc 0ce2 1fbc
00000060: cd71 2dba 1b3d 3fbc 5470 98bb 5b76 be3c
00000070: 3fca 23bc 0598 3fbb 3e50 023b a43f 353c
00000080: 15a0 8f3b cd7e 1b3a 4a1a a33c cb7f 92bc
00000090: 4b61 343b cacd 01bc ee62 9bbc 3303 b03c
000000a0: db1e 41bc bdb9 ca3b 850c 97bc 0f8b 62bb
000000b0: 67e2 a8bc e18f ecbc 50a2 633c 5e4d 0bbd
000000c0: 2cdf e63c 486a dc3c a573 83bb 5675 ea3c
000000d0: 6410 673c 95fd 36bc eed1 de3c a576 bd3c
000000e0: f690 a03c ea9e c0bb e877 be3c a373 d7bc
000000f0: 5629 b8ba af59 fb3c 9302 373d e887 94bc
00000100: 21ca 1a3b 81f3 10bd 3a9c 13bc e7a7 e6bb
00000110: 1281 673c e1bc 22bd 2846 66bc bef8 703c
00000120: a8e8 933c a361 ef3c 132f 0dbc 1578 f2bc
00000130: 73fa 403c 3cc7 ddbc df9d 31bb 18b7 8bbc
00000140: 9211 e2bb 13dc 233b 32b3 893c da09 0cbc
00000150: 5e66 56bc c17b b6bb fe6b 073a 9456 a83c
00000160: d477 98bc 6b13 b33c 5c34 683c a49c 7c3b
00000170: e6df a63b 2d7c 8039 96fc 6ebb dc08 893c
00000180: 4bab 393c 9569 d9bc c9c6 ca3c 296e 233b
00000190: 4e10 4bbc 2a48 9bbc 941d 0d3a e507 9c3c
000001a0: 565d c2bc 72f4 023d 9319 873b ee59 29bc
000001b0: 446a 36bb d222 283d 154e e33c 23f7 883b
000001c0: 4082 29bc 58ec 843c e53f ee3b 25a0 fd3b
000001d0: bef5 9cbc 2fd3 dabb 6613 54bc 7793 04bc
000001e0: 111e 343b 41e6 bbbc 508a d2bc fcf2 cebc
000001f0: cc36 bebb 1d87 d13b a0aa 7bbc 6d85 383b
00000200: cdd6 bbbc 9cfd 893b bf25 963c a2f8 d03a
00000210: bbac 94bc eb17 293b a369 66bc 326e be3c
00000220: ac99 e03b fc08 673c 4ae0 f33a 486b b7bc
00000230: 1714 873c 5034 89bc 5dd0 9abc 6e95 a4bc
00000240: 5730 e0bb 2904 b83c 31f7 263c a745 d2bc
00000250: c6a5 c4bc 6963 a4bb c789 d0bb 80da 7bbc
00000260: 357f 483b 34e1 3abc 6201 083d f4fc 0a3c
00000270: 9b25 46bc bea3 563c e0b3 50bc d555 033d
00000280: f621 b3bc 9ca6 893c d5de 5b3c 242a 78bc
00000290: 623e 0e3d 5f47 b2bc ef09 f1bb f68e acbc
000002a0: a5f2 803b b796 073c 59a0 e63c a4c4 803b
000002b0: 225d 793c 32e4 203c 0aa8 af3c 901d 5d3c
000002c0: b0d3 6cbc d296 093d d8c6 123c 8a76 abbc
000002d0: 65cb 8c3b d600 b83c f999 a23c 9d4a c23c
000002e0: 8e99 f1bc c8ff 92bb af1c 3e3c a975 d4bc
000002f0: aeee d2bc 433c 4d3c c66d aa3c 69c1 173d
00000300: e1c4 8e3c 3a28 b2ba ee49 603c 134b d7bb
00000310: 35e6 6d39 8429 31bc 26f2 b8bc fce7 bd3c
00000320: 1e19 593c f62a 80b9 ec1e 14bc 0f93 c6bc
00000330: 0d93 62b8 5acb b93c 5914 fc3a 19f8 4ebb
00000340: 7339 2e3c 63d1 56bc e96d dfbc 68ae 9e3c
00000350: c54f 9f3c a87e 453c 6c07 72bb 7b47 ea3c
00000360: c6ef 41bc 79f0 9bbc 41cf 3e3b b3d8 6cbc
00000370: 0b67 b23b 09f5 b03c 4d23 e0bc 18d3 a43c
00000380: 4574 ad3c 15a8 5eba 54a9 cabc 7418 54bb
00000390: 855e 8b3c 8d8a 20bc c1e3 fbbc c086 88bc
000003a0: faa3 2abc 8841 dcbc 2f54 55bc 9560 a4bb
000003b0: c143 0d3b cf07 fc3c eada 343c d54b ca3c
000003c0: 629b 743c eeea 98bc 40bf 8f3c 8d93 953c
000003d0: 4f2a 133c 62ec eaba 23c8 ab3b f1bf a53b
000003e0: 2414 393b 6cb3 7dbc ca6b 62bc 94f9 a1bb
000003f0: b167 85bc 1caa 9bbc a62b 8b3c afd6 49bc
