SPMLUA_outputs/coco2/Train_with_full_labels_L2loss/checkpoint_best.pth (torch, 636943 bytes, 7 tensors)

weight f4 [60, 180]
00000000: c635 003f c43d 46bd 71bf 0bbd 26a6 8bbd
00000010: 770b cabc f822 abbb 83da 06bd 435b f83a
00000020: 2c00 deba 61a3 04bc db8d a2bc 9251 81bb
00000030: da89 80bd 9162 50bb fb8b 5b3a 9ad6 8a3b
00000040: 75f7 7fba a074 2dbc 548c 8dbb 86f7 3f3c
00000050: cf64 9fbb e927 68bb f2c9 dcbb c5a0 4b3c
00000060: 37cd 843b c8f5 3d3c f3d8 d0bc 6fd2 483c
00000070: 94af d33b 6c8f 463c 897e 483a 7356 07bb
00000080: 98a0 ba3a 7b41 2d3c 9c77 a3ba df44 93bc
00000090: 2c45 31bc 043f 58bb cd3c a1bc 00a3 0f3b
000000a0: ee54 5d3b de81 4dbc a947 06bb 9e79 f93b
000000b0: 204d 8abc 64ef d33c 85b2 4239 eae7 7e3b
000000c0: 4cf0 123c 01c5 41bb d414 e93c a48a 59bc
000000d0: af77 2f3b 83da 79bc e951 0ebd 6300 fabb
000000e0: 1619 8a3b e589 25bd b325 153c 05b4 ebbb
000000f0: b0a3 a83c 5ab8 ba3b ba49 b63d efe5 113e
00000100: bad7 653d 92a2 9dbd 03f4 6e3d 037c ee3d
00000110: a8be c83c 5c27 393d 0ee4 fbbc b854 283d
00000120: 34e5 d53d 069a 4dbe f164 2dbe 9908 713d
00000130: a37e cf3c b013 ebbc 1956 d13d 1e88 92bc
00000140: 5119 a43d 7096 533d 0575 5abd 9916 e83d
00000150: 7ac7 8ebd ac90 febc cbce 1ebc 1f66 d63d
00000160: 5beb a8bd ee4f 6f3d 2658 cdbd b7ac 09bd
00000170: 945a 0fbd e456 073d cb8c f1bd b423 4c38
00000180: 22e3 a4bb 7c48 f4bd ddb1 85bc 3ffa 55bc
00000190: 8267 2f3d cbc8 95bd c358 a6bd 8ab4 1dbe
000001a0: 9b93 4bbc 3011 cfbd 6804 a1bc 0e97 71bd
000001b0: 7b38 ff3d f29d ed3d 3d85 bbbc b4ba abbd
000001c0: 4824 bdbd 34eb 5cbe 13d5 a83d 4a13 abbd
000001d0: 7c98 09be 05bc ffbc 5b1f 503c 6d04 683d
000001e0: ca4c 143d 8bcd 0c3d b902 063d 3510 593d
000001f0: 5603 99ba ab65 2b3d c3b2 843d 52a1 883c
00000200: 6f6d 303d 4cd3 0c3d 2cb3 0ebd 3018 6f3d
00000210: f5a2 103c 7be5 8bbc 173b 6f3b 1413 143d
00000220: eb2f 37bd 058c 1f3c e2c8 693c 0945 573c
00000230: cc7e 003d ed73 603d 020f f83c a384 22bd
00000240: b943 bebc f4b6 5c3c 7287 03ba 218f e83b
00000250: 9561 3abb 344e 30bb 6621 debb 81d3 bcbc
00000260: 5487 4c3d 466e 1d3c 1b2e ef3c 0c6e 4f3c
00000270: 6cf0 0bbc d432 b6bc cb3d ac3c c600 ac3c
00000280: b9bb c6bb 36d7 5a3d 749b 88bc 3cc9 463d
00000290: 6193 0cbc 9d5a 1d3d e33c 3a3d 6f45 783c
000002a0: e1b8 95b9 acf9 6f3d 2527 2d3d 1e4d 593d
000002b0: b480 563b cf91 853d 2b28 413b 6889 1ebc
000002c0: ec3c c93c c09f 7d3b 121a 9fbc 2d2e 4fbd
000002d0: 2a19 4ebc 5408 ac3e 6d65 8abc 0408 2fbc
000002e0: 5d9d 7cbb 4464 033b d8ec b2bc 00a8 b93a
000002f0: 09a4 b8bb 1772 7e3b 7c2c 81bc 62c6 d937
00000300: 9f51 babc 16a5 fd3a 7fdc a23b 280f 033c
00000310: b2df ab3b 7dbe b43b 6624 9e3c 0add 06bb
00000320: 6506 c1bb d59a 283c 5810 0e3c b5f7 833c
00000330: 902d ddbc 9efc 613c 834e 0abb 34ab bb3a
00000340: a536 7bbb 6f2e 9cbb e231 6bbb 82b5 e7ba
00000350: 5347 823b 3ac0 1fbb 1665 ddbb 720c 823a
00000360: 5703 a5bc 7399 2e3a ea9b 17bb 3381 5b3b
00000370: 7d7d 373c 46f2 8abb f00a 1abc 2375 363c
00000380: a58e b8bc fd6a 8b3c 17a4 5f3c 95b7 cf3b
00000390: dba3 03bb 9e5d 46ba eaf3 043b 2fc5 293a
000003a0: 5ef3 913a a95e 063c d6f3 82bb ba46 13bc
000003b0: 66fb c23b 6cc3 babd 4dea 0bbd 7769 7e3b
000003c0: f660 93be 3e96 39bd 41df 523d ab60 ca3b
000003d0: 7981 c73c 4f92 30be b10d 393b dc57 de3d
000003e0: e6a9 103d ff78 50be 06f9 edbd 5b1a 6dbc
000003f0: 0b66 523c 9d37 783e 60d0 95bd 2774 823d
0.5008205 -0.048398748 -0.03411812 -0.068188 -0.02466367 -0.0052226745 -0.032923233 0.0018948097
-0.0016937307 -0.008095593 -0.019843033 -0.0039464915 -0.06276293 -0.0031797031 0.0008375046 0.0042370083
-0.0009764352 -0.010586888 -0.004319707 0.011716729 -0.0048643122 -0.003542418 -0.006737941 0.012428467
0.004052784 0.011594243 -0.025494074 0.0122572025 0.0064601395 0.012119155 0.000764825 -0.0020650893
0.0014238534 0.010574694 -0.001247156 -0.017977176 -0.0108197145 -0.0032996545 -0.019682312 0.0021917224
0.0033772546 -0.01254317 -0.002048949 0.007613375 -0.01688248 0.025870986 0.00018567785 0.0038895556
0.008968424 -0.0029566886 0.028452314 -0.013277683 0.0026774218 -0.015249851 -0.034746084 -0.0076294406
0.0042144163 -0.04041471 0.0091032265 -0.007193091 0.020585865 0.005698246 0.08900781 0.14247869
0.056113936 -0.076970235 0.058338176 0.11644747 0.024504974 0.04520355 -0.030748393 0.04109642
0.10444108 -0.20078287 -0.16933037 0.05884609 0.02532894 -0.028695911 0.102215 -0.017887171
0.08012641 0.05165714 -0.053334255 0.11332435 -0.06971641 -0.031074844 -0.009692858 0.10468697
-0.082480155 0.058425836 -0.100265786 -0.03361198 -0.03499849 0.03304185 -0.11794432 4.867064e-05
-0.005031959 -0.11927888 -0.016320163 -0.013060152 0.042823322 -0.07313689 -0.08122399 -0.15400901
-0.012425329 -0.101107 -0.019655421 -0.058981948 0.12461945 0.11602391 -0.022890681 -0.0838522
-0.09235436 -0.21574098 0.08243766 -0.083532885 -0.13437074 -0.031217584 0.012702788 0.056644846
0.036206044 0.03437571 0.03271744 0.05299397 -0.0011673968 0.041845005 0.064794086 0.016678486
0.043073114 0.034381196 -0.03483884 0.058372676 0.0088279145 -0.017077198 0.0036503726 0.036151007
-0.044723433 0.009737973 0.014269086 0.013139018 0.031370923 0.054798055 0.030280594 -0.039677273
-0.023225652 0.013471354 -0.00050174363 0.0070971404 -0.002843951 -0.0026902081 -0.0067788837 -0.023050072
0.049933746 0.009608811 0.02919679 0.012660515 -0.008541208 -0.022241034 0.021025559 0.020996463
-0.0060648588 0.053427897 -0.016675688 0.048531756 -0.00858006 0.038416494 0.045468222 0.015153273
-0.0002855724 0.058587715 0.04227366 0.05305206 0.0032730522 0.065219514 0.0029473405 -0.009676315
0.024565183 0.0038699955 -0.019421611 -0.050581146 -0.012579242 0.33600104 -0.016894067 -0.010683063
-0.0038545944 0.0020048777 -0.021841452 0.0014164448 -0.005634789 0.0038825327 -0.015768282 2.5960795e-05
-0.022743998 0.0019351568 0.004970133 0.007999219 0.0052451724 0.005515872 0.019304466 -0.0020578527
-0.005890655 0.010290821 0.008670889 0.016109327 -0.026999265 0.013793139 -0.0021103926 0.001431799
-0.0038332131 -0.0047662775 -0.0035887887 -0.0017677995 0.0039757877 -0.002437605 -0.006756435 0.0009921922
-0.020143194 0.0006660439 -0.0023133704 0.0033493757 0.011199352 -0.004240307 -0.009402022 0.011136326
-0.022528956 0.01701879 0.013649962 0.0063390234 -0.002008668 -0.00075670506 0.0020286986 0.0006476221
0.0011135151 0.00820128 -0.0039963527 -0.0089890305 0.005950379 -0.09119305 -0.034158994 0.0038820186
-0.28784913 -0.045309298 0.051482443 0.0061760745 0.02435373 -0.17243312 0.002823692 0.108566016
0.035318278 -0.20358656 -0.11619763 -0.014471616 0.012841712 0.24239965 -0.07315135 0.063698106

bias f4 [60]
00000000: 43ad 9e3d 3b48 133d 5287 b33d 72fe 1d3d
00000010: 452a 553c eb1c 953d ac3a a63d 5114 57bc
00000020: d410 183d 8754 d53d 9207 38bd f8ee 7b3d
00000030: 5872 dc3d 3032 243d 8d42 983c 3f3e d33b
00000040: 7de4 de3b e01b 273d 1ae1 943d ace2 513d
00000050: 5e08 ad3d 7554 f2bd 0b91 3f3d 3bf4 28bd
00000060: ccfe 95bc 3294 62bd 444c 833a 44db 4fbd
00000070: e9be 3c3d f33a 18bb 8cc4 863d edc3 283d
00000080: 9215 8abc dc5c fabd 95fa 273d 929d 363c
00000090: 01ee 82bd 7497 563b 2fbd 8fbb d7d2 85bc
000000a0: 2c7b bdbc 0bb8 6a3d b15a 27bd 59da 9cbc
000000b0: 7dd3 31bc 1fe9 d33c 0c92 a83d c6b6 8abd
000000c0: adec 483c 60ee c63c fb49 48bb 052e 4a3d
000000d0: 3b0d 763c 1014 cebb b578 0e3d 1d64 083d
000000e0: dc45 b6bd a8d1 dfbb 5453 a7bb 93aa c6bc
0.07747891 0.035957556 0.08766045 0.038572736 0.013010566 0.07280906 0.081166595 -0.013127402
0.037125424 0.10416513 -0.044929095 0.061507195 0.10763997 0.040086925 0.018586421 0.0064466293
0.0068021403 0.040798068 0.07269497 0.05124156 0.084488615 -0.11832515 0.046769183 -0.04124854
-0.018309973 -0.05531711 0.0010017236 -0.050746217 0.046080504 -0.0023228496 0.06580457 0.041202474
-0.016855989 -0.12224743 0.041010458 0.011145966 -0.06393052 0.0032744082 -0.004386566 -0.016335888
-0.023130022 0.057304423 -0.040857974 -0.019147085 -0.010853645 0.025867997 0.08230981 -0.067731425
0.012263459 0.024283588 -0.0030561674 0.049360294 0.015017803 -0.0062890127 0.034783084 0.0332986
-0.08900043 -0.006830413 -0.005106369 -0.024251258

linear1.weight f4 [256, 512]
00000000: 1d0c 2a3b b380 323d 0130 d8bd 27d2 a9bd
00000010: 4c2e 92bd d8b4 5c3e 4dd4 16be 3ad9 2fbd
00000020: e4b4 d9bd 4331 b8bd cef8 7abd e3b6 8c3d
00000030: 9cf2 133d 6bea 003c 6dca 6c3e 1269 a1bd
00000040: d3f6 3cbd 0d9f 183e 27b1 62bd 6fc6 a23c
00000050: c36e 8fbd b8e0 d5bb 64d5 293b e727 3fbb
00000060: 8d54 a63d 80ba debd 85d0 3dbe 3b72 1abe
00000070: 12f8 4cbd 9d89 39be 49ce 1cbd 6ec2 b0be
00000080: d532 cc3d b7b5 ae3b 21c7 303d 5a73 d43d
00000090: fb43 853d b409 b43d c89d 0e3d cb46 9dbc
000000a0: 9ec6 e7bc 4bac b8bd 08c9 fa3d 18f7 e9bc
000000b0: eb69 413d fb72 cc3d 368a 0dbe 87a3 a2bc
000000c0: a083 3d3c 1a99 9ebd 1264 ff3c 131b 22bd
000000d0: 9ca4 5f3c 3c2e 9e3c 4bfd 5a3d b15d 7dbc
000000e0: de3a bdbd 7ad5 2ebd 9029 3cbe 993d bcbe
000000f0: d445 553d f7d4 323d 2ec8 19be 1547 46be
00000100: 0bd0 d1bd f530 f4b8 c357 d3bb 1d07 353c
00000110: 8ed4 913d 1e93 85bd eb21 3bbd 23ee 8bba
00000120: 4a8a 85bd e8b5 01bd 0b4e 8bbd 119b cf3c
00000130: cdd7 acbc a23b c2bd 7e90 aa3d 4c17 053e
00000140: 8644 4e3c 56d3 16be 193c 7cbd 3a1c 143d
00000150: 490f 0d3a 9084 dd3d 87f0 17be f0b2 cfbe
00000160: 42d6 30bd ec42 79bd 5bb3 803e 7ae6 f03c
00000170: 367b 07be f402 a5bc 77a0 82be d815 233e
00000180: 3df4 603d 3413 ce3d ac84 d4bd 2bb7 a03d
00000190: fde2 82bc b0c8 d13e 0577 fdbc d73e a13c
000001a0: 75a9 19bd 9fe1 0d3e 09c6 3a3e dce3 b6bc
000001b0: 03fd 0fbe 9e37 68bb 2047 51bd 1aa9 823d
000001c0: 5b7b 42bd 0b7d edbd f474 d93d deac cbbd
000001d0: 1a8f 7fbd 6885 023d c9a3 dfbd 9a4d 09be
000001e0: 3160 c7bb d89d 32be a1fa d1bd f578 fcbc
000001f0: e734 173d 095f a53b 3c36 803d 55ba 093e
00000200: da12 9bbc eb90 a8bc d232 473d e2bf 6abd
00000210: 1c38 633e a4a9 d73d 65d6 87bd 6810 71bd
00000220: fb29 623d 9870 4fbe 5057 2bbb 8f99 42bd
00000230: f04b 753d f407 0c3e 253f 52bb 9207 edbd
00000240: c2ff dc3d bddc 093e ab3d ef3d 8f4f f53c
00000250: 63db 453d ea3b 73be 2103 edbb 198f 453e
00000260: 790d 783e 757a 0fbe 5774 3dbe 7655 913b
00000270: 3b2f 263e e5ec 0fbd 37a1 163e b4c0 343d
00000280: 067a 4c3d 796f 3d3c 2c87 9c3d 1bd9 253d
00000290: b1ee 7fbe 671e 6fbe 3a65 0e3d 6cb7 b3b9
000002a0: f786 a33d 151d b5bd 8535 d03c 5682 21bd
000002b0: 8c3f 413d baa5 1abd cff9 803d 58dc 923d
000002c0: 93f9 123e 1033 a9bd 788f fb3d 068b 163d
000002d0: 5c30 9b3d 90a5 143c ea3e bfbd 7807 b1bd
000002e0: bbdd e6bd 4e03 eebd 4bb0 45bc 3201 c23d
000002f0: 754b 4bbe 1793 bd3d 9505 37be a822 083e
00000300: 71c1 103d 5dd6 063d 6d07 e63d 9d5f ed3d
00000310: d7a5 a33d 7711 66be d83a b23d 1242 dd3c
00000320: 28fc c0bc 105f 1bbd c46f 043e 50b3 a43d
00000330: 2c3c c3bc ca4d 3c3e 3cfc 2e3e 1169 223e
00000340: 76b3 65bd 88b8 06bc c88b 2a3d 246d 503e
00000350: a893 aabc 94ff 28be 4183 c23c 2b9f d5bd
00000360: 557c 60bc df59 1b3d 9a9e 733e f930 eb3c
00000370: 174a d8bb 93b7 a5bd f8a0 d43b c85a 60be
00000380: 908f 5d3e 700b f0bd 3b24 433d 0fe7 c5bd
00000390: 52e6 11bb c066 6d3d d37f babd a6f4 063d
000003a0: 51e2 91bc 9005 d93d 13bc 3b3e 130b edbb
000003b0: 040a 4ebe a0bf ae3d 26ab 163e b195 6bbd
000003c0: 5f2e 80bd 1534 253e 811e 16bd 5c1c cc3c
000003d0: 9344 5d3d 440f 303e 5598 8b3d 4a36 d0bc
000003e0: 7099 cc3d ad5b b63c 731d 4fbd 1e57 cbbc
000003f0: 0b13 13bc 4894 9f3c 69b0 52bc b58f 6cbe
0.0025947161 0.04357977 -0.10556031 -0.082920365 -0.07137737 0.21553361 -0.14729424 -0.042931773
-0.10630205 -0.08993771 -0.061272435 0.068708204 0.036120042 0.00786839 0.23124094 -0.07881369
-0.046133827 0.14904423 -0.055344727 0.019870011 -0.07003548 -0.0065270327 0.0025914544 -0.002916807
0.081215955 -0.10875416 -0.18536575 -0.15082638 -0.050041266 -0.18118902 -0.038282666 -0.34523338
0.09970633 0.0053317207 0.043158654 0.10373564 0.06507107 0.08790913 0.03481844 -0.019198796
-0.02829295 -0.09017237 0.12245375 -0.028560206 0.047220152 0.09982868 -0.13822255 -0.019853367
0.011567026 -0.077440456 0.031175647 -0.0395766 0.013650086 0.019309156 0.053464215 -0.015464232
-0.09239744 -0.042684056 -0.1837523 -0.36765745 0.052068546 0.04366013 -0.15017769 -0.19363053
-0.10244759 -0.000116439456 -0.006449671 0.011049059 0.0712062 -0.06522201 -0.045686644 -0.0010675829
-0.06520517 -0.03166762 -0.06801995 0.025342496 -0.021098996 -0.0948403 0.08328341 0.12997168
0.012589579 -0.14729056 -0.06158075 0.03615973 0.0005381001 0.108163 -0.14837848 -0.40566206
-0.043173082 -0.060854837 0.25136837 0.029406775 -0.13230595 -0.02014301 -0.2551305 0.15926301
0.054920424 0.100622565 -0.10376868 0.078474365 -0.015977377 0.40973425 -0.030940542 0.019683285
-0.037515122 0.13855599 0.18239607 -0.022325449 -0.1406136 -0.003543354 -0.05109322 0.0637991
-0.047480922 -0.11596116 0.1061801 -0.09945081 -0.06239233 0.031865507 -0.109199114 -0.13408509
-0.006084465 -0.17443025 -0.10252882 -0.030819396 0.036915686 0.0050467295 0.062603444 0.13449986
-0.018929888 -0.020576915 0.04863245 -0.0573119 0.22189373 0.10530403 -0.066326894 -0.058853537
0.055215817 -0.20257795 -0.0026144572 -0.047509726 0.059886873 0.13674909 -0.0032081094 -0.115737095
0.107909694 0.13463111 0.11681684 0.029945163 0.048304927 -0.23753324 -0.007233039 0.19292869
0.2422389 -0.14011557 -0.18501411 0.0044352366 0.16228954 -0.03513803 0.14709936 0.04412909
0.049921058 0.011562222 0.076429695 0.04049025 -0.24993397 -0.23351441 0.034764506 -0.000342782
0.07984727 -0.088434376 0.025416145 -0.03943094 0.047179744 -0.037755705 0.06297647 0.071709335
0.14353018 -0.082616925 0.12283224 0.036753677 0.07577583 0.009072676 -0.09338172 -0.08644003
-0.112727605 -0.11621724 -0.012065957 0.09472884 -0.19853003 0.09256571 -0.17873223 0.1329447
0.03534073 0.032919277 0.11231885 0.115905024 0.07990616 -0.224676 0.0870263 0.027009044
-0.023557737 -0.037932456 0.1293326 0.08042014 -0.023832403 0.18389049 0.17088407 0.15860392
-0.05607935 -0.008222707 0.041637212 0.20354134 -0.020822361 -0.16503745 0.023744227 -0.104307495
-0.013701518 0.037927505 0.2379097 0.028709875 -0.006600629 -0.08091655 0.0064889155 -0.2190963
0.21636796 -0.117209315 0.047641974 -0.096632116 -0.0022262526 0.05795932 -0.09106412 0.03294816
-0.017808111 0.10596764 0.18333463 -0.007233986 -0.20121008 0.08532643 0.14713725 -0.057515804
-0.062588446 0.16133149 -0.036650185 0.024915867 0.054020476 0.17193323 0.068161644 -0.025416512
0.099902034 0.022260511 -0.050565194 -0.024821814 -0.008976708 0.019479886 -0.012859442 -0.23101695

linear1.bias f4 [256]
00000000: a415 a2bc b32a 1bbd 7de9 84bd 3736 c6bd
00000010: 6a8a 49bd eb71 08be 6e49 92bd 20bf 00bd
00000020: 142f f2bc 0f53 93bc 6b24 a9bd 2b49 08bc
00000030: e169 9bbc 48ba 39bd 7c2e d9bc 5d25 27bd
00000040: a007 5abd ae91 d1bc dc63 2cbd 7ccf efbd
00000050: 8d7d 95bd f026 6cbd a9a3 90bd 2efd 86bd
00000060: 1a26 b4bd ef92 9cbd 7025 c3bc 7507 3dbd
00000070: 2b9e 69bc 29e0 993a f3b9 6abd ae2b bcbc
00000080: 2f05 bcbc 7f24 b5bc 07e5 20bd 9f15 44bd
00000090: 46f1 99bd 6b45 abbd 0069 23ba 38a5 44bd
000000a0: cb20 0fbd 98e6 4ab9 1e06 86bd a3e8 ebbc
000000b0: 1252 67bc ce97 82bd f7cd 03bd 64f9 84bd
000000c0: e8cf 2bbd 5be7 f8bc 6345 16bd 6cd4 c1bd
000000d0: eea5 79bd b661 85bd 52ac aabd 4498 24bd
000000e0: 585c 89bd a91f 83bc 8ce3 8dbd 4aa4 7cbd
000000f0: 0b7b 3abd 8f8e 65bd 84e3 87bd 9914 90bd
00000100: 7758 58bd 9486 9cbb 3879 83bd ad38 01bd
00000110: 43af 42bd c6f1 9ebd 49d6 cabd 3abe 84bd
00000120: bf2c 8bbd d58d 20bd 2377 54bd eff4 adbd
00000130: 471b b8bc b71f 11bb 06e0 a9bc c75a 54bd
00000140: 4a91 543a b9a8 2abd cfee 8abd 6aec 80bc
00000150: 694b 73bd cb3c 9fbd cdbd 5abd 274e f6bc
00000160: ca26 f9bc 9cb6 4fbd 2abe 9ebc e710 01bd
00000170: 6e73 c6bc 8a68 9bbc 86cc 5fbd bca8 74bc
00000180: e0e1 07bd 78a1 12bd 06c1 5239 eb4a f7bc
00000190: 742a 6dbc e925 6abd 80f2 b4bd 5a00 b5bc
000001a0: 65bc 97bc 3836 6dbd fe5f aabd e2bb 93bd
000001b0: 92c9 3d3d 24e9 aabc 9d4a 7abd 6929 0cbd
000001c0: 04a7 70bd f53a 24bd c1f1 59bd 1068 49bd
000001d0: 6313 a5bd 11bc e5bc 7da3 17bd bac4 91bd
000001e0: c874 1fbd 474b 83bd 758c 02bc 2357 4dbc
000001f0: ca68 77bd 7cd5 9fbd 3d0a f0bb c606 e6bc
00000200: 68f0 94bd c903 e8bc 48de a1bd c518 81bc
00000210: 3e30 b2bc e3d0 eebc 01a1 5bbd f083 0dbd
00000220: d672 b8bd b957 cbbc b18a 43bd 16c6 04bd
00000230: 2dfe 2fbc bf26 16bd 8879 26bd 56bf 00bd
00000240: affa 76bd 5568 c1bc b800 86bd 42be 27be
00000250: 9553 45bd 1c0d 02bd d2fd 8ebd c37d 01bd
00000260: 3b5c 1fbd 21bf d5bc 56c6 1cbd a3f4 10bd
00000270: 69a0 babd 2741 29bd 02c0 a9bd 58ae 49bd
00000280: 8b27 d2bd bd33 50bc 2769 51bc ab1f 2cbd
00000290: 6308 a1bd e3a0 adbd 4b1c 75be 3689 81bd
000002a0: fb11 02bd 2954 8dbd 48a7 8fbd 46eb 35bd
000002b0: 39ec aebc 0906 f9bc 1c3f 00bd 51c8 57bd
000002c0: 159b 9dbc c0eb 60bd 9146 86bd 34a3 4abd
000002d0: b3a3 74bd 2f54 36bc b524 66bd db58 6ebc
000002e0: e838 c6bc 6755 30bd 226b fabc ea42 59bd
000002f0: c506 80bd d2c0 1fbd 993d 3bbd 5867 3abd
00000300: 32c3 04bd 8f60 76bc 714f 38bd f473 e6bc
00000310: 8f48 cabc edcb 4cbd e5d0 5bbd 4963 1cbd
00000320: 4e79 02bd c454 e2bc 15e3 90bd 391a 78bd
00000330: b661 2bbd 7acf 1fbd bb50 12bd ddec a8bd
00000340: 39f9 82bd 429b 52bd e68b ccbb a68a a9bd
00000350: 4edc 51bd eaaa 80bd 3b3e 21bd 2c8e bdbd
00000360: d0e9 c0bc f088 c8bd c4f4 23bd 1279 89bd
00000370: 6346 71bd b789 37bd 3e5a 5cbd 49a1 5fbd
00000380: ae33 1abd a645 1cbd dc12 cfbc f923 a0bd
00000390: 747e 2dbd 781e 02be a69b 68bd d0ed 0cbd
000003a0: 22f4 eabc 7c31 f9bc d7f7 3ebd 050c 30bd
000003b0: 1bc6 ecbb b936 0fbc 0044 0abd 2c2c bebd
000003c0: 6570 83bd 2dbd cfbb 2dc9 40bd 5434 fbbc
000003d0: e344 98bd 6042 9bbd e720 31bd e784 21bd
000003e0: bb2d 86bc 1d17 b1bd be2b 1cbc bfdd 45bc
000003f0: d6ee c4bb 8802 ebbd df7b 36bd 42e9 19bd
-0.01978571 -0.037882518 -0.06489847 -0.096783094 -0.049204268 -0.13324706 -0.07142912 -0.03143227
-0.029563464 -0.017983941 -0.08258899 -0.008318226 -0.018971385 -0.045343667 -0.026511423 -0.040807117
-0.053229928 -0.02558216 -0.04208742 -0.117094964 -0.072993375 -0.05765432 -0.07062466 -0.06591259
-0.0879633 -0.07645213 -0.023821563 -0.04614969 -0.014258902 0.0011739779 -0.05730624 -0.022970047
-0.02295169 -0.02211213 -0.039280917 -0.047872182 -0.075167224 -0.0836285 -0.0006233603 -0.048009127
-0.034943383 -0.00019350124 -0.065441355 -0.028797453 -0.014118688 -0.06376611 -0.032178845 -0.0649288
-0.04194632 -0.030383756 -0.036687266 -0.094643444 -0.06094926 -0.065127775 -0.08333649 -0.040184274
-0.06707066 -0.016006308 -0.06928167 -0.061680116 -0.0455275 -0.056044158 -0.06635192 -0.07035179
-0.05281874 -0.004776785 -0.06419605 -0.03154819 -0.047530424 -0.077609584 -0.09904153 -0.06481595
-0.06795644 -0.03919776 -0.05187143 -0.08493983 -0.022473944 -0.0022144148 -0.020736706 -0.051844385
0.0008108808 -0.041664813 -0.067838304 -0.015737731 -0.05939809 -0.07775267 -0.053403664 -0.030066563
-0.030414004 -0.05071126 -0.019377787 -0.03151026 -0.024224963 -0.018970747 -0.054638408 -0.014932808
-0.033174396 -0.03579852 0.00020099067 -0.03018709 -0.014475454 -0.05716506 -0.08835316 -0.022094894
-0.01852245 -0.057913035 -0.0831909 -0.0721357 0.04633481 -0.020863123 -0.061106313 -0.03421918
-0.05875303 -0.04009529 -0.05320907 -0.049171507 -0.08060338 -0.028043779 -0.03702115 -0.07117601
-0.03892973 -0.064108424 -0.007968058 -0.012532982 -0.06040267 -0.07804391 -0.0073254392 -0.028079402
-0.07272416 -0.028322117 -0.07903725 -0.015758881 -0.02175152 -0.02915234 -0.053620342 -0.034549654
-0.09006278 -0.024822103 -0.04773969 -0.032415472 -0.010741753 -0.036658045 -0.040643245 -0.031432472
-0.060297664 -0.02360932 -0.06543106 -0.16381171 -0.048175413 -0.031750783 -0.06982006 -0.031614076
-0.038906317 -0.026092114 -0.038275085 -0.035389554 -0.09112627 -0.0413219 -0.08288576 -0.049238533
-0.102614485 -0.012707648 -0.012781418 -0.04202239 -0.07862928 -0.08477952 -0.23936574 -0.06324999
-0.03175543 -0.06900818 -0.07014328 -0.044413827 -0.021352874 -0.030398386 -0.031310186 -0.05268127
-0.019238988 -0.05491233 -0.06556428 -0.04947205 -0.05972643 -0.011128469 -0.05618735 -0.014547552
-0.024197057 -0.043050196 -0.030568663 -0.05304233 -0.06251291 -0.039002247 -0.04571304 -0.045508713
-0.032412715 -0.01503767 -0.044997636 -0.028131463 -0.024692802 -0.049999166 -0.053666014 -0.038180623
-0.031853966 -0.02762831 -0.070745625 -0.060571883 -0.04184123 -0.039016224 -0.03572152 -0.08248303
-0.06395192 -0.051417597 -0.006242263 -0.08278398 -0.05123549 -0.06282599 -0.03936599 -0.09255633
-0.02354899 -0.09791744 -0.04002835 -0.067125455 -0.058905017 -0.04480907 -0.053797 -0.054597173
-0.03764694 -0.03815236 -0.025277548 -0.07819361 -0.042356923 -0.12706935 -0.056789063 -0.034406483
-0.028680865 -0.030419104 -0.046623077 -0.042980213 -0.0072257644 -0.008741074 -0.033756256 -0.09285769
-0.06417922 -0.00633969 -0.047066856 -0.0306646 -0.07435014 -0.075810194 -0.04324427 -0.039433386
-0.016379228 -0.08646987 -0.009531913 -0.012076794 -0.006009917 -0.11475092 -0.044551726 -0.037575968

linear2.weight f4 [60, 256]
00000000: 9dd4 65bb f7e7 0d3e 0625 533d ec0d 0cbd
00000010: 3e2f 55bc d56f d3bc 62ae 5c3b d360 2cbd
00000020: f546 103d 4faa c83c 329e e0bc a0a3 c5bd
00000030: 795d 8dbd f932 ebbc 766e 373d 70e0 38bc
00000040: f740 e83d 2473 8d3d 92fd 82bd 4f2b 10bd
00000050: 1c2c b9bc f911 22bc 1791 a9bd 8096 3fbc
00000060: 9832 663d fa48 aa3c c11a 663d 26c1 d3bb
00000070: b0ba 913d 81e9 633c b28f f03c 0143 1dbc
00000080: 5bea 9b3c 22d0 ffbc 2d60 763c 4ba1 80bc
00000090: 43e7 34bc dcf4 afbc ed75 45bb 3d19 d73c
000000a0: caec 1f3d 7957 983c b2e3 6ebc c68f 883c
000000b0: b0a6 60bc 3a60 acbc 12ef a9bd ea94 0cbc
000000c0: d33b a63b c886 383d 5146 463d fbd7 0abd
000000d0: 6f6d 6bbd 1b44 643d de9d c0bc aed1 ccbb
000000e0: 938f aa3d 7fb9 0a3d 5883 91bd 6612 c33c
000000f0: 1923 c7bc beba 293d 5811 32be deed 4d3d
00000100: 41e8 07bd 9191 a33c d1ff 04bd 6486 573d
00000110: c28a 98bd 60c4 75bc 0da1 0e3e dfed 2d3d
00000120: 5f56 aa3d 1caa 81bd cf51 ba3c e203 8abd
00000130: af3b 39bb 3581 29bc de65 57bd 5084 97bb
00000140: f3f0 653d 4f44 efbc 9515 86bd 464a 193d
00000150: 91fd 85bd 2fd2 6dbd 4813 a63b 4c5a 8ebd
00000160: 6609 a03d 6b91 76bc c017 8abd 35ce 17bd
00000170: 096b 07bd 61fa a1bd b28c 00bc 172e 1a3d
00000180: 4085 ecbb db34 febc d49f 973d fc1c e33c
00000190: 147b afbc 6bb3 863d 724f c0bc c425 0f3d
000001a0: 0eb0 123c 91ac 9fbc 81f2 6a3c 2d95 0a3e
000001b0: 43d9 2e3e 708c 30bb 77eb bdbc 1df8 513d
000001c0: 7896 25bd 31ee 103b 31ab ee3c e437 84bd
000001d0: d602 74bd 3cb6 283d 8a6a 6c3d 48dc ccbd
000001e0: f01a 61bd 9938 3f3d 5048 b03b bc7a fa3c
000001f0: 6b28 d1bc 157a a3ba b888 bc3d 96e5 bb3c
00000200: bf02 9dbc 9245 1e3c 1dc7 da3c 6fb5 033d
00000210: 3726 99bc b5b5 81bb bddc 28bd 4abb bcbd
00000220: e92c 333d 8e2e 543d 8e4d 53bd 16ab 263d
00000230: 7181 433c 9662 7b3d d93b 4f3d 0e76 603d
00000240: 03bb c23c 7796 b13d 596e 7dbc 2a7d 6c3e
00000250: 9c54 74bd 1300 2abd 7760 b1bc b7f1 483d
00000260: 2960 7f3c f89d 41bd af55 9cbd f8a8 11bb
00000270: f8b2 c7bd acd3 443c 270c 983d 4f1c 01bd
00000280: 213b 46be 565f c1bc d4f0 e1bc 57e4 5b3c
00000290: 10bc b7bd 79df aebd 55a0 a8bd 859f df3c
000002a0: 00b5 44bb 8718 1a3d 3c33 6e3d 57a3 f13c
000002b0: 1423 2c3c dacd 723d da88 a9bc 5c4b 05bd
000002c0: 5029 01bd 80f8 033e 8c92 5bbd a286 f3bc
000002d0: 8883 4abd b3d4 203d 529b 103d 6233 8cbd
000002e0: 6e1b 433c 17b5 be3d 2844 0c3c aefc a1bd
000002f0: 2f20 2e3d 94e1 3cbd 850a 763d fa54 173d
00000300: 66b7 55bd d904 89bd 66c5 963c 2f0e c7bc
00000310: 74cc afbc 2dfc 5d3d 9ee0 5bbc fc70 e53c
00000320: 082b c1bd 9f75 4d3c 088a 183d 2a94 1dbd
00000330: 851c 573d c2e1 2e3d 6164 9bbd 7911 4cbc
00000340: 6361 cc3c e5e6 623d 954e 8bbc 1fb7 593e
00000350: e04a 87bd 1e0b 633d 6f70 09bd c45a 27bd
00000360: 116d 8f3d 923b 8abd 523e 093c 6484 5c3d
00000370: f91e 98bd 5fc5 8abd 1710 57be 0ee8 833d
00000380: ce97 20bd 5d14 6b3d dff6 46bd 0d2c 56bd
00000390: 3e1c f93c 1361 dbbd 1a78 f7bb e7de 5f3d
000003a0: 90c5 97bd afd5 693c dec3 a23c 5683 36bd
000003b0: 8f9e 84bc 34b1 523d a073 0a3d 8899 bfbc
000003c0: d917 673d 0fb6 28bd c19f fcba bf68 3e3d
000003d0: 1a1f a9bc 00e4 c23d c0fe 00bd 944a e73c
000003e0: ab50 b83d 835d 40bd 0254 ba3c 75ab 333d
000003f0: 06d3 423d 12b0 27be a2da 61bd 83a9 92bd
-0.0035069354 0.13858019 0.05154898 -0.034192964 -0.013011752 -0.025810162 0.0033673276 -0.042084526
0.03522392 0.024495272 -0.027419183 -0.096503496 -0.06902594 -0.02871083 0.044783078 -0.011283979
0.11340516 0.06906727 -0.06396021 -0.035197552 -0.02260404 -0.00989198 -0.08279627 -0.011693597
0.056200594 0.020786751 0.05617786 -0.006462234 0.07115686 0.013910652 0.029365394 -0.0095984945
0.019032648 -0.031227175 0.0150375785 -0.01570191 -0.011041465 -0.021479063 -0.0030130104 0.026257152
0.03904418 0.018596398 -0.014580654 0.016670119 -0.013711616 -0.021041978 -0.08297552 -0.008580426
0.0050730496 0.045050412 0.048406903 -0.03389738 -0.05747741 0.055729013 -0.023512777 -0.0062505817
0.08328166 0.03386831 -0.0710513 0.023812484 -0.024308728 0.041437857 -0.17389429 0.050275676
-0.03318048 0.019966872 -0.032470528 0.0526184 -0.07448341 -0.015000433 0.13928623 0.04246318
0.08317255 -0.06331274 0.022744088 -0.06739022 -0.0028264334 -0.010345747 -0.052587382 -0.004623927
0.05613799 -0.029207377 -0.06547085 0.03742435 -0.065425046 -0.058061775 0.0050682165 -0.069508165
0.078142926 -0.015049319 -0.06742811 -0.03706189 -0.03306106 -0.07909084 -0.007846044 0.03764161
-0.007218033 -0.031031063 0.07403532 0.027723782 -0.021420993 0.0657719 -0.023475382 0.034948125
0.0089531075 -0.019491466 0.014340044 0.13533469 0.17075066 -0.0026939176 -0.023183567 0.05126201
-0.0404267 0.002211463 0.029134365 -0.06455973 -0.059573017 0.041189417 0.05771879 -0.10002953
-0.05495733 0.046684835 0.005379714 0.030576102 -0.025531968 -0.0012472296 0.092057645 0.022936624
-0.019166349 0.009660142 0.026706273 0.03215545 -0.01869498 -0.0039584287 -0.041226137 -0.0921541
0.043744 0.05180221 -0.051587634 0.040690504 0.011932717 0.061373316 0.050594185 0.054800086
0.023770815 0.08671277 -0.015468203 0.23094621 -0.059651002 -0.041503977 -0.021652443 0.049058642
0.015586891 -0.04726979 -0.0763353 -0.0022225957 -0.097509325 0.012013357 0.07424193 -0.031521138
-0.19358493 -0.02360503 -0.027580656 0.01342114 -0.08971417 -0.08538718 -0.08233706 0.027297745
-0.003001511 0.037621047 0.05815433 0.029496832 0.01050641 0.059278347 -0.020695139 -0.03254257
-0.03153354 0.12887764 -0.053606555 -0.029727284 -0.049441844 0.039265346 0.035304375 -0.06845738
0.011908395 0.09311884 0.008561172 -0.07909523 0.04251116 -0.046113566 0.060068626 0.036946274
-0.052176856 -0.06690378 0.018404674 -0.024298755 -0.021459796 0.05419557 -0.013420252 0.028007977
-0.09432036 0.01254025 0.03724101 -0.03847138 0.052517433 0.04269577 -0.07587505 -0.012455338
0.024948781 0.05539598 -0.017005244 0.21261261 -0.06606078 0.055430524 -0.03355449 -0.040858045
0.07003225 -0.067496434 0.008376675 0.053837195 -0.074277826 -0.06775927 -0.21002232 0.06440745
-0.039207272 0.057392467 -0.04857528 -0.052288104 0.030408975 -0.10711875 -0.007552159 0.054655936
-0.07410729 0.014272138 0.019868787 -0.044558845 -0.016188888 0.051438525 0.033801675 -0.02338864
0.056419227 -0.04118925 -0.0019273685 0.046486612 -0.020644713 0.09516144 -0.03149295 0.028233804
0.08999761 -0.04696418 0.022745136 0.043864686 0.04756453 -0.16375759 -0.055140145 -0.07161238

linear2.bias f4 [60]
00000000: bb7f 913c b52d b63c 8f8d 8d3d 5e9b 1f3c
00000010: 0b3b 7abd f754 0cbd aba9 f6bc 37d3 1abd
00000020: bd3d c43c ce0d b83c ddcc bf3c 4ac0 d9bd
00000030: a1f3 923d f40b 4e3c 42f7 2a3c b143 1bbc
00000040: ae77 883d d5cb e8bc 5730 54bd 5ad1 66bc
00000050: a8a0 9bbc 0904 22bd 7764 aa3d 19e9 2f3d
00000060: 93b7 89bc 3a5f 3a3c 916c 67bd 96ec c63c
00000070: c5d5 a1ba 8293 cebc 3b72 af3d 537c 30bc
00000080: 529c 903c 763d 5bbd e002 df3c 1b62 2abd
00000090: e2e6 3a3d 0fda 7bbd 6629 72bd 9f57 193c
000000a0: 84fc 013d 8f03 ee3c 67f7 42bd ede0 4a3c
000000b0: 8c28 afbc 3b17 0c3c 23d2 b0bb ab50 943c
000000c0: 95f1 0f3d 3d12 98bd bfe3 403d 286c 1fbd
000000d0: 8900 8dbc 6c13 3ebd 6e02 663d 1229 dd3c
000000e0: 432e 87bd b234 e1bc 3df5 233d 1e6f f33b
0.017761102 0.022238592 0.06911766 0.009741632 -0.061091464 -0.034260716 -0.0301102 -0.037799086
0.02395522 0.02246752 0.023413116 -0.10632379 0.07175375 0.012576092 0.010434927 -0.009476588
0.06663452 -0.028417507 -0.051803913 -0.014087999 -0.018997505 -0.03955463 0.083199434 0.04294691
-0.016811168 0.011375243 -0.05650002 0.024282735 -0.0012347033 -0.025216822 0.085667096 -0.010771829
0.017652664 -0.05352541 0.02722305 -0.041597467 0.045630343 -0.061487254 -0.059121512 0.009359269
0.03173496 0.029054431 -0.047599223 0.012382728 -0.021381639 0.00855046 -0.005396144 0.018104872
0.0351425 -0.07425354 0.047092196 -0.038921505 -0.01721217 -0.04640524 0.05615466 0.026997123
-0.066006206 -0.027490947 0.0400288 0.0074290177

weight f4 [1, 768]
00000000: e588 033c 5922 133c b644 8abb e9c1 d33a
00000010: c01c 04bc 6a8a 89bc 66b1 983b 059d 94bc
00000020: dce9 80bb a4c3 a9bc 649d b33a a765 703c
00000030: 5ab9 77bc e888 48bc e731 86bc 0354 efbb
00000040: 8561 2f3c 575f 243d a3ff 763a 46c5 773a
00000050: f29f 993c 0e09 06bd d9ca e4bc 5096 943c
00000060: 8d17 e639 0893 0f3b 795d 953b ffc1 37bb
00000070: 21c2 91ba 9f08 f03c cf7c 9a3a bf98 733d
00000080: 40e1 76bb abad 2b3c 5c4e 74bc 5a96 963c
00000090: 27e1 01bd 5c9a b1bb cc78 3abc 9ab7 4438
000000a0: 8a09 003c de86 d6bc 254a 58bc 966e bc3c
000000b0: 22f2 023c a5bf 0abb d63d fabc eea5 9cbc
000000c0: fa12 8d3c 8273 53bc 71fe 953c f435 ae3b
000000d0: 4c20 fcbb 7fd9 2b3c 71d3 fa3c 42b1 dabc
000000e0: 05e4 f2bc 5314 9a3c a588 1a3c 291f 413c
000000f0: fcbc 813c 54db 633c b19a 4fbc e7fd c2bb
00000100: 4d79 39bb 5986 b93c 7dba 80bb 3696 73ba
00000110: aab0 9ebc a4e1 3bbb 7b12 a23c 6eea b8bc
00000120: 5b43 eebc 77db 833c dfc9 8dbc 4069 0abc
00000130: 4fca b3b8 eee9 04bc b765 1cb9 5599 913c
00000140: 7c2d 70bb 3a91 a93b f3bd 83bc 5eb1 d83c
00000150: 946c d4bc 17ba 853c 2baf 983c 9ba6 e3bc
00000160: 673f 973c d946 ab3c 748c 6139 e997 c7ba
00000170: 0df3 58bc 0fd8 abbc ebc4 20bb 4d71 663c
00000180: 6ad5 26bc cfd7 f9bc 37e8 c339 4789 3f3c
00000190: 8a06 78bc 743b c03a 33a8 a03c 62a4 8bbc
000001a0: ea1d c23b 4415 c83c 0d45 ebbc 2878 22bb
000001b0: 23a8 94bb ffe0 413b a5ab 073c 4307 ac3c
000001c0: 2dcc 823c fe90 ab3b a970 353c 2c35 ffbb
000001d0: e602 3f3c 191e ef39 81bf ecbc e2be d63c
000001e0: ad7a 52bc 7981 09bc cd4f 0cbc ce7b 933b
000001f0: 9d98 fe3c fdd0 19bc 204e 86bc 8edd d6bb
00000200: 1fb3 4439 f140 9b3c db01 cf3b a90b 01bd
00000210: e655 193d 6388 db3c 81d6 5f3c 0f3f 8cbc
00000220: b92b babc c280 6ebc 07d1 36bc a30e d53c
00000230: c775 c13b 0ce8 f33b e1be db3b 352f 503b
00000240: e5d7 813b 7e2b cabc b5c9 8fbc c827 43bc
00000250: c277 c73b c44c 523c 911a e8bb 6c85 193d
00000260: f4f3 a4bc 91dc f03b 4555 36bb 478e 4b3c
00000270: 7dc3 0c3c fa4f 7d3c a064 8f3b 406d 6cb9
00000280: b27e 8fbb de68 bcbc 20e9 e2ba f768 3dbb
00000290: 2fb1 dfbc cedd 5dbc 2a05 c63c 1578 f83c
000002a0: bc97 37bc 94f4 f2bb 8a96 81bc d6de 99bc
000002b0: 00a6 863c e4b4 b33a b71b 8c3c 2b79 74bc
000002c0: 7f1c a4bb 2053 cebb c517 883c 8136 d43c
000002d0: 9037 ff3c 946d 793c e5ab dcbc 387c 783c
000002e0: 223a b3bc 8726 aa3c efe2 2dbc 9990 8fbc
000002f0: 9348 b63c da37 af3b 874c 703c 4f21 89ba
00000300: cbae 9a3c fd34 7e3c 752a 583c 83ff f03c
00000310: c690 153c 2c40 ab3b 9872 803c be90 063d
00000320: 2adf 1d3b 698d 88bc 539a 553c a79e 7f3c
00000330: 2fbd a8bc b567 aabc 2e6c 39bc 0bdb d8bc
00000340: 854c 853c 386f 293a 35c2 293c 925b 653c
00000350: 984a 293b 5b91 543c 92da c9b9 dab0 13bc
00000360: 7d0e 063d fa8e 38bc 9de0 123c 2869 97bc
00000370: 0338 4ebb 813a b8bc 6ea3 95bb 90bb 50bc
00000380: 4eeb 643c 4247 b5bc deb6 893b 3f24 3fbc
00000390: de3e d43c 0661 653c 1b40 74bb 3420 22bc
000003a0: 8607 4c3c d4fc c13b 3e51 953c 7495 8fba
000003b0: ea96 ad3c 1453 92bc 0ee5 74bc 7163 95bc
000003c0: 0836 30bb 6147 8fbc b32c ee39 6625 a5bc
000003d0: 5094 b83b b758 dfba b730 743c 63c1 f3ba
000003e0: 1ecf febc 0bff e93c ae25 0cbc 66ca 913b
000003f0: 7a1c 1a3c 438e c2bb f56c 903c 711c a93b
0.008028244 0.008980357 -0.0042196168 0.0016155812 -0.008063495 -0.016789634 0.0046598194 -0.018141279
-0.003934128 -0.020723172 0.0013703522 0.014672673 -0.015119875 -0.012239672 -0.016381217 -0.007303716
0.010704403 0.040129986 0.0009422248 0.0009451698 0.018753026 -0.03272348 -0.027928757 0.01813808
0.00043886565 0.0021907706 0.004558262 -0.0028039215 -0.0011120477 0.029300986 0.0011786463 0.059471842
-0.003767088 0.010478417 -0.01491126 0.01838224 -0.031708863 -0.0054200124 -0.011381339 4.6901034e-05
0.007814774 -0.026187357 -0.013201271 0.02300195 0.007992299 -0.0021171358 -0.030547064 -0.01912209
0.017220963 -0.012905957 0.018309804 0.0053164903 -0.00769428 0.010488867 0.030618401 -0.026695851
-0.029649744 0.01880852 0.009431993 0.011787214 0.015837185 0.013907272 -0.012671159 -0.0059506777
-0.002830106 0.02264707 -0.003928481 -0.00092920975 -0.01937135 -0.0028668428 0.019784203 -0.022572722
-0.029084852 0.01609586 -0.017308174 -0.008447945 -8.573068e-05 -0.008112414 -0.00014915211 0.01777331
-0.0036648205 0.005174783 -0.016081786 0.026451763 -0.02593068 0.016324086 0.018638214 -0.027789405
0.01846285 0.020907806 0.00021509995 -0.0015227768 -0.013241542 -0.020977048 -0.0024531435 0.014065099
-0.010182718 -0.030498413 0.00037366312 0.011690444 -0.015138278 0.0014666156 0.019611454 -0.017046157
0.005923976 0.024424203 -0.02871945 -0.0024790857 -0.004536645 0.002958357 0.008280669 0.020999556
0.0159665 0.0052357903 0.011074224 -0.007788321 0.011658406 0.00045608057 -0.02889991 0.026214067
-0.012846631 -0.008392685 -0.008563948 0.0045008427 0.031078631 -0.009388206 -0.016394675 -0.006557173
0.00018758744 0.018951865 0.00631736 -0.03150526 0.037435435 0.026798433 0.013661982 -0.017119912
-0.022725927 -0.014557065 -0.011158234 0.026007956 0.0059039327 0.0074434336 0.006706104 0.0031766419
0.003962504 -0.024678942 -0.017552236 -0.01191134 0.0060872743 0.012835685 -0.007083245 0.037480757
-0.020135857 0.0073505123 -0.002782182 0.012424058 0.00859153 0.015460962 0.004376009 -0.00022547413
-0.004379117 -0.022999223 -0.0017311908 -0.0028901675 -0.027306167 -0.013541652 0.024172384 0.030330697
-0.01120561 -0.00741441 -0.015818853 -0.018783014 0.016436577 0.0013710526 0.01710306 -0.014921467
-0.00500828 -0.0062965304 0.016612897 0.025904896 0.031154424 0.015223879 -0.026937434 0.015166335
-0.021878306 0.020770324 -0.010613187 -0.017525004 0.022251403 0.005347234 0.014666683 -0.0010462197
0.018882176 0.015515563 0.013193716 0.029418712 0.009128755 0.0052261557 0.015679643 0.03285288
0.0024089315 -0.016668992 0.013037282 0.0156017905 -0.020598022 -0.020801404 -0.011317296 -0.026471635
0.016271839 0.0006463411 0.010361244 0.013998883 0.0025831815 0.012974109 -0.00038500555 -0.009014333
0.03272866 -0.011264557 0.008964685 -0.01848276 -0.003146649 -0.022488834 -0.0045666015 -0.012740031
0.013972117 -0.022128705 0.0042027077 -0.011666357 0.025908884 0.014000183 -0.0037269655 -0.009895373
0.012452966 0.005920032 0.018227216 -0.0010954575 0.021190125 -0.01786188 -0.014947189 -0.018235894
-0.0026887674 -0.01749009 0.000454282 -0.020159435 0.0056329146 -0.0017039989 0.014904193 -0.0018597062
-0.03110462 0.028563997 -0.008553905 0.0044491766 0.009406203 -0.005937369 0.01763008 0.005160861
